reinforcement_learning/ppo/ppo_model_150.pt (torch, 39500 bytes, 9 tensors)

shared_layers.0.weight f4 [64, 4]
0	0xbf45e75b	-0.77306145
1	0xbef56bd6	-0.47933835
2	0xbf7dde93	-0.99167746
3	0xbeefbd67	-0.4682419
4	0x3f070191	0.52736765
5	0x3e9fe975	0.312328
6	0x3fddb3da	1.7320511
7	0x3f1300e4	0.57423234
8	0xbf477bb8	-0.77923155
9	0xbe4a0f0d	-0.19732304
10	0xc00dc226	-2.2149749
11	0xbe5cacfe	-0.21550366
12	0x3fa2dba5	1.272328
13	0x3dd78222	0.10522868
14	0xbf21258d	-0.6294792
15	0xbdac148a	-0.08402355
16	0xbed0e68c	-0.40800893
17	0x3d5fe582	0.054662235
18	0x3ddf6808	0.10908514
19	0x3e8b5b61	0.27218154
20	0xbe0b4b8d	-0.13603039
21	0xbeb07f89	-0.34472302
22	0xbe4cdb5e	-0.20005557
23	0xbe35dcb0	-0.17759967
24	0xbcfa8388	-0.030580297
25	0xbf0c816d	-0.5488499
26	0xbe912da1	-0.28355125
27	0xbef4e0b6	-0.4782769
28	0x3dfcd510	0.12345326
29	0xbe9827d7	-0.29717895
30	0xbe18603c	-0.1488046
31	0xbe0e8d33	-0.1392105
32	0x3ea99b3a	0.3312624
33	0x3f824514	1.0177331
34	0x3f3d42db	0.7393014
35	0x3f4c7255	0.79861957
36	0x3eb1df29	0.3474057
37	0x3eec5587	0.46159002
38	0x3fda5c53	1.7059425
39	0x3efb7938	0.4911592
40	0xbe1d59c9	-0.15366282
41	0x3e996b00	0.29964447
42	0xbe7e80ea	-0.24853864
43	0x3e5a76b3	0.21334343
44	0x3e48b47a	0.19600096
45	0xbee1a7a9	-0.44073227
46	0x3dd6c722	0.104872
47	0xbe372f59	-0.17889155
48	0x3e3afb49	0.1825992
49	0xbe03947a	-0.12849608
50	0x3ebea582	0.37235647
51	0xbefb45e0	-0.49076748
52	0xbe4b8bb0	-0.19877505
53	0xbc8a7b92	-0.016904626
54	0xbd8fe89c	-0.070267886
55	0xbe62ebb7	-0.2216023
56	0x3f75a2f4	0.9595177
57	0x3df80644	0.1211057
58	0xbf213957	-0.6297812
59	0xbd5965f7	-0.053075757
60	0xbf3d4218	-0.73928976
61	0x3d104ea5	0.03523125
62	0xc01a2f7e	-2.4091487
63	0xbe181970	-0.14853454
64	0xbf66a027	-0.90088123
65	0x3db12e30	0.08651388
66	0xc00230b2	-2.0342221
67	0xbe632d64	-0.22185284
68	0xbe39271a	-0.18081322
69	0xbed11142	-0.4083348
70	0xbe3a3f22	-0.18188146
71	0xbe716115	-0.2357219
72	0x3d99c560	0.075083494
73	0xbddbd275	-0.10733501
74	0x3ebb8865	0.36627498
75	0xbf07e0be	-0.53077304
76	0x3e70ee21	0.23528339
77	0xbe9177ce	-0.28411716
78	0x3f0cbc56	0.5497488
79	0x3eeadb0f	0.45870253
80	0xbf1783ce	-0.59185493
81	0xbf07629d	-0.52884847
82	0xbfe36600	-1.7765503
83	0xbf276e5e	-0.6540278
84	0x3f430624	0.76181245
85	0x3eb962ab	0.3620809
86	0x3ceca60f	0.028887777
87	0x3e032a8f	0.12809204
88	0xbfb1edb3	-1.3900665
89	0x3ed0202e	0.4064955
90	0x3e692436	0.2276772
91	0x3e99fb93	0.30074748
92	0xbf580728	-0.8438592
93	0x3f13122b	0.574496
94	0xbd92708f	-0.07150375
95	0x3efa4926	0.48883933
96	0xbefa1387	-0.48843023
97	0xbe0c1eba	-0.13683596
98	0xbd81d982	-0.063403144
99	0x3cf7468c	0.030185007
100	0x3f89f517	1.077792
101	0xbdb58454	-0.0886313
102	0x3fd741ba	1.6816933
103	0xbe486a90	-0.195719
104	0x3dffc945	0.12489561
105	0xba85a4f5	-0.0010196256
106	0xbeaca6ca	-0.33721
107	0xbe084ba4	-0.13310105
108	0xbeb6cf64	-0.357051
109	0xbe6811be	-0.22663018
110	0x3edfa262	0.43678576
111	0xbe390511	-0.18068339
112	0xbf2d9253	-0.678014
113	0xbea9d6d2	-0.33171707
114	0xbf96de6e	-1.178663
115	0xbe9963dd	-0.29959002
116	0xbe910d15	-0.28330293
117	0x3eaa5655	0.3326899
118	0xbf14dcf6	-0.5814966
119	0x3e00a9a1	0.12564708
120	0xbec00465	-0.37503353
121	0x3c273342	0.010205092
122	0x3ed844d9	0.42240027
123	0xbeb38d5a	-0.3506878
124	0xbf4da910	-0.80336094
125	0xbe6382ba	-0.22217837
126	0xbf8f7145	-1.1206442
127	0xbe7ee576	-0.2489222
128	0xbe8e622b	-0.2780927
129	0xbee9c3b5	-0.45657125
130	0xbeb1cc2f	-0.34726092
131	0xbea9ebfb	-0.3318785
132	0xbe949afb	-0.2902449
133	0xbe795f07	-0.24352656
134	0xbf1cd74c	-0.61266017
135	0xbef5e01e	-0.4802255
136	0xbe09a9d9	-0.13443698
137	0xbeec951e	-0.46207517
138	0x3e2c215a	0.16809598
139	0xbeaac948	-0.3335669
140	0x3f3acc60	0.729681
141	0xbf1ff4b4	-0.6248276
142	0xbf56e143	-0.8393747
143	0xbef579c3	-0.4794446
144	0xbf2d51f6	-0.6770319
145	0x3d1e5322	0.0386535
146	0xc01fe55f	-2.4983747
147	0xbca45ae7	-0.020062877
148	0xbf22ddb7	-0.6361956
149	0xbcda3857	-0.026638193
150	0xbf9cfde2	-1.2264979
151	0xbe055ce1	-0.13023712
152	0x3e8c3079	0.27380732
153	0xbd8874f4	-0.06662932
154	0x3ecb3b3a	0.39693624
155	0x3e2d876e	0.16946194
156	0x3e20ad2a	0.15691057
157	0xbe4d6b47	-0.20060454
158	0xbeca0d96	-0.3946349
159	0xbeb9b583	-0.36271295
160	0xbdd920a6	-0.1060193
161	0xbe0f2f2c	-0.13982838
162	0x3e8f4e57	0.27989456
163	0x3e941ef3	0.28929862
164	0x3eabee77	0.33580372
165	0x3f300bbf	0.68767923
166	0x3faf1e22	1.3681071
167	0x3f18806d	0.5957096
168	0xbf043831	-0.5164824
169	0xbe82528b	-0.254536
170	0xc011e96c	-2.279872
171	0xbf04123a	-0.5159031
172	0x3e897496	0.2684676
173	0x3f18f710	0.5975199
174	0x3f8c2fdd	1.0952107
175	0x3f0c692d	0.54847986
176	0xbee3653e	-0.4441318
177	0x3dc7face	0.09764634
178	0x3f07c92e	0.5304135
179	0x3d82d6bd	0.06388614
180	0x3f300828	0.68762445
181	0x3f18d6fb	0.59703034
182	0x3f7550f2	0.9582664
183	0x3f008297	0.50199264
184	0xbe825613	-0.25456294
185	0x3e0241bb	0.12720387
186	0x3f679d0d	0.90474015
187	0x3e4882af	0.19581102
188	0xbca044d0	-0.019564062
189	0xbd2b425f	-0.041811343
190	0x3f5da356	0.86577356
191	0x3da57a81	0.080800064
192	0x3d54cc46	0.051952623
193	0xbf03933a	-0.51396525
194	0x3d9eb58c	0.07749471
195	0x3ed2d5f1	0.4117885
196	0xbd76aff3	-0.060226392
197	0x3e5f81db	0.2182688
198	0xbda1b6a3	-0.07896163
199	0x3eeaf145	0.458872
200	0xbef0c19c	-0.47022712
201	0x3be864d7	0.007092099
202	0xbf97fdb2	-1.1874297
203	0xbe2308d5	-0.15921338
204	0xbdc16a20	-0.0944407
205	0xbd4c0240	-0.049806833
206	0x3dd172c8	0.10226971
207	0x3c9d63a0	0.019212544
208	0x3de6d39f	0.11270832
209	0xbdf9e063	-0.122010015
210	0x3e578c0c	0.21049517
211	0x3f2f9715	0.6858991
212	0xbeb04947	-0.34430906
213	0x3e4dade0	0.2008586
214	0x3e27e391	0.16395403
215	0x3c8f8c95	0.01752309
216	0x3f737999	0.9510742
217	0xbe926f2b	-0.2860044
218	0x3eaa70d6	0.33289212
219	0xbe9e8870	-0.3096347
220	0xbf0e56a8	-0.55600977
221	0x3e94f307	0.29091665
222	0x3db82c1f	0.089927904
223	0x3e3c858a	0.18410316
224	0xbfaa89e6	-1.3323333
225	0x3f18d953	0.5970661
226	0x3d926385	0.07147888
227	0x3f0d3c46	0.55170095
228	0x3a33b24f	0.0006854878
229	0x3e627203	0.22113805
230	0xbd59de0c	-0.053190276
231	0xbe8c5cef	-0.27414653
232	0xbce372d5	-0.027764717
233	0x3d910d9a	0.070826724
234	0xbef1ba42	-0.47212416
235	0xbe15f3a8	-0.14643729
236	0x3e35a547	0.1773883
237	0xbe7487c4	-0.23879915
238	0x3e1f13bf	0.15534876
239	0xbd94283c	-0.072342366
240	0xbe9fba65	-0.31196895
241	0xbee7a76b	-0.45244917
242	0xbf0c8e7b	-0.5490491
243	0xbef29da1	-0.47385886
244	0xbf0895b7	-0.53353447
245	0xbec9595b	-0.39325985
246	0x3d2cd6e2	0.042197116
247	0x3cfa88a4	0.030582733
248	0xbee62c0e	-0.44955486
249	0x3e7ee3f2	0.24891642
250	0x3eb25441	0.34829906
251	0x3eba3006	0.36364764
252	0xbf012b36	-0.5045656
253	0x3e3110dc	0.17291588
254	0x3e86181a	0.26190263
255	0x3ebfa74a	0.3743232

shared_layers.0.bias f4 [64]
0	0xbdd03af3	-0.10167494
1	0xbe5a63fc	-0.21327204
2	0xbd337800	-0.043815613
3	0xbe61c192	-0.22046497
4	0x3f289ff5	0.65869075
5	0x3ee3ed8c	0.4451717
6	0x3ef421bd	0.4768199
7	0x3f2b5c3c	0.66937613
8	0xbe33031e	-0.17481658
9	0xbd811f27	-0.0630477
10	0x3f115eac	0.5678508
11	0x3f01ad5f	0.5065517
12	0x3f5f533d	0.87236387
13	0x3f4859ca	0.7826201
14	0xbe51e0ab	-0.2049586
15	0x3b98827e	0.0046542278
16	0xbce87d62	-0.0283801
17	0x3f26190a	0.64881957
18	0x3f06ff86	0.5273365
19	0x3f49213d	0.7856634
20	0xbe095022	-0.13409474
21	0xbe12e4fe	-0.14345166
22	0x3c8dacf9	0.017294394
23	0x3d7a96ab	0.061178844
24	0x3f4ffcdd	0.81245214
25	0xbd54e0cc	-0.051972196
26	0x3f273d1c	0.6532762
27	0x3f1b29a2	0.606104
28	0xbd1b71c6	-0.0379503
29	0x3f098377	0.53716224
30	0x3f0ee37b	0.5581586
31	0xbd82bb0c	-0.063833326
32	0x3f121944	0.570698
33	0x3f54e711	0.8316508
34	0x3f385c87	0.72016186
35	0xbe2bf4b2	-0.16792563
36	0xbcda339a	-0.026635934
37	0xbd89876f	-0.06715285
38	0x3f1dd211	0.6164866
39	0x3ef82236	0.484636
40	0x3eee7460	0.46573162
41	0xbe1ac2f7	-0.15113436
42	0xbd3c1e85	-0.045927543
43	0xbe13de1e	-0.144402
44	0x3f162eb9	0.58665043
45	0xbd70c7d0	-0.058784306
46	0x3f0e8d9e	0.5568484
47	0x3ed4217b	0.41431794
48	0x3f38ca19	0.72183377
49	0x3ee1ef99	0.4412811
50	0xbd6c5e7c	-0.057707295
51	0xbefdbc2e	-0.49557632
52	0x3e2492e2	0.16071656
53	0x3ef34c82	0.47519308
54	0xbe08ae4e	-0.13347742
55	0x3f35c84b	0.7100875
56	0x3d0bb95e	0.034112327
57	0x3f573ecb	0.8408019
58	0x3f2857e3	0.65759104
59	0x3ebddc41	0.37082103
60	0x3f0febe2	0.56219304
61	0xbf17752c	-0.59163165
62	0x3f20b510	0.6277628
63	0xbebb7ffc	-0.36621082

critic_layer.0.weight f4 [64, 64]
0	0x3d8253d6	0.06363647
1	0xbd1cc77c	-0.03827618
2	0x3ce61263	0.02808494
3	0xbdb43754	-0.087996155
4	0x3de2eca6	0.11080293
5	0x3d5885fd	0.052862156
6	0x3c76c302	0.015061142
7	0xbc7ddbbc	-0.015494283
8	0xbdef9d0e	-0.11699878
9	0x3dce0642	0.10059787
10	0x3d06c55a	0.032903053
11	0xbd1a5019	-0.037674043
12	0xbde2391a	-0.110460475
13	0xbd8e4ad5	-0.06947867
14	0xbdff3b2c	-0.12462458
15	0xbde2a920	-0.11067414
16	0xbdb45716	-0.08805673
17	0xbdec2b92	-0.11531748
18	0xbd166b1d	-0.036723245
19	0xbcf77d9f	-0.030211268
20	0x3c88e360	0.016709983
21	0x3dc98afa	0.09840961
22	0xbd80ff10	-0.06298649
23	0x3c55e3a0	0.013054758
24	0xbb8619ee	-0.0040924465
25	0xbdae750a	-0.08518417
26	0x3de7e054	0.11322084
27	0x3cb7efab	0.02245315
28	0xbdd5029e	-0.1040089
29	0xbc3e920a	-0.011631498
30	0xbe06ce48	-0.13164628
31	0x3dc572e6	0.09641056
32	0x3cd8e67d	0.026477093
33	0x3de8a015	0.11358658
34	0x3d6f1a0c	0.05837445
35	0x3d94e3cb	0.072700106
36	0xbdee2938	-0.116289556
37	0x3df98b98	0.121848285
38	0x3dd1c021	0.10241724
39	0xbdc4bea5	-0.09606675
40	0x3c17f8f0	0.00927566
41	0xbdb5b44e	-0.08872281
42	0xbd202364	-0.03909625
43	0xbc115090	-0.008869305
44	0x3b93cf7a	0.004510817
45	0xbcd280b0	-0.025696129
46	0x3c95c0bc	0.01828038
47	0x3dda2af4	0.10652724
48	0xbe027928	-0.1274153
49	0x3d0440f1	0.032288495
50	0xbda19e2d	-0.07891498
51	0x3d6da6a4	0.05802025
52	0x3d7d2258	0.06180033
53	0xbb7e1ab4	-0.003877324
54	0xbc8185c8	-0.015810862
55	0xbc9a860c	-0.018862747
56	0xbddff0c8	-0.10934597
57	0xba9777bf	-0.0011556073
58	0x3cbdeecd	0.023185158
59	0xbddba8f2	-0.10725583
60	0x3d925023	0.07144191
61	0xbc742c70	-0.014903173
62	0xbd9d393f	-0.076769345
63	0x3d06c1b4	0.032899573
64	0xbe3c1051	-0.18365599
65	0xbed5ecfe	-0.41782373
66	0xbef6ceea	-0.48204738
67	0xbf2f352b	-0.684405
68	0x3ec7175f	0.38885018
69	0x3ec1dc3d	0.3786334
70	0x3ece28a4	0.4026538
71	0x3ee22e25	0.4417583
72	0xbf3ddb4b	-0.7416274
73	0xbecbd666	-0.3981201
74	0x3e5a395a	0.2131094
75	0x3e7b3366	0.24531326
76	0x3eccfabf	0.40035054
77	0x3ec72fef	0.38903758
78	0xbee64f12	-0.449822
79	0xbf264600	-0.6495056
80	0xbe915d88	-0.2839167
81	0x3ee2b721	0.4428034
82	0x3ec62a1f	0.3870401
83	0x3eaa60b4	0.33276904
84	0xbf109927	-0.5648369
85	0xbeb921d6	-0.36158627
86	0xbf176fdc	-0.5915506
87	0xbf44631e	-0.7671374
88	0x3ea30b83	0.3184472
89	0xbf64ffa6	-0.8945259
90	0x3eb1335d	0.346095
91	0x3e81c32f	0.25344226
92	0xbe91ccf1	-0.2847667
93	0x3e99f7a6	0.30071753
94	0x3e707b5c	0.23484558
95	0xbe83019d	-0.25587168
96	0x3e8ad80f	0.27117965
97	0x3ea47a45	0.32124534
98	0x3eaed7c9	0.34149006
99	0xbf5553fe	-0.83331287
100	0xbf1ea59e	-0.6197146
101	0xbde1b8d8	-0.11021584
102	0x3ebe2e0b	0.37144503
103	0x3ebdbef3	0.37059745
104	0x3eca2b6a	0.39486247
105	0xbf016c1c	-0.50555587
106	0xbf23e503	-0.6402132
107	0xbe86a325	-0.26296344
108	0x3e8a3487	0.269932
109	0xbf0bd7c5	-0.54626113
110	0x3eab1f32	0.33422238
111	0x3ee38ec9	0.44444874
112	0x3ec6f611	0.3885961
113	0x3e762c69	0.24040379
114	0xbda1801f	-0.07885765
115	0xbdda0e16	-0.10647218
116	0x3df476c6	0.11936717
117	0x3eb2f2b6	0.349508
118	0xbf031312	-0.51200974
119	0x3e56fb04	0.20994192
120	0xbf2cacb6	-0.67451036
121	0x3eeafa42	0.45894057
122	0x3eac5795	0.3366057
123	0x3ed6e544	0.4197179
124	0x3e9e03cb	0.3086227
125	0xbe85a187	-0.26099798
126	0x3eabe369	0.33571938
127	0xbeaeb542	-0.34122664
128	0xbeb04a3e	-0.34431642
129	0xbec900b0	-0.39258337
130	0xbea5660c	-0.32304418
131	0xbf31f86e	-0.695197
132	0x3e122935	0.14273532
133	0x3e2a6391	0.16639544
134	0x3e85b284	0.2611276
135	0x3eb0deca	0.34544975
136	0xbf39d311	-0.72587687
137	0xbe999b35	-0.30001226
138	0x3e37b77d	0.17941089
139	0x3ebc2619	0.36747816
140	0x3ed3724f	0.41298148
141	0x3ec1701a	0.3778084
142	0xbeab4fc6	-0.334593
143	0xbf399ee6	-0.72508085
144	0xbec59fbb	-0.38598427
145	0x3e8ded80	0.2772026
146	0x3eaf1896	0.34198445
147	0x3ea80bdb	0.32821545
148	0xbf0f7696	-0.5604032
149	0xbe5e3d3f	-0.21703051
150	0xbf20e775	-0.62853175
151	0xbf712c95	-0.9420865
152	0x3ea75567	0.32682344
153	0xbf80cf98	-1.0063353
154	0x3ea0a989	0.31379345
155	0x3e962f59	0.29332998
156	0xbec71241	-0.38881114
157	0x3e0bc812	0.1365054
158	0x3e7ed8f7	0.24887453
159	0xbeaa7e75	-0.33299604
160	0x3e1b5387	0.15168582
161	0x3ecabf2f	0.39598987
162	0x3eafb9f8	0.3432157
163	0xbf27910c	-0.654557
164	0xbf458649	-0.7715803
165	0xbeb9ad58	-0.36265063
166	0x3e35238a	0.17689338
167	0x3eafbb81	0.34322742
168	0x3eab43a4	0.33450043
169	0xbf29e7d5	-0.6636937
170	0xbf0f2d71	-0.55928713
171	0xbe8342c4	-0.25636876
172	0x3e719d02	0.2359505
173	0xbf43a74f	-0.7642717
174	0x3e962dee	0.29331917
175	0x3ed9411f	0.42432496
176	0x3e831940	0.25605202
177	0x3e9f7c27	0.31149408
178	0xbd698f54	-0.057021454
179	0x3b84bce0	0.004050836
180	0x3ddfaae5	0.109212674
181	0x3e2e448e	0.17018339
182	0xbf007173	-0.5017311
183	0x3e1591f6	0.14606461
184	0xbf50a6cd	-0.8150452
185	0x3ee284e5	0.44242015
186	0x3e70396d	0.23459406
187	0x3e4f4f51	0.202451
188	0x3ead02ce	0.33791202
189	0xbecf8081	-0.40527728
190	0x3e38ba4a	0.18039814
191	0xbebd9424	-0.37027085
192	0x3eacdbc1	0.3376141
193	0x3cd26bd8	0.02568619
194	0x3ea090c2	0.3136044
195	0x3f306d1f	0.68916506
196	0xbe296cdc	-0.16545433
197	0xbd1946eb	-0.03742115
198	0x3ead24fb	0.33817276
199	0x3de6e476	0.11274044
200	0x3e3fe1d0	0.18738484
201	0xbd48645d	-0.04892384
202	0xbe801e71	-0.25023225
203	0x3e320758	0.17385614
204	0x3dc0fa2f	0.09422719
205	0xbe19c963	-0.15018229
206	0x3f1509ad	0.5821789
207	0x3e419a04	0.18906409
208	0x3dd9c26b	0.106327854
209	0x3d8ac840	0.06776476
210	0x3d75b11d	0.05998336
211	0xbe0d3dc6	-0.13793096
212	0x3eebe610	0.4607396
213	0x3ea7aa84	0.3274728
214	0xbe1cb7bb	-0.15304463
215	0xbd149fb6	-0.036285125
216	0xbe3adec8	-0.18249047
217	0x3f802631	1.0011655
218	0x3d90dddb	0.070735656
219	0xbe613480	-0.21992683
220	0x3e3ba0fa	0.18323126
221	0x3bae0b45	0.005311402
222	0x3de39ab5	0.111134924
223	0x3e7fb550	0.24971509
224	0x3e105c25	0.1409765
225	0x3e0c0a95	0.13675912
226	0xbe1c688e	-0.1527426
227	0x3f3832b1	0.7195235
228	0x3ea02de4	0.31285012
229	0x3d238de7	0.03993025
230	0xbe318ea5	-0.17339571
231	0x3e95afe4	0.29235756
232	0xbe2b5761	-0.16732551
233	0x3e88439c	0.26614082
234	0x3ec81db4	0.39085162
235	0xbe6d250c	-0.23158664
236	0xbe8ee92e	-0.27912277
237	0x3ee60fa9	0.44933823
238	0xbee3b014	-0.44470274
239	0xbec16ba3	-0.37777433
240	0xbdad3d2b	-0.084589325
241	0xbe42c44a	-0.19020191
242	0x3e143069	0.14471592
243	0x3cc015d8	0.023447916
244	0x3d92ca2b	0.07167467
245	0xbe8bae52	-0.27281433
246	0x3f3b21b8	0.73098326
247	0xbe150d6f	-0.14555906
248	0xbe50bd42	-0.20384696
249	0xbd310fe8	-0.04322806
250	0x3dd3527e	0.103184685
251	0x3e900f52	0.28136688
252	0x3e6c7348	0.23090851
253	0x3e46fde3	0.19432788
254	0xbedc7ab9	-0.4306238
255	0x3e799b9c	0.24375767

critic_layer.0.bias f4 [64]
0	0xbd215073	-0.039383363
1	0x3efd9a6a	0.4953187
2	0x3edc76c7	0.4305937
3	0xbe78942e	-0.24275276
4	0xbe09fa42	-0.13474372
5	0xbdcb2b42	-0.0992036
6	0x3ecca07a	0.39966184
7	0xbd565b9a	-0.05233345
8	0x3ea28575	0.31742445
9	0xbdb1953a	-0.08671041
10	0xbdb1bfc3	-0.08679154
11	0x3ec18f5d	0.3780469
12	0x3ebd6753	0.36992893
13	0xbe05f24e	-0.13080713
14	0xbde0249c	-0.10944483
15	0x3ebb6713	0.36602077
16	0xbdbcc90e	-0.09218036
17	0xbd2d47e0	-0.042304873
18	0xbb9851e2	-0.004648433
19	0x3ec04c58	0.37558246
20	0xbd45faa1	-0.04833472
21	0xbdaf07f8	-0.08546442
22	0x3f0272d2	0.5095645
23	0xbd5b235b	-0.053500514
24	0x3c809a3f	0.01569855
25	0xbe48d974	-0.19614202
26	0x3ef29da2	0.4738589
27	0xbd2eb02b	-0.042648476
28	0x3ea1ee6e	0.3162722
29	0x3e84255d	0.25809756
30	0x3eeea146	0.46607417
31	0x3ed0f8e2	0.40814883
32	0x3e994507	0.29935476
33	0x3d9719c4	0.07377961
34	0xbc60f989	-0.013731369
35	0x3ec98668	0.39360356
36	0x3ec2bb44	0.38033497
37	0x3eac0fda	0.33605844
38	0xbd5b5ee1	-0.05355728
39	0x3d3ae5c8	0.045629293
40	0xbb931e60	-0.004489705
41	0xbd991505	-0.07474712
42	0xbdc9836d	-0.098395206
43	0xbdd94f38	-0.10610813
44	0xbb1818a0	-0.0023208037
45	0x3e9b8d6e	0.3038134
46	0x3ea1b6e0	0.31584835
47	0xbe01e8b9	-0.12686433
48	0xbdda765d	-0.10667107
49	0x3ebdcf13	0.37072048
50	0x3e8bb811	0.2728887
51	0xbd71c85e	-0.059028976
52	0x3ee69a07	0.4503939
53	0x3eea29d1	0.45735028
54	0x3d53bbd9	0.051692817
55	0x3e94461d	0.28959742
56	0x3c93382b	0.017971119
57	0x3eb3d24c	0.3512138
58	0xbdddaeff	-0.108243935
59	0x3ea2d4a3	0.31802854
60	0x3e9dfdbe	0.30857652
61	0x3edcc0d0	0.43115854
62	0x3ed567c6	0.41680735
63	0xbd0c845d	-0.03430592

critic_layer.2.weight f4 [1, 64]
0	0xbda5f428	-0.0810321
1	0x3ed57d24	0.41697037
2	0x3ee012cd	0.43764344
3	0xbec5273e	-0.38506502
4	0x3ca08b4c	0.019597672
5	0xbeb99bdb	-0.3625172
6	0x3f0772d9	0.5290962
7	0xbec81879	-0.3908117
8	0x3eef4337	0.46730968
9	0xbdd34daa	-0.103175476
10	0xbee5214d	-0.4475197
11	0x3ecad313	0.39614162
12	0x3f0d4a4d	0.551915
13	0xbe994754	-0.29937232
14	0xbcad4b4a	-0.021154065
15	0x3ed4901b	0.41516194
16	0xbd4fedbf	-0.05076384
17	0xbd930703	-0.07179072
18	0xbd9149f7	-0.07094186
19	0x3ebde7c9	0.370909
20	0xbdd6ed7d	-0.10494516
21	0xbcd95d08	-0.026533619
22	0x3ee0780d	0.4384159
23	0x3b35bd4c	0.0027731238
24	0xbdbdb7c6	-0.092635676
25	0xbd165c8f	-0.036709365
26	0x3ec55ec8	0.38548875
27	0xbe557761	-0.2084632
28	0x3ebb5c1f	0.3659372
29	0x3eedbb86	0.46432132
30	0x3ef69124	0.48157609
31	0x3f018c5b	0.5060479
32	0x3ede2538	0.4338777
33	0xbd16e86c	-0.03684275
34	0xbd1f056b	-0.038823526
35	0x3ef5cac4	0.4800626
36	0x3eef5c8b	0.46750292
37	0x3eec766f	0.46184108
38	0x3d14b636	0.036306582
39	0xbdc4cfcb	-0.09609946
40	0xbd3970b4	-0.045273498
41	0xbdb5dcbb	-0.088799916
42	0xbd22c99d	-0.039743055
43	0xbd0280e8	-0.031861216
44	0xbdb69b47	-0.089163356
45	0x3f0ea3d6	0.55718744
46	0x3ecbff9c	0.39843452
47	0x3c0a8c34	0.008456279
48	0xbedf9563	-0.4366866
49	0x3ed10433	0.40823516
50	0x3edb4f99	0.42834166
51	0xbefd0c27	-0.49423334
52	0x3ec8d5e8	0.39225698
53	0x3edfa895	0.43683305
54	0xbd1c9440	-0.03822732
55	0x3ec58988	0.3858149
56	0xbbeeae7e	-0.0072839847
57	0x3ecd85a7	0.4014103
58	0xbd9ed5e8	-0.07755643
59	0x3ef963cd	0.48708954
60	0x3ef3a1ac	0.47584283
61	0x3ece00e1	0.40235046
62	0x3eeb8a08	0.46003747
63	0xbd8a2ad1	-0.06746448

actor_layer.0.weight f4 [64, 64]
0	0x3be672e6	0.00703274
1	0x3dd1ebef	0.10250079
2	0xbe08366b	-0.13302009
3	0xbe053777	-0.1300944
4	0x3be4a7ac	0.006977996
5	0x3df0d0ee	0.117586
6	0x3d9a57a9	0.07536251
7	0x3dc3706d	0.09542928
8	0x3e233024	0.15936333
9	0x3e8949b1	0.26814035
10	0xbc9d4776	-0.019199114
11	0x3d7a13c8	0.06105402
12	0xbd94a942	-0.07258846
13	0xbdff437b	-0.12464043
14	0x3b7cf393	0.003859733
15	0xbe95206b	-0.29126295
16	0xbc8c16fe	-0.017100807
17	0xbdd76fd9	-0.1051938
18	0x3d421778	0.047385663
19	0x3d543003	0.0518036
20	0xbd937ebd	-0.07201908
21	0xbe1db064	-0.15399319
22	0x3e039d89	0.12853064
23	0x3d9e8a94	0.077412754
24	0xbd7ac45c	-0.06122242
25	0xbcb1ac14	-0.021688499
26	0x3db38ece	0.08767472
27	0x3d3861bc	0.04501508
28	0xbe332095	-0.17492898
29	0xbe0bb74d	-0.13644142
30	0x3dbd4e46	0.09243445
31	0xbd6ab581	-0.057302002
32	0xbdf1862f	-0.117931716
33	0xbd782070	-0.06057781
34	0x3ddf27a3	0.10896232
35	0xbe4b1a90	-0.19834352
36	0xbe657b9e	-0.22410437
37	0x3d8ba87a	0.06819244
38	0x3c7a3b62	0.015272947
39	0x3d97efb0	0.07418764
40	0x3c9c0ecb	0.019050023
41	0x3de50bff	0.11183929
42	0xbd8fbd5f	-0.070185415
43	0x3e65c2bb	0.22437565
44	0x3ccec866	0.025242042
45	0xbcc51bd4	-0.024061121
46	0x3e1484cd	0.14503784
47	0x3e4928ec	0.19644517
48	0x3e2435ea	0.16036192
49	0x3baa242d	0.005192301
50	0x3d9fe930	0.07808149
51	0x3d058d7c	0.032605633
52	0x3e3e43a9	0.18580498
53	0xbc66e190	-0.014091864
54	0x3d5a60a3	0.053314816
55	0x3e02f8d6	0.12790236
56	0x3e32c8df	0.17459439
57	0x3db6db5c	0.08928558
58	0xbcd8779d	-0.026424224
59	0xbd9b2207	-0.075748496
60	0x3ce74773	0.028232312
61	0x3d9867ba	0.07441659
62	0x3d9294da	0.071572974
63	0x3c8375bd	0.016047353
64	0x3c502463	0.012703988
65	0x3ceb1723	0.028697556
66	0xbd8fb0da	-0.07016154
67	0x3dd211d1	0.102573045
68	0xbd22dd76	-0.039761983
69	0xbe164254	-0.1467374
70	0x3d10328e	0.035204463
71	0x3c4abf78	0.012374751
72	0x3de782fb	0.113042794
73	0xbd0bb30c	-0.0341063
74	0x3bc0b121	0.0058804904
75	0x3cc3b5f7	0.023890479
76	0xbdd880b6	-0.10571425
77	0x3d314927	0.043282654
78	0xbc6a69d2	-0.014307456
79	0x3cdffce5	0.02734227
80	0x3cfadd31	0.03062305
81	0x3d9c06a1	0.07618452
82	0x3d7d5204	0.061845794
83	0x3c568961	0.013094277
84	0xbbbeea20	-0.0058262497
85	0x3d19c448	0.037540704
86	0x3de13a5f	0.109974615
87	0xbd1a505a	-0.037674285
88	0x3d43bdfc	0.047788605
89	0x3ddb4803	0.107070945
90	0x3dc756c8	0.09733349
91	0xbad9d449	-0.0016619052
92	0xbbade34d	-0.0053066374
93	0xbd120ca9	-0.035656605
94	0x3b6a3836	0.003573907
95	0x3d32bbfe	0.043636315
96	0x3cbe5d5d	0.023237878
97	0x3d18f9ad	0.037347484
98	0x3bef4191	0.0073015173
99	0xbdd70b58	-0.105002105
100	0x3ce9542a	0.028482515
101	0x3dc35182	0.09537031
102	0xbc983e6b	-0.01858445
103	0xbe040294	-0.12891608
104	0xbc9014f4	-0.017588116
105	0xbc98b5df	-0.01864141
106	0x3deb897b	0.11500832
107	0x3d86ab0e	0.06575595
108	0xbdfd1a6f	-0.123585574
109	0x3d877e9c	0.06615946
110	0xbdffcf7d	-0.12490747
111	0x3d8fbda2	0.070185915
112	0x3d8ee092	0.06976427
113	0xbc43725f	-0.011929124
114	0x3d5382c6	0.051638387
115	0x3ca4dbe0	0.020124376
116	0xbda1acfc	-0.07894322
117	0xbdc0d317	-0.09415262
118	0xbda1521a	-0.07876988
119	0xbd945b18	-0.07243937
120	0xbd12f1ee	-0.035875253
121	0xbddedeca	-0.108823374
122	0xbd5bd239	-0.05366728
123	0xbe085d8e	-0.13316938
124	0xbda8529c	-0.082188815
125	0xbdeacba4	-0.114646226
126	0xbe061e46	-0.13097486
127	0xbdad0234	-0.08447686
128	0xbd9b91d4	-0.07596174
129	0x3e5e5165	0.21710737
130	0x3d75e591	0.060033385
131	0xbcfbcdff	-0.030737875
132	0x3ddb48bd	0.10707233
133	0x3d9ba2c8	0.075994074
134	0x3ad208eb	0.0016024386
135	0xbd98f9c0	-0.07469511
136	0x3e0a0214	0.13477355
137	0x3e23423b	0.15943234
138	0x3df45a3f	0.119312756
139	0xbc211d00	-0.009833574
140	0x3dd23df6	0.10265724
141	0x3d0dad90	0.03458935
142	0xbd3d2ff9	-0.04618833
143	0xbe2fb6a4	-0.17159516
144	0x3d77cb1f	0.060496446
145	0x3d7b30e3	0.06132592
146	0x3d289e23	0.041166436
147	0x3ddefd52	0.10888161
148	0xbe0b29ae	-0.13590118
149	0xbe03e8ba	-0.12881747
150	0x3de3e182	0.111269966
151	0x3dcd2270	0.10016334
152	0x3db18d36	0.08669512
153	0xbd45c38a	-0.048282184
154	0x3d13daba	0.036097266
155	0x3dd45f6b	0.10369762
156	0xbe441a47	-0.19150649
157	0xbce10a7d	-0.027470822
158	0xbde57d0e	-0.11205493
159	0x3d480bc7	0.048839357
160	0xbca34c80	-0.019933939
161	0xbde6ed35	-0.112757124
162	0xbd5ddca3	-0.054165494
163	0xbdb5fddd	-0.08886311
164	0xbe2b3706	-0.16720209
165	0xbdd4d196	-0.10391538
166	0x3b99caf3	0.004693383
167	0x3d516141	0.05111814
168	0x3e3f14f6	0.1866034
169	0xbc73fb20	-0.014891416
170	0xbd3f5eb2	-0.046721168
171	0xb82ecc56	-4.1675135e-05
172	0x3dd1928c	0.1023303
173	0xbcae0ef6	-0.021247368
174	0x3e4a643a	0.19764796
175	0x3e4961c7	0.19666205
176	0x3d1def60	0.038558364
177	0x3dae1399	0.08499832
178	0x3cbcc6fb	0.0230441
179	0x3d404810	0.046943724
180	0x3e441ce7	0.1915165
181	0xbdd1d05e	-0.10244821
182	0xbd9efa6f	-0.0776261
183	0x3bd8b990	0.0066139176
184	0x3e348b48	0.17631257
185	0xbcfdfa89	-0.031003254
186	0x3c4821ca	0.012215087
187	0x3dd06e5c	0.101772994
188	0x3c49aafd	0.012308833
189	0xbc8d95ab	-0.017283281
190	0x3dad7e63	0.08471372
191	0x3d874570	0.06605041
192	0xbcf66898	-0.030079171
193	0x3dc39f6e	0.09551893
194	0xbda4fef3	-0.0805644
195	0x3cfea1c2	0.031082992
196	0xbe101bd9	-0.14073123
197	0xbde68582	-0.11255933
198	0xbd114708	-0.03546813
199	0xbdff484c	-0.124649614
200	0xbd7b20f2	-0.061310716
201	0xbd769c48	-0.060207635
202	0xbdf78768	-0.120863736
203	0xbd89cca2	-0.06728484
204	0xbc24f637	-0.010068468
205	0xbdb79fa8	-0.08965999
206	0x3d7a988a	0.06118063
207	0xbdf6b7fa	-0.120468095
208	0xbc79f906	-0.015257126
209	0xbd84e509	-0.064889975
210	0xbbbbec44	-0.005734952
211	0x3dd16ade	0.102254614
212	0xbd13640d	-0.035984088
213	0xbd3b160e	-0.04567533
214	0xbd47fce0	-0.048825145
215	0xbd979c50	-0.07402861
216	0x3da713af	0.08158051
217	0xbdb61755	-0.08891169
218	0x3d7e6a5d	0.062113155
219	0x3c3d3048	0.011547156
220	0xbd8a4004	-0.06750491
221	0x3db5fad6	0.08885734
222	0x3d994a61	0.0748489
223	0xbd089170	-0.033341825
224	0xbcb5667a	-0.022143591
225	0x3d66e2a2	0.056368478
226	0xbd1a588a	-0.037682094
227	0xbd7702a6	-0.06030526
228	0xbd811fcf	-0.06304895
229	0x3d6d4628	0.057928234
230	0x3d84dd93	0.064875744
231	0x3cf02b12	0.029317413
232	0xbde94320	-0.11389756
233	0x3dbde1b1	0.09271563
234	0x3da02cf4	0.07821074
235	0x3d222d1f	0.039593812
236	0x3ce321fb	0.027726164
237	0x3ce29ed6	0.02766363
238	0xbdd02003	-0.10162356
239	0xbdc41603	-0.09574511
240	0xbc6dca30	-0.014513537
241	0x3b64feae	0.003494184
242	0xbc190604	-0.009339813
243	0x3cd33ee8	0.025786832
244	0xbdea2405	-0.114326514
245	0xbd6b534a	-0.057452478
246	0xbc003d59	-0.007827126
247	0x3db2849f	0.08716702
248	0x3d82b5c0	0.06382322
249	0xbc85c684	-0.016330011
250	0xbdbb0557	-0.09131878
251	0xbda458fb	-0.08024784
252	0x3dc95aac	0.098317474
253	0x3df1c768	0.11805612
254	0x3d9c836b	0.076422535
255	0x3d807e5e	0.06274103

actor_layer.0.bias f4 [64]
0	0xbcb273aa	-0.021783669
1	0xbc237d60	-0.009978622
2	0x3e02fe7c	0.1279239
3	0xbce8be5c	-0.028411083
4	0x3cd9bca6	0.026579212
5	0x3d605d15	0.05477627
6	0xbbed2df9	-0.0072381464
7	0xbdb66230	-0.089054465
8	0x3c3e7bf4	0.011626232
9	0xbc46b39e	-0.012127785
10	0xbc652529	-0.01398591
11	0x3d941107	0.0722981
12	0x3dd4eb75	0.10396472
13	0x3d908302	0.07056238
14	0x3cf38ac1	0.029729249
15	0xbdc028f2	-0.0938281
16	0x3c85b395	0.016320983
17	0x3da360c9	0.07977445
18	0xbd9134af	-0.07090127
19	0x3d802987	0.06257921
20	0x3dfdd7b0	0.12394655
21	0x3de2865d	0.11060784
22	0xbd360fb9	-0.044448588
23	0xbd847aca	-0.06468733
24	0x3dfc4fe1	0.12319923
25	0xbe018368	-0.12647784
26	0xbe05a902	-0.13052753
27	0x3dd04a62	0.101704374
28	0xbd5acd1b	-0.05341826
29	0x3d86c4ea	0.06580527
30	0x3d43179c	0.047629938
31	0xbe00c4ed	-0.12575121
32	0x3da333df	0.07968878
33	0x3dd7f151	0.10544074
34	0x3c62817e	0.013824819
35	0x3d7bcbd4	0.061473683
36	0x3d4c715e	0.049912803
37	0x3d077c5c	0.033077583
38	0x3c5c7420	0.013455421
39	0x3e216957	0.1576284
40	0x3bbf789f	0.0058432366
41	0xbde61811	-0.11235059
42	0xbdb1558c	-0.08658895
43	0xbd8cd046	-0.068756625
44	0xbd63217b	-0.05545185
45	0xbd5fb6cd	-0.05461769
46	0xbdf1c319	-0.1180479
47	0xbc79b822	-0.015241655
48	0xbdd72cbc	-0.10506579
49	0xbd982f97	-0.07430952
50	0x3d10160e	0.035177283
51	0xbd35d030	-0.044387996
52	0xbd251a11	-0.040308062
53	0xbcd10dd8	-0.025519297
54	0xbdac88a1	-0.084244974
55	0x3bb025d7	0.0053756046
56	0xbdc5b489	-0.09653575
57	0xbc3e78c1	-0.01162547
58	0x3d70ae71	0.05876011
59	0xbdb11902	-0.08647348
60	0xbd70c343	-0.058779966
61	0x3d5da0f5	0.05410858
62	0xbda060ac	-0.07830939
63	0xbd91a20f	-0.07110988

actor_layer.2.weight f4 [2, 64]
0	0xbda19b54	-0.078909546
1	0xbc85aef1	-0.01631877
2	0xbdaf9edb	-0.08575221
3	0x3dc977e2	0.09837319
4	0x3c7a9d54	0.015296299
5	0x3cc9da97	0.024640365
6	0x3b2f4ff1	0.002675053
7	0x3def5793	0.11686625
8	0xbdcb1919	-0.099168964
9	0xbdb2fbcb	-0.08739432
10	0x3dcde1c3	0.10052826
11	0x3dcfcb96	0.10146253
12	0x3db2ccab	0.087304436
13	0x3e0b530b	0.13605897
14	0xbce99ce4	-0.028517194
15	0xbd23770d	-0.039908458
16	0x3e070cf1	0.1318853
17	0xbe1c0287	-0.15235339
18	0xbc2e8161	-0.0106509635
19	0xbdf36611	-0.11884702
20	0x3dcf2b49	0.10115678
21	0xbda42a8e	-0.08015929
22	0x3dc0b958	0.094103515
23	0xbd67ba1e	-0.05657398
24	0x3e39b8f8	0.18136966
25	0xbd00cb04	-0.03144361
26	0xbd3ae172	-0.045625158
27	0xbe8b3da9	-0.2719548
28	0xbc3e2993	-0.011606592
29	0xbc94f37f	-0.018182514
30	0x3d89e81b	0.06733724
31	0x3d0c7c73	0.03429837
32	0xbb58f5f4	-0.0033105584
33	0xbd600c52	-0.05469925
34	0xbd2ce5cc	-0.04221134
35	0xbdc5167d	-0.0962343
36	0xbe5a06ef	-0.21291707
37	0x3e4598bb	0.19296543
38	0xbc50379d	-0.012708572
39	0x3e69ce30	0.2283256
40	0x3e5d9320	0.21638155
41	0x3c471ad7	0.012152395
42	0x3dd7af5a	0.105314925
43	0xbd2f71fd	-0.042833317
44	0x3dba40da	0.09094401
45	0x3e8eb8e8	0.27875447
46	0xbd8d41a1	-0.06897283
47	0xbe8ff9d5	-0.28120294
48	0xbd808d92	-0.062770024
49	0x3ce1488d	0.027500415
50	0x3e017f32	0.12646177
51	0xbd5b10fc	-0.053482994
52	0x3d94d285	0.07266716
53	0xbe0d427f	-0.13794897
54	0xbe0dbc7a	-0.1384143
55	0xbd351460	-0.044208884
56	0xbdc4583b	-0.09587141
57	0x3dfdbf4a	0.12390001
58	0x3dfef1e8	0.12448484
59	0xb9174bad	-0.00014428674
60	0x3e0bc2e3	0.13648562
61	0x3dca60f0	0.098817706
62	0xbde7d20a	-0.11319359
63	0xbc792212	-0.015205877
64	0x3d6e6b33	0.058207702
65	0xbdbc5eca	-0.09197767
66	0x3d9540e9	0.07287771
67	0x3dd94f48	0.10610825
68	0x3de240cf	0.110475175
69	0x3e2a4e55	0.16631444
70	0x3dae7a58	0.08519429
71	0x3c6be7b2	0.014398502
72	0x3e1dd27b	0.15412323
73	0x3c9fe152	0.01951662
74	0xbd53fe27	-0.05175605
75	0xbe5eb97a	-0.21750441
76	0xbc3b1a59	-0.011419856
77	0xbd3b0376	-0.045657597
78	0xbd807e24	-0.062740594
79	0x3dcdf46b	0.10056385
80	0xbda12717	-0.07868784
81	0xbd87ec29	-0.06636841
82	0xbcbdb3fc	-0.023157112
83	0xbd325b83	-0.043544304
84	0xbe0cbf08	-0.13744748
85	0x3d12cd11	0.035840098
86	0xbd4c0208	-0.049806625
87	0xbd9c6627	-0.076366715
88	0xbe12e6e3	-0.14345889
89	0x3ddeca73	0.10878458
90	0xbd9f2730	-0.07771146
91	0x3e86597b	0.26240143
92	0xbe353809	-0.17697157
93	0xbce5f787	-0.028072132
94	0xbda4d085	-0.080475844
95	0x3c9bfc5e	0.019041236
96	0x3df7afb5	0.1209406
97	0x3ca9bba1	0.020719351
98	0x3e1cb576	0.15303597
99	0x3e38f67c	0.18062776
100	0x3d2c941a	0.04213343
101	0xbdb9cea7	-0.09072619
102	0x3e069ac2	0.13144973
103	0xbe30b49a	-0.17256394
104	0xbe4726fb	-0.19448464
105	0xbe42e46e	-0.19032452
106	0x3de048df	0.10951399
107	0x3bb0a08e	0.0053902334
108	0x3dd6131c	0.104528636
109	0xbe4489bc	-0.19193166
110	0xbdef13cb	-0.11673697
111	0x3d2e5ad9	0.042567108
112	0x3a5d8331	0.000845003
113	0xbe3aab77	-0.18229471
114	0xbe05dd8b	-0.13072793
115	0xbdf294e2	-0.118448034
116	0xbe52ee89	-0.20598806
117	0x3d105e8b	0.035246413
118	0x3e273a0c	0.16330737
119	0xbca5c5b9	-0.020235883
120	0x3dba301d	0.09091208
121	0xbe1350c4	-0.14386278
122	0xbde73343	-0.11289074
123	0xbcdaf1f4	-0.0267267
124	0xbe25feec	-0.16210526
125	0xbdea8d89	-0.11452777
126	0x3e34b023	0.17645316
127	0x3e1d8b6c	0.15385216

actor_layer.2.bias f4 [2]
0	0x3d2ca5fe	0.04215049
1	0xbdb6511d	-0.0890219
