reinforcement_learning/actor_critic/actor_critic_500.pth (torch, 4834 bytes, 5 tensors)

fc1.weight f4 [64, 4]
00000000: 0ee9 543e f189 f43d 1139 b03d 4306 803e
00000010: a789 60be 5bf1 273f 9d53 6f3f 693f 9f3f
00000020: 527f f5bd 00d8 33be 11b5 08bf f3a1 a9be
00000030: c9e6 553f e922 5f3e fa29 ef3b a8c8 0dbd
00000040: 9d77 9a3e 1b3b 0f3f 9d25 973f f652 083f
00000050: 6a4d 09be 86af 13bf d4e9 76bd 504f 02bf
00000060: bba3 9a3e 41ae 88be 69da a23e f727 91be
00000070: 148d 493e b3f7 27bf 7c01 71bf a68d 0bbf
00000080: 7fa5 95bd 995c 10bf 6aeb a6bf 1355 26bf
00000090: 6725 573c 478a 0abf 9fa5 e1bf 0ae5 66bf
000000a0: d788 f5be e815 823e 4abc 113f dbda 78be
000000b0: c94d ea3d 8bf5 233e 015e a2be ec15 0dbf
000000c0: aefb 963e e7a3 52be 2d22 5b3e d51c edbd
000000d0: 6f30 6f3e a7c7 16bd 6175 67be 7a77 943e
000000e0: 1d07 933e 1fa5 40be 35a3 ed3d 383e da3e
000000f0: c615 073e 8ed1 83be e733 2cbf 4631 88bd
00000100: 7e70 3cbf e02b 63bc b89b d23e 639e 223e
00000110: d083 aebe a79a 13bf 64d9 9dbe 98ec 00bf
00000120: 7a33 f1be b59e df3b ea7c a23e fa1a c43d
00000130: 0854 9b3c 4d28 27be aee7 7abe 8250 c5bd
00000140: 3286 7cbd a2fc 113f 37bd b8be a520 dd3d
00000150: aedd 31be e226 75be f649 7dba 567d 24be
00000160: 146a 0f3f 2005 0ebf 68ee ffbe 9dd3 343e
00000170: 94a4 623f 72e2 e43d eabd 04bf 8d13 ddbe
00000180: 6a80 29bf 0c71 29bf 0ffc 37bf 552d 2dbf
00000190: 0968 033f 757e 933e 0f98 c93e 620d c9bc
000001a0: d8b1 9a3e ae33 a0be 7741 813e 85a4 a43c
000001b0: f455 57bd 761e 25bd 1fce dd3e 2d94 dd3d
000001c0: 316c b53e b886 46bd e811 1bbf be4c 663e
000001d0: 4431 2c3c d608 f4be 5e60 cbbf 25da 37bf
000001e0: 9321 543b 73a7 823d 171b 98bf 47b7 80bf
000001f0: a2a1 203f 2e77 2b3e d23b 523f d255 f03d
00000200: f15a 5b3d ad25 973e 864a 893e aa08 87be
00000210: 2dd9 913e 99f8 a6be 1645 afbe 78be 63bd
00000220: b3be 5ebe fa35 fc3d d978 8b3f 426c 903f
00000230: 0216 9ebe 9b15 a73e a0db 513f fae8 823f
00000240: ddb6 123f 9096 153e c06e a23d 22d7 f53c
00000250: 620a 9bbe bc3e afbe 7c51 bcbf 357e 2abf
00000260: 4080 163e bfae abbc b413 e13e f82f 4b3e
00000270: cb12 403f 530a c6be c99f 1ebf e388 19bf
00000280: 1854 bbbe 1745 b1be 7d00 30bf 654b 48be
00000290: 2abb 5ebe cebf 96be 0929 ffbd 387c 30be
000002a0: b13c aa3e 07c3 c6be d745 ecbd d6a7 ab3d
000002b0: a995 3b3f 0aad 29bd 9d4f a2bd 4979 69be
000002c0: 1a6d 933e 8cb2 18bf 38a7 25bf 46b1 acbe
000002d0: d3fd a53c 3865 9f3e 0846 b63b 9669 f5be
000002e0: 3801 383e bc33 b8be e879 773e 0256 303c
000002f0: 6f1c 2f3f 5c4b 93bd 200f 82be b3ad dfbd
00000300: 767c 1b3f 9297 a13e 141f dc3f a646 3c3f
00000310: da98 f0be eb67 d43d 96ae 08bf cfc9 fc3d
00000320: 5e06 e0bc 07ff c33e a1fc 3bbe 2f61 88bc
00000330: dfb6 fc3d 0813 483f e3e0 f33f 8367 573f
00000340: 3bf0 7bbe b0a1 bf3e 5bf7 873e 2241 0abf
00000350: 5f7d c2be 7c4a ec3d acfc 77be 6234 27be
00000360: 6664 133f b1b0 efbe f073 09bf c157 823e
00000370: aa87 3bbe eba2 aebe cb98 0dbf d3fc 923d
00000380: 3577 45bd 7b29 a93e 7e30 ac3e 3e4f c63d
00000390: 8197 623d 17a5 033f 0585 593f f406 e33e
000003a0: 4a71 41bf 8a15 a63e 35f9 653e d0b9 143f
000003b0: 6e88 5e3e e297 6c3e f39a 36be 2a91 27bd
000003c0: 260b 66be 4e75 a73e d392 e9be e11d d83d
000003d0: 8a8a 663f c50b 2d3e ce39 dcbe 2ac7 11be
000003e0: ac7d 18bf 343c efbe df1f 2d3e 401d 76be
000003f0: 2ec0 d8bb 160f 96bd 6c55 133f 47a5 7f3f
0.20792028 0.11940373 0.086046346 0.25004777 -0.2192751 0.65602654 0.9348696 1.2441226
-0.11987175 -0.17562866 -0.53401285 -0.3313137 0.83555275 0.21790661 0.007298705 -0.03461519
0.30169383 0.5594956 1.1808354 0.5325159 -0.13408437 -0.576897 -0.06028159 -0.5090227
0.3020304 -0.26695445 0.3180726 -0.28350803 0.19682723 -0.65612334 -0.9414289 -0.54513013
-0.073069565 -0.5639129 -1.3040593 -0.6497356 0.013131476 -0.54117244 -1.7628669 -0.90193236
-0.47955963 0.25407338 0.5692793 -0.24302237 0.114406176 0.16011636 -0.31712344 -0.55111575
0.2948889 -0.20570336 0.21399756 -0.11577765 0.2335832 -0.036811497 -0.2260337 0.28997403
0.28716365 -0.18812989 0.11603395 0.42625594 0.131919 -0.25745815 -0.67266697 -0.06650023
-0.7360915 -0.013865441 0.4113443 0.15880732 -0.3408494 -0.57657856 -0.30829918 -0.50361013
-0.47109586 0.0068243393 0.31735927 0.09575458 0.018960968 -0.16323967 -0.24502441 -0.09634496
-0.061651416 0.5702611 -0.3608186 0.10797242 -0.1736972 -0.23940614 -0.0009662205 -0.16063437
0.5602124 -0.5547657 -0.49986577 0.17658849 0.88532376 0.111760035 -0.51852286 -0.4317898
-0.6621157 -0.6618812 -0.71868986 -0.67647296 0.5133062 0.28807417 0.39373824 -0.024542514
0.3021381 -0.31289428 0.25245258 0.02009798 -0.052572206 -0.040312253 0.4332132 0.10819278
0.35434106 -0.04846832 -0.605742 0.22490212 0.010509793 -0.4766299 -1.5888784 -0.7181724
0.0032368645 0.06379595 -1.1883267 -1.0055932 0.6274663 0.16744682 0.8212253 0.11735119
0.053553525 0.29520932 0.2681467 -0.26373798 0.28486004 -0.3261154 -0.34232396 -0.055601567
-0.21752433 0.12314983 1.0896255 1.1283038 -0.30876166 0.3263367 0.81975746 1.0227349
0.5731028 0.14608216 0.0793128 0.03000981 -0.3028136 -0.3422755 -1.4712367 -0.66598827
0.14697361 -0.020957349 0.43960345 0.19842517 0.75028676 -0.38679752 -0.6196256 -0.599745
-0.36587596 -0.34623024 -0.68750745 -0.1956001 -0.21751085 -0.2944321 -0.12458999 -0.17234886
0.3324943 -0.3882067 -0.115367584 0.083816215 0.7327524 -0.04142479 -0.07925341 -0.22800173
0.28794175 -0.5964744 -0.6470828 -0.33729 0.020262634 0.3113191 0.0055625476 -0.47932118
0.17969215 -0.3597697 0.24167597 0.010762693 0.6840276 -0.07192108 -0.25402164 -0.10921802
0.6073679 0.3156095 1.7196984 0.735453 -0.46991616 0.10371383 -0.53391397 0.123431794
-0.027346786 0.38280508 -0.18358089 -0.016647903 0.123395674 0.7815404 1.9053005 0.8414232
-0.2460336 0.37428045 0.26555905 -0.54005635 -0.37986276 0.11537644 -0.2421748 -0.16328576
0.5757507 -0.46814492 -0.5369253 0.25457576 -0.1831347 -0.34108672 -0.5531127 0.07177129
-0.048209388 0.3303946 0.33630747 0.09683083 0.055320267 0.5142378 0.84968597 0.44341242
-0.7556349 0.32438308 0.22458346 0.5809603 0.21731731 0.23104814 -0.17832546 -0.040909924
-0.2246519 0.32706684 -0.4561983 0.10552574 0.90055144 0.16899021 -0.4301285 -0.14236131
-0.5956676 -0.4672562 0.16906689 -0.24034595 -0.0066147065 -0.07327096 0.5755222 0.9986157

fc1.bias f4 [64]
00000000: ced2 893f 807d bb3e 7eea 673f b2bd 3dbf
00000010: ae38 42bf b2d3 20bf 9508 a23f a926 bdbe
00000020: 08c5 27be 5fe0 af3e 611d 753f 7efa 8c3f
00000030: a469 a23f 881f a53f 9e55 513f 61e6 c03e
00000040: 1684 72bf a59b 80bf ad7a 5abf 9b1f 5b3f
00000050: 10c3 4dbc 8bca 823f c485 773f 6fc3 0bbf
00000060: 80b8 23bf f4f4 56bf 7c7f 02bf 7b4f 58be
00000070: a015 7f3f f23d b13e b58d d73e 98ae 44bf
00000080: c5cf 913f 26f1 7c3f cb90 e53e 7bf8 b63e
00000090: 2642 3abf 2fe1 2abf 8eda 8c3f ec58 3a3e
000000a0: 5601 6cbf d164 a63f fca8 ad3f 50f0 2dbf
000000b0: a05a 753f 2ba8 9f3f 290b 963f 78d9 07bf
000000c0: 5915 febe 487a 8b3f 442b 693f 7e5d 74be
000000d0: fc52 603f 3eee 693f a28b 94bd 75a1 b43f
000000e0: f819 563f 2efa 0fbf 122c e1be 125b a33f
000000f0: afad 463f 37d8 41bf bb97 6dbf 3fca a73e
1.0767457 0.36619186 0.9059218 -0.7411758 -0.75867736 -0.6282302 1.2658869 -0.36943558
-0.16383755 0.3435087 0.95747954 1.1013944 1.2688489 1.2900248 0.81771266 0.37675765
-0.947328 -1.0047499 -0.8534344 0.855951 -0.012558714 1.0218061 0.96688485 -0.54595083
-0.639534 -0.8396752 -0.50975776 -0.2112407 0.9964237 0.34617573 0.421003 -0.7682891
1.1391531 0.98805463 0.4483703 0.3573645 -0.72757185 -0.6674985 1.1004198 0.18197984
-0.9218954 1.2999517 1.3567195 -0.6794481 0.9584141 1.2473196 1.1722156 -0.53066206
-0.49625662 1.0896692 0.91081643 -0.2386379 0.87626624 0.91379154 -0.07253195 1.4111773
0.83633375 -0.5624112 -0.43978935 1.2762167 0.7760877 -0.7572054 -0.9280965 0.3277149

actor.weight f4 [2, 64]
00000000: ee7a f93a 83e6 9bbf 0708 a33d 852c 733e
00000010: 6390 0fbe 5254 7b3e d255 b63d 2f58 f73e
00000020: 1546 423f a13d a63f 5c3d 5cbe f9d0 823e
00000030: c5e9 6d3d cf71 bbbd f2dc e5bd 5b97 163e
00000040: 3935 abbd 209e 403e 6f70 f2bd f578 a03d
00000050: 7f8f bb3d d129 28be 8421 663e f456 ae3e
00000060: 45a5 553e b15d 493e a49a 21be a629 e43c
00000070: 794a 833a 1b45 483f a903 d53e 1ec7 1d3e
00000080: 5c3b c5bc 570b c33d 207f 08bf 964a 39bf
00000090: a4d9 283e 7806 d43e c828 8cbd 3fbc 623f
000000a0: 01f9 c73d 1341 80be 3f9f 8b3d ca59 a83e
000000b0: 3512 7d3e 8e97 be3d 5509 beba cf48 773e
000000c0: 3e72 a4be 1520 86be 9e1c bdbc ceed 0cbf
000000d0: 2512 0dbb 87d1 9bbe 23af 083f 7b32 5bbe
000000e0: 0a97 25be 467a b13d 1bd1 a7be a0dc 93bd
000000f0: 9f85 b5bd e343 123e 8f77 4dbe 1eeb bdbe
00000100: 6502 823d f58e 9e3f d373 cf3d 7179 6abe
00000110: 8a57 ea3d f665 c4be 0965 72bc b665 07bf
00000120: ba40 28bf cefa 9abf b48a a53e aca5 53be
00000130: ee9c 7abd 8122 f9bc d83c ea3d cf89 83be
00000140: 46b2 263e 31b9 6abe c3d8 003e 3b55 febd
00000150: 1d74 66be e741 ea3d 2c94 0bbe bbf0 7dbe
00000160: 8bfd 61be 9dc0 0abe 021a a03d 2b90 b73c
00000170: 109d 39bb d2fd 5cbf d258 fabe 299b 9cbd
00000180: e542 5e3d 674b 6fbe 9a39 2c3f 70ac 273f
00000190: cca5 a9bc 4adf a3be e39c 033e f6a8 4cbf
000001a0: cd54 a13c 32d2 283e bbf3 24bb 6080 84be
000001b0: a6b8 b9be 368f b4bd 7457 763d c539 9dbe
000001c0: e809 8a3e 1dc5 983e 3274 073e 1ac2 e53e
000001d0: 3fcc fa3c d33c 573e 6a1b 0cbf a372 ab3d
000001e0: 0bed 023e afd5 37be 14e3 d93e 00e3 ba3b
000001f0: 743d 793e 3f61 74be 0596 c53d 8133 913e
0.0019033828 -1.2179722 0.079605155 0.23747452 -0.14019923 0.24543884 0.08903088 0.48309466
0.75888187 1.2987558 -0.21507782 0.25550058 0.058084268 -0.09152567 -0.112237826 0.14706175
-0.08359761 0.1881032 -0.11837851 0.07835571 0.09158229 -0.16422202 0.22473723 0.34050715
0.20863827 0.19664647 -0.15781647 0.02785189 0.0010016701 0.78230447 0.41604355 0.15407988
-0.024076156 0.09523647 -0.5331898 -0.72379434 0.16489273 0.41411185 -0.06843716 0.8856849
0.097642906 -0.25049648 0.06817483 0.32881004 0.24713977 0.093062505 -0.0014498631 0.24148868
-0.3211841 -0.26196352 -0.023084935 -0.5505036 -0.0021525708 -0.30433294 0.5339224 -0.21405976
-0.16170898 0.086659 -0.32776722 -0.07219815 -0.08863377 0.14283709 -0.20065139 -0.37093443
0.06348113 1.2387377 0.101295136 -0.22897889 0.11442478 -0.3835904 -0.0147945965 -0.52889574
-0.65723765 -1.210779 0.32332385 -0.20668668 -0.061184816 -0.03041196 0.11437386 -0.25691077
0.16278943 -0.22922207 0.12582688 -0.124186 -0.22505231 0.11438351 -0.13630742 -0.24798863
-0.22069375 -0.13550039 0.078174606 0.022407612 -0.0028322376 -0.863248 -0.4889589 -0.07646782
0.054263014 -0.23368607 0.67275393 0.65497494 -0.02070894 -0.32006294 0.12852816 -0.79945314
0.019693756 0.16486433 -0.0025169689 -0.25879192 -0.36273688 -0.08816378 0.060141996 -0.30708137
0.26960683 0.29837885 0.13227919 0.4487465 0.03061497 0.21019296 -0.5472933 0.083714746
0.12785737 -0.17952608 0.4255606 0.00570333 0.24339849 -0.23865221 0.096477546 0.28359607

actor.bias f4 [2]
00000000: 83f1 9abd bdbc 3a3d
-0.07565596 0.04559015

critic.weight f4 [1, 64]
00000000: 2b0b 2e3f 70b2 86be 09ea 2e3f a998 65bf
00000010: 6aa2 85bf 1b71 e1be 5f15 4a3f f4f9 07bf
00000020: f604 2fbf 9822 b5be fa4b de3e 3541 fd3e
00000030: 92c6 3b3f e4f2 203f bb37 c93e bdaf a73e
00000040: 5aa4 25bf db94 0bbf 0755 39bf 068c 183f
00000050: 8d26 813e 170c 4f3f 8f7f 1d3f 196f 5ebf
00000060: 4969 ebbe 62c9 35bf 7c36 963d c356 88bd
00000070: 4d19 233f 5a68 f8be 0e54 b43d a41d 27bf
00000080: e28a 0d3f 2090 223f 944c 90bd ea46 e9bd
00000090: 1af7 35bf e787 5ebf 238d 163f 9646 28bf
000000a0: 3195 08bf 9af5 653f 60ad 183f 638d 5abf
000000b0: 5366 543f d436 e03e 9d81 283f 26c8 2ebf
000000c0: f0e7 53bf 8007 7e3f 6ad0 0a3f a132 7fbf
000000d0: 0010 9d3e 4892 3d3f c7a5 a63d ff35 2f3f
000000e0: 5359 373f a161 5dbf 7539 25bf 50f7 3e3f
000000f0: e3c4 0b3f 685d 62bf af9d 06bf 7e67 3bbc
0.6798579 -0.26308012 0.6832586 -0.89686066 -1.044019 -0.44031605 0.7893886 -0.53115773
-0.68366945 -0.35377955 0.4341734 0.49463812 0.7334987 0.6287062 0.3930033 0.32751265
-0.64703906 -0.5452401 -0.72395366 0.5958866 0.25224724 0.8087782 0.61522764 -0.8688827
-0.45978764 -0.7101041 0.07334611 -0.066571735 0.6371048 -0.48517114 0.08805095 -0.65279603
0.55290043 0.6350117 -0.07045856 -0.11390479 -0.7108017 -0.8692612 0.5880911 -0.65732706
-0.5335265 0.89827883 0.5963955 -0.8537199 0.82968634 0.4379183 0.65822774 -0.6827415
-0.82775784 0.99230194 0.54224265 -0.9968663 0.3067627 0.7405133 0.08137088 0.68441767
0.7162067 -0.86477095 -0.645408 0.7459612 0.545973 -0.88423777 -0.52584356 -0.011438249
