reinforcement_learning/actor_critic/actor_critic_250.pth (torch, 4834 bytes, 5 tensors)

fc1.weight f4 [64, 4]
-0.14885221 -0.051425304 0.14807661 0.8153701 -0.40700802 0.2597621 0.15760651 0.21559735
0.55909 -0.14812517 0.4321211 0.3604175 0.3340728 -0.5465496 -0.43285358 0.48709098
0.43284518 -0.24621946 0.050999403 -0.09860313 -0.089157306 -0.38422328 0.13162899 -0.3798432
0.15954404 0.29693213 -0.077636346 -0.25371933 -0.71774 0.14484315 0.7543794 0.5179079
-0.47426173 0.319361 -0.18283749 -0.35761762 0.0822849 0.19632286 -0.2423969 -0.4767101
-0.32546753 0.26977217 0.08844779 -0.13833222 0.17526327 0.5199243 0.38520527 0.2962542
0.19354972 -0.12482793 -0.21056055 -0.3327108 0.7061425 -0.09885305 -0.526702 -0.73967946
-0.095272966 -0.035672646 0.32876804 -0.21575066 0.28528368 -0.5059615 0.15319258 -0.27312565
0.24825887 -0.3168995 0.22587594 -0.15537402 0.5195823 -0.1749153 0.20339265 0.17151663
0.30605274 0.46875778 -0.27038777 -0.64337534 0.20001523 0.17329207 0.60388994 -0.55903316
-0.086617954 -0.3614665 0.10543733 0.10443368 0.21859685 0.64578986 -0.26570565 -0.14091675
-0.053355698 -0.1486397 0.038934253 -0.3186116 -0.40861005 -0.20540227 -0.14411922 0.3352141
0.011765373 -0.24362072 -0.069995955 0.13643044 0.4732495 -0.06529224 0.4740873 -0.17329204
-0.20647246 0.46405602 -0.43907756 0.26949227 -0.21865118 0.1507279 0.28801858 -0.43575838
0.4894725 -0.49068162 -0.21451455 -0.24510415 0.43655372 -0.26022232 0.08353243 -0.19140197
0.49687988 0.15818067 -0.7831407 -0.4605931 -0.69032115 0.044890605 0.8147137 0.40440992
0.38795862 0.38449088 0.5395638 -0.3783822 -0.07838139 -0.12690139 0.44662583 0.84583855
0.23843718 -0.026827395 -0.22139269 -0.08877194 -0.30638865 0.22252148 -0.23200572 0.09011858
-0.38287088 -0.18709704 -0.4383586 0.071429476 -0.10877159 -0.33449706 0.22462232 -0.14050448
0.12668794 0.530456 0.3956856 -0.48067126 -0.12644216 -0.2506607 0.3255417 -0.3057912
-0.13382936 -0.16815162 0.4169297 0.04072322 -0.17320973 -0.14523704 0.072741 -0.18434358
0.22308436 0.05523482 0.2623338 0.103168204 -0.15164183 -0.42964166 0.20324796 0.52909565
-0.2690115 -0.3402675 -0.38377658 -0.62250024 0.3809952 0.35862043 -0.8322605 -0.59758097
-0.21101066 0.15067513 -0.17166676 0.1704613 -0.14696218 0.15060933 0.5585863 0.1358346
-0.02711995 0.21060671 -0.16334644 0.28388065 -0.26109928 0.19871612 0.2569581 -0.019505173
0.29528874 -0.25773042 -0.40512758 -0.25174212 -0.60092014 -0.6412871 0.98974967 0.31352004
-0.18662465 0.42192858 -0.32348776 0.22125702 0.4046318 0.26929766 0.7912124 0.06638643
-0.43028387 -0.29051262 0.48414767 -0.14005317 0.16466919 0.00190389 -0.3770713 0.23817806
-0.16339529 -0.3580664 -0.13820784 0.50101316 -0.41507927 -0.49526525 0.8183829 0.68359715
0.009733328 0.39599133 -1.1080166 -0.7233699 0.27418533 -0.26254863 0.5354955 -0.09131321
-0.09491963 0.08265114 -0.15246797 0.2269965 0.20146096 -0.4231819 0.31467295 0.68726504
-0.2758026 0.39040107 -0.029616011 -0.73807615 -0.09917366 -0.39541668 0.5404959 0.39001235
00000000: b76c 18be 57a3 52bd 65a1 173e 18bc 503f
00000010: 5b63 d0be 8aff 843e 9a63 213e 8dc5 5c3e
00000020: 8620 0f3f 20ae 17be fa3e dd3e a488 b83e
00000030: 970b ab3e adea 0bbf fc9e ddbe fd63 f93e
00000040: e29d dd3e f420 7cbe c0e4 503d 70f0 c9bd
00000050: 1b98 b6bd eab8 c4be c0c9 063e cf7a c2be
00000060: 835f 233e 7d07 983e ceff 9ebd 80e7 81be
00000070: cfbd 37bf c351 143e 021f 413f 9d95 043f
00000080: 6fd2 f2be 4983 a33e c039 3bbe a819 b7be
00000090: fc84 a83d dc08 493e e536 78be 5913 f4be
000000a0: aea3 a6be 941f 8a3e 1d24 b53d f6a6 0dbe
000000b0: 3778 333e c219 053f a039 c53e a1ae 973e
000000c0: e631 463e c9a5 ffbd 2f9d 57be 1259 aabe
000000d0: c1c5 343f 7873 cabd f1d5 06bf a25b 3dbf
000000e0: 791e c3bd 7b1d 12bd 4954 a83e beed 5cbe
000000f0: b410 923e b186 01bf 84de 1c3e 20d7 8bbe
00000100: 9337 7e3e a740 a2be 064c 673e 5e1a 1fbe
00000110: 5803 053f ff1c 33be 2a46 503e 0ea2 2f3e
00000120: f2b2 9c3e 0501 f03e 4470 8abe 3fb4 24bf
00000130: cbd0 4c3e 7a73 313e 8898 1a3f cc1c 0fbf
00000140: c164 b1bd 2312 b9be 87ef d73d 53e1 d53d
00000150: dad7 5f3e 7c52 253f 920a 88be 7b4c 10be
00000160: 818b 5abd 0135 18be 8679 1f3d 0f21 a3be
00000170: 5635 d1be f954 52be fd93 13be 2fa1 ab3e
00000180: 8dc3 403c b677 79be 0a5a 8fbd 6cb4 0b3e
00000190: c24d f23e f0b7 85bd 92bb f23e 7873 31be
000001a0: 846d 53be c098 ed3e c6ce e0be e4fa 893e
000001b0: 18e6 5fbe 6a58 1a3e 2c77 933e b91b dfbe
000001c0: 249c fa3e 9f3a fbbe b4a9 5bbe 95fc 7abe
000001d0: f883 df3e dc3b 85be 0d13 ab3d e1fe 43be
000001e0: 0a67 fe3e 1dfa 213e e97b 48bf dcd2 ebbe
000001f0: e3b8 30bf 36df 373d 1491 503f d10e cf3e
00000200: 83a2 c63e fddb c43e da20 0a3f 50bb c1be
00000210: 6c86 a0bd 70f2 01be 24ac e43e e088 583f
00000220: e028 743e 20c5 dbbc c4b4 62be 10ce b5bd
00000230: f9de 9cbe acdc 633e e892 6dbe 1790 b83d
00000240: a707 c4be 5e96 3fbe 8a70 e0be 9e49 923d
00000250: a4c3 debd 3343 abbe 6503 663e 68e0 0fbe
00000260: 7cba 013e f7cb 073f 4e97 ca3e 8b1a f6be
00000270: 0e7a 01be 9956 80be 67ad a63e aa90 9cbe
00000280: 900a 09be f02f 2cbe cf77 d53e 64cd 263d
00000290: e45d 31be 05b9 14be 3cf9 943d 90c4 3cbe
000002a0: 3a70 643e e83d 623d 9e50 863e da49 d33d
000002b0: ff47 1bbe fef9 dbbe 3c20 503e d072 073f
000002c0: e0bb 89be 8b37 aebe 5d7e c4be 2d5c 1fbf
000002d0: ce11 c33e 199d b73e 060f 55bf 11fb 18bf
000002e0: 2e13 58be 954a 1a3e 69c9 2fbe 688d 2e3e
000002f0: 417d 16be 5539 1a3e 83ff 0e3f 3a18 0b3e
00000300: a82a debc 49a9 573e 4a44 27be ce58 913e
00000310: ceae 85be 3d7c 4b3e 0390 833e 50c9 9fbc
00000320: 1630 973e 3ef5 83be e26c cfbe 58e4 80be
00000330: e7d5 19bf 642b 24bf 3c60 7d3f b385 a03e
00000340: 881a 3fbe 0607 d83e 30a0 a5be 3391 623e
00000350: e62b cf3e 62e1 893e e58c 4a3f 9cf5 873d
00000360: 2b4e dcbe 12be 94be 34e2 f73e 196a 0fbe
00000370: 0a9f 283e f38b f93a 7d0f c1be f3e4 733e
00000380: 1851 27be 7b54 b7be 5b86 0dbe 6642 003f
00000390: 4585 d4be 6893 fdbe 8b81 513f 3900 2f3f
000003a0: 8978 1f3c 60bf ca3e 7dd3 8dbf c52e 39bf
000003b0: 0562 8c3e c66c 86be 3c16 093f 6c02 bbbd
000003c0: 3965 c2bd 0045 a93d 9020 1cbe c571 683e
000003d0: c84b 4e3e 4cab d8be d01c a13e 9af0 2f3f
000003e0: 0036 8dbe a6e2 c73e 479d f2bc 8ff2 3cbf
000003f0: 8f1b cbbd 0e74 cabe f05d 0a3f b3af c73e

fc1.bias f4 [64]
-0.2144195 0.65853554 0.43732217 0.102713585 -0.45640528 0.74987537 1.0914124 -0.061204128
0.98833156 -0.10968898 1.0572535 0.6135483 1.0783519 -0.083150156 0.84393406 0.51734287
0.8637807 1.2151912 -0.30079922 0.63824654 0.5624637 0.14111128 0.89864933 0.11122714
1.2179453 -0.468664 -0.41978598 0.9103835 0.54083544 -0.28867087 -0.084871635 -0.061436124
0.40824914 -0.28063056 -0.49966204 0.85175234 0.4237195 0.657807 0.149851 0.849681
0.9579756 0.61700815 0.7038208 -0.18448474 -0.045742024 -0.19895191 -0.24963708 0.74539787
0.74300605 -0.3836411 -0.4716975 -0.2621454 -0.24310188 0.86199397 0.65594316 1.0074446
-0.09051269 -0.23849472 -0.24701756 0.8619366 0.8806174 -0.15931079 0.23025373 -0.13304684
00000000: c990 5bbe c995 283f b1e8 df3e 805b d23d
00000010: f4ad e9be d5f7 3f3f 67b3 8b3f 2eb1 7abd
00000020: 4c03 7d3f 9ea4 e0bd 1554 873f 8011 1d3f
00000030: 6f07 8a3f a14a aabd 100c 583f 9570 043f
00000040: bb20 5d3f 638b 9b3f 5b02 9abe 2064 233f
00000050: 9ffd 0f3f 7a7f 103e e20d 663f 0ecb e33d
00000060: a2e5 9b3f baf4 efbe 30ee d6be e50e 693f
00000070: 3174 0a3f abcc 93be 2ed1 adbd 72a4 7bbd
00000080: 0806 d13e cfae 8fbe b4d3 ffbe 710c 5a3f
00000090: c3f1 d83e 0a66 283f 8a72 193e b284 593f
000000a0: e43d 753f 3ff4 1d3f 9a2d 343f 91e9 3cbe
000000b0: fd5b 3bbd 0dba 4bbe dda0 7fbe 65d2 3e3f
000000c0: a535 3e3f 9b6c c4be 5682 f1be ec37 86be
000000d0: b3ef 78be a3ab 5c3f e4eb 273f f2f3 803f
000000e0: b85e b9bd f637 74be 2cf2 7cbe e1a7 5c3f
000000f0: 2470 613f 5e22 23be a2c7 6b3e 6e3d 08be

actor.weight f4 [2, 64]
-0.16387215 -0.034155976 -0.14766021 -0.09839266 0.07249856 -0.08144841 0.011981379 -0.19736461
0.1003279 0.038835835 0.05081918 0.03566629 0.0623863 0.3772317 0.046926454 -0.1288752
0.02522064 0.0001739237 0.14912552 0.18019521 -0.14606015 0.37222683 -0.004956608 -0.2818232
-0.04673107 -0.1119619 0.06974596 0.054612525 -0.014664119 0.069593154 0.28949675 -0.15068507
0.17848752 -0.13723882 -0.12090202 0.01865214 -0.10066928 -0.121027194 0.20565572 -0.019881727
-0.075349644 0.042342212 -0.054987416 -0.12474304 0.09704625 0.3217895 -0.035679422 0.013365559
-0.117360055 -0.04031287 0.0776895 -0.2765086 0.06567697 -0.0675811 -0.19461583 -0.0013253524
-0.16777883 -0.15788862 0.085279025 0.12742479 -0.15618101 -0.30109543 0.2127612 -0.2106608
0.2069551 0.119257405 0.20123272 0.14788319 0.11890358 -0.07827957 -0.032137174 0.14290395
-0.19034289 -0.061883386 -0.084806256 -0.03579538 -0.08434298 -0.32437032 0.07588018 -0.050467037
0.13758208 -0.0017135992 -0.2152935 -0.17435019 0.008524527 -0.40026164 -0.022992432 0.21670696
0.050803397 0.069624454 -0.12212025 -0.13481385 0.18139693 0.07024073 -0.2830801 0.14179026
-0.22798494 0.061246548 0.030681282 0.06420807 0.035558913 0.15160495 -0.22205211 0.12374378
-0.030878592 -0.02053871 0.040232956 0.2937525 -0.07258085 -0.32881376 -0.036517233 0.07345564
0.16590934 -0.049103994 -0.07658216 0.25206044 0.14258043 0.09563758 0.030597577 0.083943725
0.18978615 0.23617214 -0.22365905 -0.04672262 -0.0026807694 0.123277955 -0.33871308 0.250488
00000000: 1ace 27be 23e7 0bbd 3d34 17be 1782 c9bd
00000010: 207a 943d 6dce a6bd 8c4d 443c f319 4abe
00000020: b778 cd3d 5312 1f3d c627 503d d116 123d
00000030: c788 7f3d 8324 c13e f435 403d dcf7 03be
00000040: 849b ce3c 4a5f 3639 5cb4 183e 1885 383e
00000050: cb90 15be 8494 be3e 0b6b a2bb 214b 90be
00000060: 1469 3fbd 484c e5bd f8d6 8e3d 62b1 5f3d
00000070: c641 70bc db86 8e3d eb38 943e 304d 1abe
00000080: 6fc5 363e 5588 0cbe 7a9b f7bd 5fcc 983c
00000090: b22b cebd 1bdd f7bd 6a97 523e 01df a2bc
000000a0: ea50 9abd 076f 2d3d 7c3a 61bd 4779 ffbd
000000b0: 2fc0 c63d 98c1 a43e 9624 12bd 38fb 5a3c
000000c0: 785a f0bd 1c1f 25bd ac1b 9f3d 8992 8dbe
000000d0: a681 863d f667 8abd 5f49 47be 72b7 adba
000000e0: 37ce 2bbe 8ead 21be c5a6 ae3d a57b 023e
000000f0: eaed 1fbe 2e29 9abe 12de 593e 77b7 57be
00000100: 0aec 533e 3a3d f43d f30f 4e3e b16e 173e
00000110: b883 f33d 0a51 a0bd 45a2 03bd 6a55 123e
00000120: 3fe9 42be 6f79 7dbd e7ae adbd 2d9e 12bd
00000130: 03bc acbd de13 a6be 1167 9b3d 86b6 4ebd
00000140: 51e2 0c3e d99a e0ba e675 5cbe db88 32be
00000150: 75aa 0b3c 18ef ccbe a05a bcbc 6ee8 5d3e
00000160: 3917 503d 4497 8e3d 2e1a fabd a40c 0abe
00000170: 1ec0 393e 5fda 8f3d e0ef 90be 7731 113e
00000180: e274 69be a9dd 7a3d 5057 fb3c 857f 833d
00000190: 39a6 113d 543e 1b3e a161 63be 616d fd3d
000001a0: 1af5 fcbc cc40 a8bc 50cb 243d ba66 963e
000001b0: 45a5 94bd 475a a8be 1893 15bd e96f 963d
000001c0: 23e4 293e 4521 49bd 1cd7 9cbd 110e 813e
000001d0: 9b00 123e a3dd c33d c5a7 fa3c b0ea ab3d
000001e0: 4d57 423e 1cd7 713e e106 65be 3860 3fbd
000001f0: d9af 2fbb 2779 fc3d cd6b adbe f73f 803e

actor.bias f4 [2]
0.05014032 0.12980597
00000000: f05f 4d3d dbeb 043e

critic.weight f4 [1, 64]
-0.4558225 0.5274148 0.0666715 0.11045242 -0.02915147 0.46094087 0.40481701 -0.47530472
0.2706581 -0.040739574 0.37060216 0.9228075 0.40524754 -0.49771333 0.5450945 0.26720107
0.52006173 0.70613575 -0.31690606 0.1545644 0.32962504 0.030303827 0.29536518 0.023916576
0.725616 0.10730629 -0.060332164 0.34711134 0.47529897 -0.030731829 -0.53371304 -0.44909582
0.16100912 -0.35355523 0.08243567 0.5302945 0.435479 0.81215394 0.110827245 0.45231915
0.7798387 0.375361 0.85851526 -0.29873693 -0.18264873 -0.42293203 0.06352198 0.8322259
0.68887496 0.041088816 -0.05425091 -0.3361006 0.008222654 0.21891654 0.4979637 0.7895075
-0.01990745 -0.31045535 -0.3600186 0.6906092 0.8641312 -0.25675783 -0.055562463 -0.35142353
00000000: 9161 e9be a804 073f 118b 883d e134 e23d
00000010: 10cf eebc 7100 ec3e 2d44 cf3e 245b f3be
00000020: b393 8a3e 8ade 26bd 91bf bd3e 1d3d 6c3f
00000030: 9b7c cf3e 48d4 febe 508b 0b3f 94ce 883e
00000040: c422 053f 50c5 343f 8341 a2be 2146 1e3e
00000050: 9dc4 a83e bb3f f83c 1b3a 973e b2ec c33c
00000060: f8c1 393f 66c3 db3d dc1e 77bd 94b8 b13e
00000070: 635a f33e 51c1 fbbc 6ba1 08bf e3ef e5be
00000080: 93df 243e 3105 b5be 08d4 a83d 61c1 073f
00000090: 1af7 de3e 52e9 4f3f 65f9 e23d 6096 e73e
000000a0: 82a3 473f 512f c03e a8c7 5b3f 0cf4 98be
000000b0: 4508 3bbe 8c8a d8be d017 823d c20c 553f
000000c0: 1c5a 303f bf4c 283d 3436 5ebd 6115 acbe
000000d0: 50b8 063c a82b 603e 19f5 fe3e 2a1d 4a3f
000000e0: f314 a3bc 01f4 9ebe 5c54 b8be c4cb 303f
000000f0: b437 5d3f c375 83be 7795 63bd c9ed b3be
