reinforcement_learning/actor_critic/actor_critic_999.pth (torch, 4834 bytes, 5 tensors)

fc1.weight f4 [64, 4]
0	0x3de19e56	0.11016528
1	0x3e3a4299	0.18189467
2	0x3e0d007c	0.13769716
3	0x3ea042e4	0.31301033
4	0x3ed1edea	0.41001827
5	0x3f88197f	1.0632781
6	0x4011b090	2.2764015
7	0x3f975fa0	1.1826057
8	0xbe0d5d22	-0.13805059
9	0xbca53d2f	-0.020170776
10	0xbee14db5	-0.44004598
11	0xbe7481c0	-0.2387762
12	0x3f5c26ee	0.859969
13	0x3d2eec49	0.042705808
14	0x3c95857a	0.018252123
15	0x3b236d94	0.002493714
16	0x3cea0038	0.028564557
17	0x3ea1c6bd	0.31596938
18	0x3f2b8935	0.67006236
19	0x3e921483	0.28531274
20	0xbe871652	-0.26384217
21	0xbf2a0eed	-0.66429025
22	0xbea27899	-0.31732634
23	0xbec03a12	-0.37544304
24	0x3e5e9db1	0.21739842
25	0xbe3d6991	-0.18497302
26	0x3eb3c267	0.35109255
27	0xbe8255ba	-0.2545603
28	0x3e9a8b88	0.3018458
29	0xbec390f2	-0.38196522
30	0xbf5ba418	-0.8579726
31	0xbedcf4c5	-0.43155494
32	0xbca7f234	-0.020501234
33	0xbf06d84f	-0.5267381
34	0xbf9bd0da	-1.2173111
35	0xbec9ad63	-0.39390096
36	0xbe0dfb48	-0.13865387
37	0xbf28e44a	-0.6597334
38	0xc0107713	-2.2572677
39	0xbfa6d541	-1.303383
40	0xbef09653	-0.46989688
41	0x3edb88d0	0.42877817
42	0x3f401c6c	0.7504337
43	0xbcbe38be	-0.023220416
44	0xbcdd7ebd	-0.027037973
45	0x3e12edb8	0.14348495
46	0xbeb459b0	-0.35224676
47	0xbf0c0361	-0.54692656
48	0x3e532570	0.2061975
49	0xbe01a65e	-0.1266112
50	0x3e746fbc	0.23870748
51	0xbdc07dd5	-0.093990006
52	0x3e190956	0.14944968
53	0x3d25601b	0.040374856
54	0xbe23fb7e	-0.16013905
55	0x3eb661e3	0.35621557
56	0x3e3103ac	0.17286557
57	0xbe06e79d	-0.13174291
58	0x3e4ac3ce	0.19801256
59	0x3ee82631	0.45341638
60	0x3d8b24bf	0.06794118
61	0xbe7b1e76	-0.24523339
62	0xbf982458	-1.1886091
63	0xbea321b2	-0.31861645
64	0xbf65a04f	-0.89697737
65	0xbe2e48e4	-0.17019993
66	0x3d8552a5	0.06509904
67	0x3d752516	0.05984982
68	0xbf297ab7	-0.66202873
69	0xbf59ef5d	-0.85130864
70	0xbf2b90c4	-0.6701777
71	0xbeb4d40f	-0.35318038
72	0xbedede11	-0.43528798
73	0x3d2199f2	0.039453454
74	0xbdd04416	-0.10169236
75	0xbd9b9a1f	-0.07597756
76	0xbd52a014	-0.051422194
77	0xbd6a400c	-0.057189986
78	0xbe7f02a8	-0.24903357
79	0xbdec3925	-0.11534337
80	0x3db399b6	0.087695524
81	0x3f11c5bb	0.5694234
82	0xbe8e4760	-0.2778883
83	0x3d940006	0.07226567
84	0xbe3c7130	-0.18402553
85	0xbd933d87	-0.0718947
86	0x3e1822da	0.14857045
87	0xbd8ca08d	-0.0686656
88	0x3edcc581	0.43119434
89	0xbefee32f	-0.49782702
90	0xbf1a09b5	-0.6017106
91	0x3defad4f	0.11702978
92	0x3f887831	1.066168
93	0xbd15efca	-0.036605634
94	0xbf075415	-0.52862674
95	0xbea87a2e	-0.32905716
96	0xbf2f8ad6	-0.6857122
97	0xbf26f7a2	-0.6522161
98	0xbf76dc29	-0.9642969
99	0xbf03d502	-0.514969
100	0x3f387e4c	0.72067714
101	0x3e4bb5e6	0.19893607
102	0x3e5cbf81	0.21557428
103	0x3dd367ff	0.1032257
104	0x3ef08f4e	0.46984333
105	0x3e00970a	0.12557617
106	0x3e9aeed2	0.3026033
107	0x3e64adab	0.22331874
108	0x3b41c4a7	0.0029566677
109	0x3c6808bc	0.014162239
110	0x3ece94f4	0.40348017
111	0x3d88f59e	0.06687473
112	0x3e739f7b	0.23791306
113	0x3a143fff	0.0005655288
114	0xbf164e7e	-0.5871352
115	0x3e68ac3c	0.22721952
116	0xbf049aba	-0.51798594
117	0xbf1864e6	-0.5952896
118	0xc01bec34	-2.4362917
119	0xbf2df3bb	-0.6795003
120	0x3d963c57	0.07335728
121	0x3da91556	0.08256023
122	0xbfc37478	-1.5269918
123	0xbf8b8e08	-1.090272
124	0x3f3ffbba	0.7499348
125	0x3db184c6	0.08667903
126	0x3f2428c9	0.64124733
127	0x3d82bdba	0.06383844
128	0xbd456a6d	-0.0481972
129	0x3ea6952e	0.3253569
130	0x3eb7cc2d	0.3589796
131	0xbe15b688	-0.14620411
132	0x3e3f1175	0.18659003
133	0xbe7ff4f0	-0.2499578
134	0xbec073e4	-0.37588418
135	0xbdbd980f	-0.092575185
136	0x3de137cc	0.109969705
137	0x3ea25549	0.31705692
138	0x401cabdd	2.4479897
139	0x3fd2111e	1.6411474
140	0x3cfd4b5a	0.03091972
141	0x3f0b90e2	0.5451795
142	0x3ffed0d1	1.9907476
143	0x3fcc848a	1.5977948
144	0x3f32ea04	0.6988833
145	0x3e583381	0.21113397
146	0x3dad27a2	0.08454825
147	0x3d9cdab8	0.07658905
148	0xbf04bc1b	-0.51849526
149	0xbf016bf8	-0.5055537
150	0xbfd21051	-1.6411229
151	0xbeab8223	-0.33497724
152	0x3d970e32	0.073757544
153	0x3d7eb5c6	0.06218507
154	0x3f0a44b3	0.54011077
155	0x3e99777b	0.2997397
156	0x3fa9cf79	1.3266441
157	0xbdee40a9	-0.11633427
158	0xbfb75e92	-1.4325736
159	0xbee42b64	-0.44564354
160	0xbf0e5dd3	-0.55611914
161	0xbef61409	-0.4806216
162	0xbf664124	-0.89943147
163	0xbe4dc3cb	-0.2009422
164	0xbe68d0d1	-0.22735907
165	0xbe051267	-0.12995301
166	0x3d2ce7e5	0.04221334
167	0xbd52952f	-0.051411804
168	0x3e7ca445	0.24672039
169	0xbe9c9e16	-0.3058936
170	0xbda5988f	-0.08085739
171	0x3de2e289	0.110783644
172	0x3ee4357e	0.4457206
173	0xbe8fa108	-0.28052545
174	0x3da9894b	0.0827814
175	0xbe4c2c5c	-0.19938797
176	0x3e645cb6	0.22300991
177	0xbef7b816	-0.48382634
178	0xbf2e330c	-0.6804664
179	0xbeb8d9a4	-0.36103547
180	0xbdd4b94d	-0.10386906
181	0x3e97a3b5	0.29617086
182	0x3d6687e7	0.05628195
183	0xbec87bea	-0.3915704
184	0x3de4fde5	0.11181239
185	0xbe85e881	-0.2615395
186	0x3ea274b8	0.31729674
187	0x3d928d0b	0.07155808
188	0x3ec06b1a	0.37581712
189	0xbe8ce0f8	-0.27515388
190	0xbd545104	-0.051835075
191	0xbe73220d	-0.23743458
192	0x3f3d3ed7	0.7392401
193	0x3e67ed03	0.22649007
194	0x400301fc	2.046996
195	0x3f073379	0.52812916
196	0xbef2511e	-0.47327513
197	0x3e862798	0.26202083
198	0xbebaae41	-0.3646107
199	0x3e7fcb4e	0.24979898
200	0xbe0db69e	-0.13839194
201	0x3ed5d319	0.41762617
202	0xbe0e9def	-0.13927434
203	0x3d95efa4	0.073210984
204	0xbf8e5138	-1.1118536
205	0x3f6a84ec	0.9160907
206	0x401d77e1	2.4604418
207	0x3f443cdf	0.7665538
208	0xbea075fa	-0.3134001
209	0x3eb7701f	0.3582773
210	0x3efe673f	0.49688146
211	0xbe8f335e	-0.27968878
212	0xbed04082	-0.40674216
213	0x3e8bae7b	0.27281556
214	0xbd98b1c1	-0.07455779
215	0xbcb777f7	-0.02239607
216	0xbdb7b0b9	-0.08969254
217	0xbf6116c3	-0.87925357
218	0xbfb48809	-1.4104015
219	0xbee33df9	-0.4438322
220	0xbe45c0d5	-0.19311841
221	0xbe2ff659	-0.17183818
222	0xbecb5e2f	-0.39720294
223	0x3e1f9173	0.15582828
224	0xbe16a262	-0.14710382
225	0x3ec370cc	0.38171995
226	0x3ecd8080	0.401371
227	0x3e4145ff	0.18874358
228	0x3de2b9d2	0.11070599
229	0x3f00a04e	0.50244606
230	0x3f470be4	0.7775252
231	0x3ed6ffbc	0.41991985
232	0xbf02f5b7	-0.5115618
233	0x3f08f846	0.53503835
234	0x3e27cf2d	0.16387625
235	0x3ea5da04	0.32392895
236	0x3df93b3b	0.121695004
237	0x3e9588c2	0.292059
238	0xbe000050	-0.12500119
239	0x3ce651ca	0.028115172
240	0xbe85cd87	-0.26133367
241	0x3ee37460	0.44424725
242	0xbea2f790	-0.318295
243	0x3e824264	0.25441277
244	0x3f5b2ebd	0.8561819
245	0x3cd6062b	0.026125988
246	0xbea50994	-0.3223387
247	0x3afff67d	0.0019528415
248	0xbf2a3bf0	-0.6649771
249	0xbefe0467	-0.49612734
250	0xbd9861ac	-0.074405044
251	0xbe8fc8dd	-0.28082934
252	0x3de438d2	0.1114365
253	0xbe1b9afd	-0.15195842
254	0x3fc8e3ae	1.5694482
255	0x3fd6b8fe	1.6775205

fc1.bias f4 [64]
0	0x3f9095ad	1.1295677
1	0x3f7cdffd	0.9877928
2	0x3f7b26fe	0.9810637
3	0xbfa8311d	-1.3139988
4	0xbf909c4f	-1.1297702
5	0xbf73e0d1	-0.9526492
6	0x3fa81296	1.3130672
7	0xbf2f8b0c	-0.68571544
8	0xbf11766a	-0.5682131
9	0x3f80acd5	1.0052744
10	0x3f8419a5	1.0320326
11	0x3f9818e9	1.1882602
12	0x3fa845f1	1.3146344
13	0x3fa95f92	1.3232291
14	0x3f5bb385	0.858208
15	0x3ef211f2	0.47279316
16	0xbfa04c2d	-1.2523247
17	0xbf8e2b5e	-1.1106985
18	0xbf8e83f8	-1.1134024
19	0x3f63e18d	0.8901604
20	0x3e9c9fcb	0.30590662
21	0x3f8e8102	1.113312
22	0x3f8506b0	1.0392666
23	0xbf4de0df	-0.8042125
24	0xbf98993b	-1.1921762
25	0xbf98d6f8	-1.1940603
26	0xbe154c5b	-0.14579909
27	0xbe8445a0	-0.2583437
28	0x3f87b13f	1.0600966
29	0x3f879e1a	1.0595124
30	0x3f8517f4	1.0397935
31	0xbf9cc85c	-1.2248645
32	0x3f95cc29	1.170293
33	0x3f8446cc	1.0334105
34	0x3e841c2f	0.25802752
35	0x3ea6e219	0.32594374
36	0xbf917c09	-1.1365978
37	0xbf7286a0	-0.9473667
38	0x3f900dbd	1.1254193
39	0x3f3c7fac	0.7363231
40	0xbf92d053	-1.1469826
41	0x3fb2300f	1.3920916
42	0x3fb14847	1.3850182
43	0xbf8bee5f	-1.093212
44	0x3f866789	1.0500346
45	0x3fa5067f	1.2892607
46	0x3f99e13e	1.2021863
47	0xbf76fbb0	-0.96477795
48	0xbf258075	-0.64649135
49	0x3f994b4c	1.1976104
50	0x3f730fa6	0.9494575
51	0x3e93efb3	0.28893813
52	0x3f641591	0.8909541
53	0x3f7bb9a8	0.98330164
54	0x3f139b67	0.57659
55	0x3fbf1255	1.492747
56	0x3f676a9e	0.9039706
57	0xbf5639fe	-0.8368224
58	0xbf7ccf50	-0.98753834
59	0x3faa4fa7	1.3305558
60	0x3f48ba34	0.78409123
61	0xbfaa2ee9	-1.3295566
62	0xbfaafe98	-1.3358946
63	0x3de3f0ce	0.11129914

actor.weight f4 [2, 64]
0	0x3edae947	0.427561
1	0xbfb46e2f	-1.4096125
2	0x3a5b7b9a	0.0008372605
3	0xbe9a1d7e	-0.30100626
4	0xbf18fccf	-0.59760755
5	0x3e99eb7b	0.3006247
6	0x3eb7af68	0.35876012
7	0x3f04f355	0.51933795
8	0x3fad9232	1.356024
9	0x4020eea9	2.5145667
10	0xbe79e0e3	-0.24402194
11	0x3ee13f56	0.43993634
12	0x3eaea3ad	0.3410925
13	0x3e482456	0.19545111
14	0x3e23c551	0.15993239
15	0x3f2757f0	0.65368557
16	0x3e830ade	0.25594229
17	0x3eca9e49	0.39573887
18	0xbd506206	-0.050874732
19	0x3e63ea17	0.22257267
20	0xbe76e466	-0.24110565
21	0xbf03de97	-0.5151152
22	0x3f0f454a	0.559651
23	0x3de72599	0.11286468
24	0x3f0fa3aa	0.56109107
25	0xbe91a9b1	-0.28449777
26	0xbeaba111	-0.3352132
27	0x3c84f4f0	0.016230077
28	0x3ef4dea4	0.4782611
29	0x3fb75fd8	1.4326124
30	0xbe8126b4	-0.2522484
31	0xbecb5398	-0.39712214
32	0x3e6a72c3	0.2289534
33	0x3eb29036	0.3487565
34	0xbf280076	-0.65625703
35	0xbf544523	-0.82917994
36	0x3df84018	0.121216
37	0x3f63063d	0.88681394
38	0x3e3c1a6d	0.18369456
39	0x3fa53bcd	1.2908875
40	0x3e704b36	0.2346619
41	0xbf104dcd	-0.56368715
42	0x3e9bdb4e	0.30440754
43	0xbc95c677	-0.018283112
44	0x3ec22ba3	0.37923917
45	0x3e8a976a	0.27068645
46	0x3e27f6a3	0.16402678
47	0xbe0fe1e7	-0.14051019
48	0xbf3145c8	-0.692471
49	0xbf4193cb	-0.7561614
50	0x3e9a6698	0.30156398
51	0xc041d3b1	-3.0285456
52	0xbbcbb221	-0.006216303
53	0xbf0c2c35	-0.54754955
54	0x3e8739ed	0.2641138
55	0xbeea52fd	-0.4576644
56	0x3e35c673	0.17751484
57	0x3e5ffabd	0.21872993
58	0xbe4fde62	-0.20299676
59	0x3ec1ffc6	0.37890452
60	0x3e01279e	0.12612769
61	0xbec80371	-0.39065126
62	0xbd8ab5a0	-0.067729235
63	0xbec86a8f	-0.39143798
64	0xbeb96f23	-0.36217603
65	0x3fb716a4	1.4303784
66	0x3e386145	0.18005855
67	0x3e9e7714	0.30950224
68	0x3f1263b5	0.5718339
69	0xbee0a71e	-0.438775
70	0xbe91ad5a	-0.2845257
71	0xbf10acd0	-0.5651369
72	0xbfa08fa9	-1.2543842
73	0xc01b4d42	-2.4265904
74	0x3eb45c36	0.352266
75	0xbec84155	-0.39112344
76	0xbeb03a02	-0.34419256
77	0xbea28123	-0.31739148
78	0xbe219555	-0.15779622
79	0xbf4376df	-0.7635326
80	0xbe34fe02	-0.17675021
81	0xbedfabbd	-0.43685713
82	0x3d6ee429	0.05832306
83	0xbe896ba6	-0.26839942
84	0x3ddc6f26	0.107633874
85	0x3eee3907	0.46527883
86	0xbef14407	-0.47122213
87	0xbca6ad72	-0.020346377
88	0xbf12b9c4	-0.57314706
89	0x3eb0f824	0.34564316
90	0x3e82da0a	0.25556976
91	0x3d0b6279	0.034029458
92	0xbef5ce96	-0.48009175
93	0xbfc1bc7d	-1.5135647
94	0x3e37a339	0.17933358
95	0x3ef3100d	0.47473183
96	0xbe4b890c	-0.19876498
97	0xbef97267	-0.48720095
98	0x3f4bbae6	0.7958206
99	0x3f42a721	0.7603627
100	0x3cbc23fb	0.022966376
101	0xbf4af2da	-0.7927681
102	0xbdfd248b	-0.12360486
103	0xbf9a326a	-1.2046635
104	0xbdf048b1	-0.11732615
105	0x3ef4c308	0.47805047
106	0xbe747a60	-0.23874807
107	0x3db4d715	0.08830086
108	0xbefd5afa	-0.49483472
109	0xbe881560	-0.26578808
110	0xbdd7ba35	-0.10533563
111	0x3d996e17	0.07491701
112	0x3f2411d6	0.64089715
113	0x3f4ae63a	0.7925755
114	0xbe44fbc3	-0.19236664
115	0x403b5071	2.9267848
116	0x3d0e0b46	0.03467872
117	0x3ee82440	0.45340157
118	0xbe8e125b	-0.2774838
119	0x3ea796a4	0.32732117
120	0xbe587103	-0.2113686
121	0xbe9f89a7	-0.31159708
122	0x3e9a0110	0.30078936
123	0xbee40b94	-0.44540083
124	0x3cea93d1	0.028634937
125	0x3e96f473	0.29483375
126	0xbd154757	-0.036444988
127	0x3e9bb320	0.304101

actor.bias f4 [2]
0	0x3e14e08f	0.14538787
1	0xbe33aa89	-0.17545523

critic.weight f4 [1, 64]
0	0x3f4c6f81	0.7985764
1	0xbeec3085	-0.46130767
2	0x3f53cf69	0.8273836
3	0xbfc3f736	-1.5309818
4	0xbf6b66b3	-0.9195358
5	0xbf8399cb	-1.0281309
6	0x3f4e290a	0.8053137
7	0xbeecea44	-0.4627248
8	0xbf57e975	-0.843406
9	0xbe967e42	-0.29393202
10	0x3f3d6fe4	0.73998857
11	0x3eeb3579	0.45939234
12	0x3f42d7e3	0.76110667
13	0x3f2ae6a9	0.6675821
14	0x3edd6b0d	0.43245736
15	0x3e595c1f	0.21226548
16	0xbfac84d2	-1.3478034
17	0xbf84c049	-1.0371181
18	0xbf8bec6a	-1.0931523
19	0x3f0a76dc	0.54087615
20	0xbead3619	-0.33830336
21	0x3f8427b6	1.0324619
22	0x3f3e3262	0.7429563
23	0xbf9732c5	-1.1812369
24	0xbf301b4e	-0.68791664
25	0xbfacd11a	-1.3501313
26	0x3e6851c8	0.22687447
27	0xbd0cf6bb	-0.034414988
28	0x3f49affe	0.7878417
29	0xbfb43edf	-1.4081687
30	0x3eb2b8af	0.34906527
31	0xbfad6416	-1.3546169
32	0x3f0cc067	0.5498108
33	0x3f1c4b07	0.6105198
34	0xbdf87a18	-0.121326625
35	0xbe53fe7b	-0.20702545
36	0xbfb5d5b0	-1.4205837
37	0xbf9664a3	-1.1749462
38	0x3f18c1dc	0.59670806
39	0xbfd430b4	-1.6577363
40	0xbf8c9c53	-1.0985206
41	0x3f93c142	1.1543353
42	0x3f1ca31c	0.61186385
43	0xbf6cb8fd	-0.9246977
44	0x3f5b8a24	0.8575766
45	0x3ed38f0d	0.41320077
46	0x3f23aa76	0.6393198
47	0xbf2f16ff	-0.68394464
48	0xbf765fa1	-0.9623967
49	0x3fbdb4eb	1.4820837
50	0x3ef9974b	0.4874824
51	0xbfaa70b5	-1.3315645
52	0x3ea28fba	0.3175028
53	0x3f8fb818	1.1228056
54	0xbf13b1c3	-0.5769312
55	0x3f69b1d3	0.91286963
56	0x3f2ad5eb	0.6673266
57	0xbf974805	-1.1818854
58	0xbf44a900	-0.76820374
59	0x3f5d4d9f	0.86446565
60	0x3ef13726	0.47112387
61	0xbfdca42f	-1.7237605
62	0xbf8c8d01	-1.0980531
63	0x3dd388a8	0.103287995
