reinforcement_learning/actor_critic/actor_critic_500.pth (torch, 73334 bytes, 9 tensors)

fc1.weight f4 [128, 4]
0	0xbed71754	-0.42009985
1	0xbed3bbf1	-0.41354325
2	0xbf39ed06	-0.72627294
3	0xbf24469d	-0.6417025
4	0xbdf3e8c5	-0.11909632
5	0x3e7c231d	0.2462277
6	0xbcdbbe9d	-0.02682429
7	0xbe7445f1	-0.23854806
8	0xbd07404e	-0.03302031
9	0xbe4e8707	-0.20168696
10	0xbe2b936d	-0.16755457
11	0x3e7e3828	0.2482611
12	0x3e0b3edc	0.13598198
13	0xbdd45388	-0.10367495
14	0xbe75e3ac	-0.24012631
15	0xbda88ea7	-0.08230334
16	0x3e11a7a4	0.14224106
17	0xbd818f56	-0.06326167
18	0xbeacd068	-0.3375275
19	0xbed48467	-0.41507265
20	0xbe008d40	-0.12553883
21	0xbcd4f476	-0.025995474
22	0xbefe3a5d	-0.49653903
23	0x3ec0f8e4	0.37689888
24	0xbda6447d	-0.08118532
25	0x3e1e9c8e	0.15489408
26	0xbd133888	-0.035942584
27	0xbeabd6c7	-0.335623
28	0xbe12217a	-0.14270583
29	0xbea2422b	-0.31691107
30	0xbe5ebf8b	-0.21752755
31	0xbe87fea0	-0.2656145
32	0xbf185fa5	-0.5952094
33	0xbe7ab18a	-0.24481788
34	0x3e24b2ca	0.16083828
35	0xbd32bc54	-0.043636635
36	0xbecaa3e5	-0.39578167
37	0x3e9e8e5d	0.3096799
38	0x3ef94756	0.48687238
39	0x3d755397	0.05989417
40	0x3d0dfba9	0.03466383
41	0x3e7338eb	0.23752181
42	0x3e834659	0.25639609
43	0xbc97971f	-0.018504677
44	0x3f104ff1	0.5637198
45	0xbda0a1dd	-0.07843373
46	0x3f1be55c	0.6089685
47	0x3ea8d9d6	0.32978696
48	0x3dd97e9a	0.106198505
49	0xbf085f42	-0.5327035
50	0xbebbefa6	-0.36706275
51	0xbe4162fd	-0.18885417
52	0x3e821726	0.25408286
53	0xbeaa5f42	-0.332758
54	0x3d8b7e90	0.06811249
55	0x3deed0bd	0.116609074
56	0x3e27e7dc	0.16397041
57	0x3ed12b36	0.4085328
58	0xbe9e82ad	-0.30959073
59	0xbefca64c	-0.49345624
60	0xbeb971f5	-0.36219755
61	0x3ec1dc7e	0.37863535
62	0x3ed4a58b	0.4153255
63	0x3d29870e	0.041388564
64	0xbf14b450	-0.58087635
65	0x3cb18560	0.021670043
66	0x3d87e107	0.066347174
67	0x3e82efb9	0.2557352
68	0x3f0ced88	0.55049944
69	0x3eaf0382	0.34182364
70	0xbcf12fa0	-0.029441655
71	0x3e861edb	0.26195416
72	0x3f0a4176	0.54006135
73	0x3edaa988	0.42707467
74	0x3ed2e7de	0.41192526
75	0x3e8c6bb4	0.2742592
76	0x3e335bbb	0.17515461
77	0xbef46e5e	-0.47740453
78	0xbebfda37	-0.37471172
79	0x3e9f442e	0.31106704
80	0xbe3c4720	-0.18386507
81	0x3d5a8670	0.053350866
82	0x3e48af7b	0.1959819
83	0x3e93f723	0.28899488
84	0xbe6d760a	-0.2318956
85	0x3da8f34f	0.082495324
86	0xbe8c6819	-0.2742317
87	0x3e948f5b	0.29015622
88	0x3e2232c8	0.15839684
89	0xbe1ee705	-0.15517814
90	0xbea91815	-0.33026186
91	0x3da7a3af	0.08185517
92	0xbe696341	-0.22791769
93	0xbea72c4d	-0.32650986
94	0xbe322680	-0.17397499
95	0xbdf65e34	-0.120296866
96	0x3ea5e307	0.3239977
97	0x3e6d024d	0.23145409
98	0x3e36ef4f	0.17864726
99	0x3eb6a187	0.3567011
100	0xbe96c297	-0.29445335
101	0xbe7e145c	-0.24812454
102	0x3e5f466f	0.21804212
103	0x3ede81af	0.43458316
104	0xbce5ef0e	-0.028068092
105	0x3dbc9095	0.09207264
106	0xbe358a89	-0.17728628
107	0xbe313c3a	-0.17308131
108	0xbdf88512	-0.12134756
109	0xbe3e20c7	-0.18567191
110	0xbee84ff0	-0.45373487
111	0x3f00fbde	0.5038432
112	0xbe599b14	-0.21250564
113	0xbebc0aa9	-0.36726883
114	0xbea79b7c	-0.32735813
115	0xbf03623c	-0.5132177
116	0x3eae8ced	0.34091893
117	0x3e38d3aa	0.18049493
118	0x3ec9e25c	0.3943051
119	0xbd0a7e30	-0.033811748
120	0x3e9707a3	0.29498014
121	0x3dfb0480	0.12256718
122	0x3dced05d	0.10098336
123	0x3c8d52dc	0.017251424
124	0x3e2ad852	0.16684082
125	0xbe35ad12	-0.17741802
126	0xbedc1fb1	-0.4299293
127	0xbda08809	-0.07838447
128	0x3e8de382	0.27712637
129	0xbd7dd41c	-0.06196986
130	0x3eb94d7b	0.36191925
131	0xbebefcbd	-0.373022
132	0x3d2c0ab4	0.042002395
133	0xbf09455c	-0.5362146
134	0xbe1cff16	-0.15331683
135	0xbecea8ac	-0.4036306
136	0xbe8287e7	-0.2549431
137	0xbe46ed3d	-0.19426437
138	0xbee84755	-0.45366922
139	0x3eb968e2	0.36212832
140	0xbe1b0746	-0.15139493
141	0xbe0afcdf	-0.13573025
142	0x3d58a24d	0.052889157
143	0xbe86a21b	-0.26295552
144	0xbefd89dd	-0.49519244
145	0xbe9d8006	-0.30761737
146	0xbe2df96b	-0.16989677
147	0xbebde518	-0.37088847
148	0x3ed213be	0.41030687
149	0xbe5ff2ed	-0.21870013
150	0x3f1a8ca4	0.6037085
151	0x3d9005a2	0.070323244
152	0x3e4d41d7	0.20044647
153	0x3e8551a4	0.2603885
154	0x3e6027ee	0.21890232
155	0x3ed582df	0.4170141
156	0x3cf28520	0.029604495
157	0xbeaa6efb	-0.33287796
158	0x3e60977e	0.2193279
159	0xbe046111	-0.12927653
160	0xbebd6c0e	-0.36996502
161	0x3e6255f2	0.22103098
162	0x3eec578b	0.4616054
163	0xbd9a1081	-0.07522679
164	0x3e47d3d8	0.19514406
165	0xbe4c7621	-0.19966938
166	0xbec1af88	-0.37829232
167	0x3d0f2389	0.034946
168	0x3ebd9547	0.37027952
169	0x3dbeaee1	0.09310699
170	0xbec72312	-0.38893944
171	0xbed3e8cb	-0.41388544
172	0xbe160cea	-0.14653364
173	0xbe948986	-0.29011172
174	0xbee8210b	-0.4533771
175	0x3e0c3200	0.13690948
176	0x3e9e462f	0.3091292
177	0xbc3ae7b5	-0.011407782
178	0x3f1302c0	0.5742607
179	0xbdfabc4d	-0.12242947
180	0x3e865b5c	0.26241577
181	0x3e6ffb88	0.23435795
182	0x3f0d8a5b	0.5528924
183	0x3ec57dcd	0.3857254
184	0x3ee2f82b	0.44329962
185	0xbee92f2a	-0.45543796
186	0x3f174bdd	0.59100133
187	0x3e4e8085	0.20166214
188	0xbecea2bb	-0.40358528
189	0xbef90e31	-0.4864364
190	0xbe6ffbea	-0.23435941
191	0x3d3c4cd6	0.045971714
192	0x3e6c1f84	0.23058897
193	0xbdf25a1e	-0.11833595
194	0xbf0b9272	-0.5452033
195	0x3eb5a07e	0.35474008
196	0xbe98180b	-0.29705843
197	0x3e77b600	0.24190521
198	0x3c9535e7	0.01821418
199	0x3ea0a466	0.31375426
200	0xbe45a23e	-0.19300172
201	0xbe594300	-0.21216965
202	0x3d1b9db1	0.037992183
203	0xbd9eef70	-0.07760513
204	0x3e800dac	0.2501043
205	0xbe888ecb	-0.26671442
206	0x3cb8045f	0.022463022
207	0x3ee4cc6d	0.44687214
208	0x3ea2fa47	0.3183157
209	0x3e957d1b	0.2919701
210	0x3e554f10	0.20830941
211	0xbeedf05e	-0.46472448
212	0x3e2bcf65	0.16778333
213	0x3e996e8e	0.2996716
214	0xbe449471	-0.19197251
215	0xbe821439	-0.25406054
216	0xbf13216e	-0.57472885
217	0xbd4e2327	-0.050326493
218	0x3e62fca4	0.22166687
219	0x3e768195	0.24072869
220	0x3e8506dd	0.259818
221	0x3d04c1b9	0.03241131
222	0x3e9d0e4d	0.30674973
223	0x3ecdec28	0.40219235
224	0x3e8cef55	0.27526346
225	0xbe6c0daf	-0.23052095
226	0xbe7ca495	-0.24672158
227	0x3e5edd9f	0.21764229
228	0x3e462300	0.19349289
229	0xbe4f976d	-0.20272608
230	0xbe10cad6	-0.14139876
231	0xbcb3bc25	-0.0219403
232	0xbf1554f2	-0.5833274
233	0xbcceed93	-0.025259769
234	0xbde03382	-0.10947324
235	0xbe6cfa37	-0.23142324
236	0xbcd6097f	-0.026127575
237	0xbeb2ccad	-0.3492178
238	0x3ee985bf	0.45609853
239	0x3e283126	0.16424999
240	0xbeb936b8	-0.3617456
241	0xbedf291f	-0.4358606
242	0xbe84d8cd	-0.25946656
243	0x3d5adc55	0.05343278
244	0x3d416897	0.047218885
245	0xbec90f9a	-0.39269716
246	0x3ea5efc4	0.3240949
247	0xbd6d758c	-0.05797343
248	0x3ead1c3a	0.33810598
249	0x3e253dea	0.161369
250	0x3e8eee9e	0.27916425
251	0x3e40eb97	0.1883987
252	0x3ed24650	0.4106927
253	0xbe0d31b1	-0.13788487
254	0x3ee36fa2	0.44421107
255	0x3f05b51e	0.5222949

fc1.bias f4 [128]
0	0xbe411e98	-0.18859327
1	0x3e69a65d	0.22817369
2	0x3d958b60	0.07301974
3	0x3e652500	0.22377396
4	0x3eddc7cb	0.43316492
5	0x3e94283a	0.2893694
6	0x3e34ebb1	0.17668034
7	0x3f30b40f	0.6902475
8	0xbe8ebfd4	-0.27880728
9	0x3efb70c6	0.49109477
10	0x3ebb260d	0.36552468
11	0xbe8805a3	-0.265668
12	0xbeb79cac	-0.3586172
13	0xbdb8ea6e	-0.09029089
14	0x3d0e2e69	0.03471223
15	0x3e65bd69	0.22435535
16	0xbea1f8b1	-0.3163505
17	0xbe5bb974	-0.21457464
18	0xbe6fd2dc	-0.2342028
19	0x3eca0c3c	0.3946246
20	0x3ec5a0ed	0.3859934
21	0x3ed14610	0.40873766
22	0xbdbcac7c	-0.09212586
23	0xbdbecfb2	-0.093169585
24	0x3f24fb38	0.6444583
25	0x3f101a35	0.5628999
26	0x3eb51c69	0.35373238
27	0x3edb3d95	0.4282042
28	0x3da033d3	0.07822385
29	0x3eb796f1	0.35857347
30	0x3ea6d723	0.3258601
31	0x3e73b7f5	0.23800643
32	0x3f14d673	0.58139724
33	0xbe80be3d	-0.2514514
34	0x3e5032f0	0.20331931
35	0x3ef7259b	0.48270878
36	0xbeaf5b9f	-0.3424959
37	0xbd7e894b	-0.06214265
38	0xbe9a1d98	-0.30100703
39	0x3ed094b4	0.4073845
40	0x3eba2bc6	0.3636152
41	0x3e4886b5	0.19582637
42	0x3a0eba4b	0.000544463
43	0xbeb26e7b	-0.34849915
44	0xbe4024d7	-0.18764053
45	0xbdfbe314	-0.12299171
46	0xbe948bc5	-0.29012886
47	0x3db5a93b	0.08870169
48	0xbe14206b	-0.14465491
49	0x3e902633	0.28154144
50	0x3e631315	0.22175248
51	0xbd853f92	-0.06506266
52	0xbe8eab9f	-0.27865312
53	0xbe8a8d5c	-0.27060974
54	0xbdfc1a90	-0.12309754
55	0x3f1ff73c	0.62486625
56	0x3f0838f9	0.53211933
57	0x3eb9ccbd	0.36289015
58	0xbe4effe8	-0.20214808
59	0x3ece33ca	0.40273887
60	0xbe1936f8	-0.14962375
61	0x3e626125	0.2210737
62	0xbe68296c	-0.22672051
63	0xbd3bd778	-0.045859784
64	0xbe8f68aa	-0.2800954
65	0x3e8a5673	0.2701908
66	0x3e88e745	0.26738945
67	0x3e1bffee	0.15234348
68	0xbdd5bd9b	-0.10436555
69	0x3eeebfae	0.46630615
70	0x3ee70b86	0.4512598
71	0xbe7ece4a	-0.2488338
72	0x3ec3c98e	0.38239712
73	0xbe9395ee	-0.28825325
74	0x3ed4de47	0.41575834
75	0xbea99d60	-0.3312788
76	0x3d564713	0.052313875
77	0x3f2dc517	0.6787886
78	0x3f03483a	0.51282084
79	0x3f2e2886	0.68030584
80	0x3eba76b2	0.36418682
81	0xbd52e9c9	-0.051492486
82	0x3d9efb03	0.077627204
83	0x3e5891ff	0.21149443
84	0xbc82cea4	-0.015967675
85	0x3e7cf91b	0.24704401
86	0x3f0d3ef8	0.5517421
87	0xbe7fea26	-0.24991664
88	0x3f0dbbb6	0.5536455
89	0x3f1c40de	0.6103648
90	0xbe8d0579	-0.27543238
91	0xbe8977b1	-0.2684913
92	0xbe89b316	-0.26894444
93	0xbe42187e	-0.18954656
94	0x3f2d2c10	0.6764536
95	0x3ef095e9	0.46989372
96	0xbdacaa9f	-0.08430981
97	0x3e90e739	0.2830141
98	0x3e4418b6	0.19150051
99	0xbecd8261	-0.40138534
100	0xbda68274	-0.08130351
101	0x3dda56d9	0.10661096
102	0x3f13a403	0.5767214
103	0xbe6a8e70	-0.22905898
104	0x3ebf8f2b	0.37413916
105	0x3e41134f	0.18855022
106	0x3f0e3709	0.55552727
107	0x3e72ab3c	0.23698133
108	0xbee5e6fd	-0.44902793
109	0x3ea47f1c	0.32128227
110	0xbdf3353e	-0.118753895
111	0x3e8c689a	0.27423555
112	0xbeb42d39	-0.35190752
113	0x3ea31342	0.3185063
114	0xbe998f7d	-0.29992285
115	0x3f24d0fc	0.64381385
116	0xbec8c7fb	-0.39215073
117	0xbe72cdfe	-0.23711392
118	0x3ed0de65	0.40794674
119	0xbd3395b0	-0.043843925
120	0x3f086a1c	0.5328691
121	0xbe23f9ea	-0.16013303
122	0x3ec6d2e1	0.38832763
123	0x3e4a9e52	0.19786957
124	0xbedff9d3	-0.43745288
125	0x3ecd08b2	0.40045696
126	0x3ec15d83	0.37766656
127	0x3f0b95e0	0.54525566

actor_fc1.weight f4 [64, 128]
0	0x3c803169	0.01564856
1	0xbcb07cae	-0.021543827
2	0xbda51bcc	-0.080619425
3	0x3e0fe9b3	0.14053993
4	0x3cb9ed3f	0.022696136
5	0xbd813e44	-0.06310704
6	0xbc71b2f5	-0.014752139
7	0x3cc00e9a	0.023444463
8	0x3d8f348b	0.06992444
9	0xbddce340	-0.10785532
10	0xbcc17dda	-0.023619581
11	0x3da29bae	0.0793985
12	0xbbf5a436	-0.007496382
13	0x3c6db3c1	0.014508189
14	0x3d8b646f	0.068062656
15	0xbde944f3	-0.11390104
16	0x3d4eb681	0.050467018
17	0x3d6a8875	0.05725904
18	0xbce30974	-0.027714469
19	0x3ce9fe08	0.028563514
20	0xbdc87f09	-0.09789855
21	0xbda17981	-0.07884503
22	0x3daf8247	0.0856977
23	0x3de350e1	0.11099411
24	0xbc2beabc	-0.010492977
25	0xbb491e65	-0.0030688283
26	0xbd05a4b9	-0.032627795
27	0x3cb150d4	0.021644987
28	0x3cfcae14	0.030844726
29	0xbd38bf50	-0.045104325
30	0x3d3866ed	0.045020033
31	0x3e267145	0.16254146
32	0x3d8fb83c	0.07017562
33	0x3dce2f87	0.10067659
34	0x3cd0d4be	0.025492068
35	0x3cbc78f8	0.023006901
36	0x3d90dae3	0.07072999
37	0x3d1defd6	0.038558803
38	0x3d454dfb	0.04817007
39	0x3c9278db	0.017879894
40	0x3bf4a5dc	0.007466061
41	0x3de5706e	0.11203085
42	0x3d53a93e	0.051675074
43	0x3cf682fc	0.030091755
44	0xbd306ef4	-0.043074563
45	0xbd524ef8	-0.05134484
46	0xbdc6ecae	-0.09713112
47	0xbd2e7309	-0.042590175
48	0xbc1b7a09	-0.009489545
49	0xbdca7837	-0.098862104
50	0x3d90ba99	0.07066841
51	0xbc5e40de	-0.01356527
52	0x3da9fbe1	0.08299995
53	0x3d1ee4ad	0.0387923
54	0xbc6b455c	-0.014359798
55	0xbe142254	-0.1446622
56	0xbc8f5750	-0.017497689
57	0x3d5c0de8	0.0537242
58	0xbd2250b0	-0.03962773
59	0x3ce0b352	0.027429257
60	0xbbcfa57d	-0.0063368664
61	0xbd3184c8	-0.04333952
62	0x3d8689e6	0.06569271
63	0xbdb81472	-0.08988275
64	0xbd51e684	-0.051245227
65	0x3d852ca5	0.06502656
66	0x3d818b75	0.063254274
67	0x3dbbb446	0.09165244
68	0xbc79f009	-0.015254983
69	0xbd91094b	-0.070818506
70	0x3d2f86e1	0.04285324
71	0xbde5db48	-0.11223465
72	0xbc898b6e	-0.016790118
73	0x3bc0b707	0.0058811936
74	0x3d46bf49	0.048522267
75	0x3c8732f2	0.016503785
76	0xbd611040	-0.054947138
77	0xbd837336	-0.06418459
78	0x3dd1955a	0.10233565
79	0x3d9da8d6	0.076982185
80	0xbd5bb595	-0.053639967
81	0x3da8c6f9	0.08241076
82	0x3c40bbc6	0.011763519
83	0xbd96f4b3	-0.073708914
84	0xbca0d4a4	-0.019632645
85	0x3d721a96	0.059107386
86	0x3d3e4a0b	0.04645733
87	0x3d33fd5d	0.043942798
88	0xbc1ef81c	-0.009702709
89	0x3c0e1183	0.008671167
90	0x3de7c927	0.11317664
91	0xbd28be83	-0.04119731
92	0xbd7ebe20	-0.062193036
93	0xbd6d3286	-0.05790951
94	0x3d9ba404	0.07599643
95	0x3d79b6e6	0.06096544
96	0xbcd5f376	-0.026117068
97	0xbbd06856	-0.006360094
98	0x3e262623	0.16225486
99	0xbb1c4533	-0.0023844957
100	0xbdd697c6	-0.10478167
101	0x3d8cba10	0.06871426
102	0x3b7dbff3	0.0038719147
103	0x3d084ff3	0.03327937
104	0xbd86c56e	-0.065806255
105	0x3cf12e29	0.029440956
106	0x3d64ab5d	0.055827487
107	0xbdfafb71	-0.1225499
108	0xbd070c65	-0.032970805
109	0xbc914313	-0.017732179
110	0x3d603044	0.05473353
111	0xbe08c3ed	-0.1335599
112	0xbd56d573	-0.052449655
113	0x3dc044fe	0.09388159
114	0x3d7a551e	0.06111633
115	0x3d607238	0.054796427
116	0xbd15291c	-0.036416158
117	0x3cf12962	0.029438678
118	0xbd92738b	-0.07150944
119	0x3d4241b2	0.047425933
120	0x3d59e806	0.05319979
121	0x3bf7e876	0.0075655533
122	0x3d7da0d2	0.06192095
123	0x3da3cd11	0.07998098
124	0x3cc27b30	0.023740381
125	0x3cd71de3	0.026259368
126	0xbccc2a14	-0.024922408
127	0xbc5c256c	-0.013436656
128	0xbe2416fa	-0.1602439
129	0xbdbae297	-0.0912525
130	0xbc656074	-0.014000047
131	0xbd8c72fd	-0.0685787
132	0xbe13d887	-0.14438067
133	0xbd0d757c	-0.03453587
134	0xbdb1e367	-0.08685952
135	0x3a22a3e5	0.0006204232
136	0xbc778bdf	-0.015109031
137	0x3c97f5cf	0.018549828
138	0x3dfbf3ee	0.12302385
139	0x3d35aed1	0.04435617
140	0x3c52b290	0.012859955
141	0x3cf3246e	0.029680457
142	0xbd3a5d6e	-0.045499258
143	0x3de39bb7	0.111136846
144	0x3c2c1173	0.010502207
145	0x3d91f103	0.071260475
146	0x3c02ce9c	0.00798383
147	0xbc7970eb	-0.015224676
148	0x3de65ec7	0.11248546
149	0x3cf5c6a2	0.030001942
150	0xbad754d8	-0.0016428484
151	0x3c6c318b	0.014416109
152	0x3d8ca0e2	0.068666235
153	0x3d9e46ac	0.07728323
154	0xbda6cbe3	-0.08144357
155	0x3e06bc39	0.13157739
156	0xbd90780c	-0.07054147
157	0x3d041eb8	0.03225586
158	0x3d6676ad	0.05626552
159	0xbe192c71	-0.1495836
160	0x3d962dc2	0.07332946
161	0x3c85873c	0.016299836
162	0x3ddf73f9	0.10910792
163	0xbc17edf2	-0.009273039
164	0xbcb2eed0	-0.02184239
165	0x3dae9a94	0.08525577
166	0xbd545b4d	-0.051844884
167	0x3d8dd9ed	0.06926332
168	0x3d825ed0	0.0636574
169	0xbc83f4da	-0.016107965
170	0xbdfb7079	-0.12277312
171	0xbc6f7046	-0.01461417
172	0xbd360fdb	-0.044448715
173	0x3d908313	0.070562504
174	0x3ccb87c4	0.024845012
175	0xbccb2b77	-0.024801
176	0x3dbd890c	0.09254655
177	0x3da13c3d	0.07872818
178	0x3c8bf17e	0.017082926
179	0x3c9f27db	0.019428184
180	0x3cf5d206	0.030007374
181	0x3cc024aa	0.023454983
182	0xbb625d4b	-0.003454047
183	0x3d810150	0.062990785
184	0x3d91d328	0.07120353
185	0x3bf78f5e	0.0075549325
186	0xbcd58ff4	-0.026069619
187	0x3dd13eaf	0.10217034
188	0x3c96bf0a	0.018401641
189	0x3db673b3	0.089087866
190	0x3cae2024	0.02125556
191	0x3d5bc8ea	0.053658403
192	0x3dc03d5a	0.09386702
193	0xbde6de09	-0.112728186
194	0xbd389dfe	-0.045072548
195	0xbd5182c7	-0.05115011
196	0xbda89f67	-0.082335286
197	0x3d8023e5	0.06256846
198	0xbdba1cee	-0.09087549
199	0x3e01d3ad	0.12678404
200	0x3db4873e	0.08814858
201	0xbd47deba	-0.048796393
202	0xbd26371a	-0.040579893
203	0x3da56d17	0.08077448
204	0xbd9be0ae	-0.076112136
205	0xbd2db543	-0.042409193
206	0x3c90cdb6	0.017676216
207	0xbd8acc70	-0.067772746
208	0x3d9714db	0.07377025
209	0xbcc84c1b	-0.024450352
210	0x3d3df101	0.046372417
211	0x3e29bddd	0.16576333
212	0x3ce4435e	0.027864154
213	0xbdae4592	-0.08509363
214	0xbd45c8b4	-0.04828711
215	0x3c05867d	0.00814974
216	0x3a9f634b	0.0012160329
217	0xb9e1f60e	-0.0004309867
218	0xbe008905	-0.12552269
219	0x3b6a6c12	0.0035769981
220	0x3d4cb322	0.04997552
221	0x3cf6209a	0.030044843
222	0x3da1d876	0.07902615
223	0xbda8ce69	-0.082424946
224	0xbd7b0423	-0.061283242
225	0xbd87c10c	-0.06628618
226	0xbe289aaf	-0.16465257
227	0xbd5b5414	-0.05354698
228	0x3cdaa2c5	0.026688943
229	0xbd590edb	-0.052992683
230	0x3cf729e5	0.030171344
231	0x3d8e290a	0.06941421
232	0x3d8ffb10	0.07030308
233	0x3d38cb67	0.045115855
234	0xbd2041d7	-0.03912529
235	0x3dc7aafa	0.09749408
236	0xbdaf269d	-0.08552287
237	0xbbb92186	-0.0056497483
238	0xbdf11297	-0.11771124
239	0x3cfd505f	0.030922113
240	0x3deed3c8	0.11661488
241	0x3d4eefa9	0.050521526
242	0x3ba43448	0.005011115
243	0x3cedc524	0.029024668
244	0xbddc7553	-0.10764565
245	0x3d5de499	0.054173086
246	0x3e0c178f	0.13680862
247	0xbe0a9d0f	-0.13536476
248	0x3dbb7255	0.091526665
249	0x3d884a23	0.066547655
250	0x3c86157b	0.016367665
251	0x3d13f95b	0.036126476
252	0xbd55808d	-0.05212455
253	0xbd03f022	-0.03221143
254	0x3d330492	0.04370553
255	0xbcfb6024	-0.030685492

actor_fc1.bias f4 [64]
0	0x3da19c2d	0.07891116
1	0x3d90f6f5	0.07078353
2	0x3d982384	0.07428649
3	0x3d8b74a8	0.0680936
4	0xbd281db7	-0.041043963
5	0xbd95d466	-0.073159024
6	0xbc8e6348	-0.017381325
7	0xbc4d763b	-0.012540395
8	0x3d883df9	0.06652445
9	0x3c0943ab	0.00837795
10	0xbbdc0a83	-0.0067151203
11	0xbdcb0075	-0.099121965
12	0xbca89a9e	-0.02058154
13	0x3ddc1ff0	0.10748279
14	0xbca13162	-0.019676868
15	0xbd9dc241	-0.077030666
16	0x3d5d9a41	0.054102186
17	0x3d03005a	0.031982757
18	0xbb80cd82	-0.0039307484
19	0x3d85ea3b	0.065388165
20	0xbd145666	-0.03621521
21	0xbdbcfcb8	-0.0922789
22	0x3d6c927e	0.057756893
23	0xbd922e1a	-0.071376994
24	0xbd00687e	-0.03134965
25	0xbd11de12	-0.035612173
26	0x3dafb6a1	0.085797556
27	0xbc88945a	-0.016672302
28	0x3db794dc	0.089639395
29	0x3d8f1f5a	0.06988402
30	0x3d90e0e4	0.070741445
31	0x3d6f08ae	0.058357887
32	0x3dcd8cb3	0.10036602
33	0x3d975a58	0.073902786
34	0xbd9fda93	-0.078053616
35	0x3c4ce045	0.012504642
36	0xbcc53ab7	-0.024075849
37	0x3da6463e	0.081188664
38	0xbbff0ed7	-0.0077837515
39	0xbb96e156	-0.004604499
40	0x3cbee1cc	0.023301028
41	0x3d450a24	0.048105374
42	0xbcae7ad5	-0.021298805
43	0xbbcadfa8	-0.0061912127
44	0x3d667c6a	0.056270994
45	0x3c8d36f9	0.017238127
46	0xbdca7b89	-0.09886844
47	0xbb489fe1	-0.0030612873
48	0x3d15a37f	0.036532875
49	0x3d878477	0.066170625
50	0xbca2815e	-0.019837078
51	0xbcb34a2a	-0.02188595
52	0xbd76c258	-0.060243934
53	0xbd97431f	-0.07385849
54	0xbcb4203c	-0.021988027
55	0x3d8b56bb	0.06803652
56	0x3d8dabe7	0.069175534
57	0xbcdff36f	-0.027337758
58	0x3d01dc6c	0.03170435
59	0x3d0eb050	0.034836113
60	0x3d906cde	0.07052015
61	0xbd5381c7	-0.051637437
62	0x3c2d19b9	0.010565215
63	0x3d951cb2	0.07280864

actor_fc2.weight f4 [2, 64]
0	0x3e15b776	0.14620766
1	0xbdeacf48	-0.11465317
2	0xbe459486	-0.19294938
3	0x3e00c443	0.12574868
4	0xbcfb99f4	-0.030713059
5	0x3e342c30	0.17594981
6	0x3e1baa82	0.15201762
7	0x3e075442	0.13215736
8	0xbc872239	-0.01649581
9	0x3e40902b	0.18804996
10	0xbdea72ba	-0.114476636
11	0xbd1c7848	-0.038200647
12	0xbe2070e9	-0.15668072
13	0xbd3723cb	-0.04471187
14	0xbd20cc74	-0.03925748
15	0x3c905fb5	0.017623762
16	0x3d2591a5	0.0404221
17	0xbe0b1529	-0.1358229
18	0xbd5a7b21	-0.05334008
19	0x3de5d3a1	0.11222006
20	0xbd9c50e8	-0.07632619
21	0xbda027e8	-0.078201115
22	0xbe18c0e8	-0.14917338
23	0xbdc431bd	-0.09579799
24	0x3da21dbd	0.079158284
25	0x3e2241dd	0.15845437
26	0xbe1caa5f	-0.15299366
27	0xbde86f16	-0.11349313
28	0xbdf3078f	-0.11866676
29	0x3dc63ef2	0.096799746
30	0xbc27197e	-0.010198949
31	0x3da655f9	0.08121867
32	0xbe21a935	-0.15787204
33	0xbd9c5a22	-0.07634379
34	0x3e1fc8c5	0.15603931
35	0xbe04c49a	-0.12965623
36	0x3e3d7d9a	0.18504944
37	0x3d6df9e0	0.058099627
38	0xbd9849b6	-0.07435934
39	0x3c18bdd5	0.009322603
40	0xbe0d4975	-0.13797553
41	0x3ddb70d5	0.107148804
42	0x3e119762	0.14217904
43	0x3a8302cb	0.0009995339
44	0xbd8e840e	-0.06958781
45	0xbda01fc8	-0.07818562
46	0x3d4401d0	0.04785329
47	0xbcb33c79	-0.021879422
48	0xbc091094	-0.008365769
49	0xbe0e4592	-0.13893726
50	0x3dd4ebc3	0.103965305
51	0xbddee943	-0.10884335
52	0x3d8cf6ec	0.06883034
53	0xbde65da6	-0.11248331
54	0x3d294f43	0.041335355
55	0x3c744016	0.014907857
56	0xbcfe5bc1	-0.031049611
57	0x3d3e655f	0.046483394
58	0xbe09ce9f	-0.13457726
59	0xbd709e91	-0.05874497
60	0xbe073e84	-0.13207442
61	0x3c0d077b	0.0086077405
62	0x3dfbc4e8	0.12293416
63	0xbc819669	-0.015818791
64	0xbd81d8c6	-0.063401744
65	0x3dffcdd5	0.12490431
66	0x3dd950e5	0.106111325
67	0xbb76013b	-0.0037537355
68	0x3c914e3a	0.017737497
69	0xbe0a7e11	-0.13524653
70	0x3ce0f8a5	0.027462313
71	0xbe03ab86	-0.128584
72	0xbc1aca3a	-0.009447629
73	0xbddba162	-0.10724141
74	0x3d1eaf78	0.03874156
75	0xbdaa5f95	-0.08319012
76	0x3e0ecfb8	0.13946426
77	0x3d4bce7b	0.049757462
78	0x3e0ad500	0.13557816
79	0xbe248906	-0.16067895
80	0xbe3f8407	-0.18702708
81	0xbd37532e	-0.04475706
82	0x3e0defb6	0.13860974
83	0xbd0b3ce5	-0.03399362
84	0x3dba50e7	0.09097462
85	0x3d552d9f	0.05204546
86	0x3b24eff6	0.0025167442
87	0xbd1a3b4b	-0.037654202
88	0xbdeeaac5	-0.116536655
89	0xbe2ecc38	-0.17070091
90	0x3d4fe395	0.05075415
91	0x3be8f0da	0.00710879
92	0x3d7e60a5	0.062103886
93	0xbd8d7bdc	-0.0690839
94	0xbc9bd20b	-0.019021055
95	0xbdf5723e	-0.119846806
96	0x3de299d4	0.11064497
97	0x3d3c7687	0.046011474
98	0x3cf5c805	0.030002603
99	0x3e4b2a5e	0.1984038
100	0xbdcebf34	-0.10095063
101	0xbde81eb5	-0.11333982
102	0x3e004ca6	0.12529239
103	0x3d22281d	0.039589036
104	0x3d854e61	0.0650909
105	0x3ddc11e1	0.10745598
106	0x3cd7d201	0.026345255
107	0xbb9d55f2	-0.0048015052
108	0x3e3f2b8e	0.18668959
109	0x3d4ea2fa	0.050448395
110	0xbd770e50	-0.060316384
111	0x3ccb8ea0	0.024848282
112	0xbce53f29	-0.027984219
113	0xba90d3f8	-0.00110495
114	0x3dac82f3	0.08423414
115	0xbddc75e9	-0.10764677
116	0x3df3b2ca	0.11899336
117	0x3c81fed8	0.01586859
118	0xbc8a8a3a	-0.016911615
119	0x3cbdafcb	0.023155114
120	0xbc27d417	-0.010243437
121	0x3d33b195	0.043870527
122	0x3cadcc73	0.021215653
123	0x3e42c92c	0.19022053
124	0x3e188001	0.1489258
125	0xbe1d580b	-0.15365617
126	0xbdd23890	-0.10264695
127	0x3e2a5571	0.16634156

actor_fc2.bias f4 [2]
0	0xbd75983e	-0.059959643
1	0x3dbe046d	0.09278188

critic_fc1.weight f4 [64, 128]
0	0x3da8fffd	0.08251951
1	0xbcc4bc61	-0.024015607
2	0xbd68561c	-0.056722745
3	0xbd5bdee0	-0.053679347
4	0xbdba72dd	-0.0910394
5	0xbc93c62b	-0.01803883
6	0xbd8465e0	-0.064647436
7	0x3cca1a8a	0.024670858
8	0x3d28ffa5	0.041259427
9	0x3ca777b6	0.020442825
10	0xbda990f1	-0.082795985
11	0xbd992145	-0.07477049
12	0xbd19bdf6	-0.037534676
13	0xbd9d6b9b	-0.0768654
14	0xbd32f382	-0.04368926
15	0x3be6f5a4	0.0070483256
16	0xbca87409	-0.020563142
17	0xbda39f47	-0.07989364
18	0x3da6d59c	0.081462115
19	0xbd62b54f	-0.05534869
20	0x3d22a655	0.039709408
21	0xbdb2f78c	-0.08738622
22	0xbd9c1741	-0.07621623
23	0x3d33951c	0.043843374
24	0xbd4b070c	-0.049567267
25	0xbd0ad68f	-0.033896025
26	0x3cbb0ef1	0.022834273
27	0xbd971058	-0.07376164
28	0xbd6f3daa	-0.058408417
29	0xbd81bc46	-0.063347384
30	0xbb7f7338	-0.0038978588
31	0xbd2fc8ad	-0.04291599
32	0xbc896b72	-0.016774867
33	0xbd5dc96a	-0.05414716
34	0x3d9b77fe	0.07591246
35	0xbd5cbbb9	-0.053889964
36	0x3d3e59e0	0.04647243
37	0xbcaff8f4	-0.021481015
38	0xbc8df172	-0.017327044
39	0xbd0aa22f	-0.033846077
40	0x3d4e24cc	0.05032806
41	0x3d9bd5a1	0.07609106
42	0x3d525fdd	0.051360954
43	0x3d0e5e5c	0.034757957
44	0x3c986764	0.018603988
45	0xbcb5cf11	-0.022193464
46	0xbbd01b04	-0.0063508768
47	0xbc7dc37d	-0.015488503
48	0x3d485860	0.048912406
49	0x3cbbb080	0.02291131
50	0xbdc0d161	-0.09414936
51	0x3cdcfb31	0.026975246
52	0x3d8567f1	0.06513966
53	0xbcfa0eb9	-0.030524598
54	0xbd6c92de	-0.05775725
55	0x3c9a5fe0	0.018844545
56	0xbc42d84f	-0.011892392
57	0xbd1c9ff0	-0.038238466
58	0xbc4d7b65	-0.012541627
59	0x3d0c94e2	0.034321673
60	0x3cc2c6f0	0.023776501
61	0xbc296550	-0.010339096
62	0xbc320f6b	-0.010867934
63	0xbcb6f367	-0.02233286
64	0xbd754eed	-0.059889723
65	0x3d1f5fdf	0.03890979
66	0xbc66691a	-0.014063144
67	0x3d044aef	0.032298025
68	0xbd6ad49d	-0.05733167
69	0xbdbdf06c	-0.092743725
70	0x3d80a5ca	0.06281622
71	0x3dac01e4	0.08398798
72	0xbb6255d2	-0.0034536016
73	0xbd3f4dc9	-0.04670504
74	0x3d525705	0.05135252
75	0x3d90c91a	0.07069607
76	0x3c9cea98	0.019154832
77	0x3cf87ee1	0.030333938
78	0xbd77b82f	-0.060478386
79	0xbca1af0e	-0.019736793
80	0x3bbea323	0.0058177873
81	0xbdadbd62	-0.084833875
82	0x3c2fb0cf	0.010723307
83	0xbce01036	-0.02735148
84	0x3c3c68c5	0.011499588
85	0xbd0e89cd	-0.034799386
86	0xbd87699a	-0.06611939
87	0xbd99ce02	-0.07509996
88	0xbd25e285	-0.04049923
89	0xbd0662d9	-0.032809112
90	0x3ce742f5	0.02823017
91	0xbd483a35	-0.048883636
92	0x3cacd741	0.021098735
93	0xbd08baa8	-0.033381134
94	0xbd609049	-0.0548251
95	0x3c0554a0	0.008137852
96	0x3da942bf	0.08264684
97	0x3bf67870	0.0075216815
98	0xbcf065ec	-0.029345475
99	0xbd5d9714	-0.054099157
100	0xbdab7527	-0.083719544
101	0x3da083f4	0.07837668
102	0x3b42cfe7	0.002972597
103	0x3c90c454	0.017671742
104	0x3d6a7b79	0.05724666
105	0x3be451f2	0.0069677765
106	0xbd84f3e4	-0.06491831
107	0x3d873cb3	0.06603374
108	0xbb952797	-0.0045518386
109	0x3bbbfbab	0.0057367883
110	0xbd6e810d	-0.05822854
111	0x3d2e7497	0.042591657
112	0x3d9ea6e9	0.07746679
113	0x3cb83eea	0.022490937
114	0x3d04bd1e	0.03240692
115	0xbb24aa98	-0.0025126096
116	0x3c56163c	0.0130668245
117	0xbd9e50de	-0.07730268
118	0x3c549278	0.012974374
119	0x3d1dabea	0.03849403
120	0x3c70c790	0.014696017
121	0x3cbf550b	0.023355981
122	0x3d031072	0.031998105
123	0x3d1cb864	0.038261786
124	0x3dad3c2a	0.08458741
125	0xbd8fb472	-0.07016839
126	0x3da15756	0.07877986
127	0xbd940d12	-0.072290555
128	0x3d875f7d	0.0661001
129	0xbd8329c5	-0.06404451
130	0xbd06cc93	-0.03290994
131	0x3cec38c8	0.02883567
132	0xbd8b6363	-0.06806066
133	0x3d0003cf	0.031253632
134	0xbd9d3f2b	-0.07678064
135	0x3aab6c4f	0.0013078543
136	0x3dd10b98	0.102072895
137	0xbb86e2a6	-0.004116374
138	0xbc12636e	-0.008934839
139	0x3e09d4e2	0.13460115
140	0x3ba15cc5	0.004924389
141	0x3cca4028	0.024688795
142	0x3d97db1a	0.07414837
143	0x3c49730e	0.012295498
144	0x3ac611fa	0.0015111559
145	0x3da86626	0.08222608
146	0x3e3a7d08	0.18211758
147	0x3cdfa08e	0.027298238
148	0x3d017001	0.031600956
149	0xbdc2fcee	-0.09520899
150	0x3d05d560	0.032674193
151	0x3dce5f73	0.10076799
152	0xbd6bbf5b	-0.057555538
153	0xbd0d8ecd	-0.034560014
154	0xbbae4731	-0.0053185453
155	0xbc940d24	-0.018072672
156	0x3c688428	0.014191665
157	0x3dc5de0e	0.09661494
158	0xbd6e64e9	-0.058201704
159	0x3d5cfced	0.053952146
160	0xbdc52d79	-0.09627814
161	0x3c539bc3	0.012915554
162	0xbd2962b2	-0.04135389
163	0xbd0c8913	-0.03431041
164	0x3dd61fda	0.10455294
165	0x3d28dab1	0.041224185
166	0x3d9a3ba9	0.075309105
167	0x3cd5c3be	0.026094314
168	0xbce8e0a0	-0.028427422
169	0x3d454403	0.048160564
170	0x3d883e6e	0.066525325
171	0x3e08d6a4	0.13363129
172	0x3e164fe4	0.14678913
173	0x3dac280e	0.08406077
174	0x3d833d7b	0.06408211
175	0x3dc211c7	0.09476047
176	0x3be8161f	0.007082715
177	0xbceef3ea	-0.029169042
178	0xbd393c8b	-0.045223754
179	0x3dc9c45b	0.09851905
180	0x3da883b4	0.082282454
181	0x3d6dce1c	0.05805789
182	0xbcd17005	-0.02556611
183	0xbb6001f6	-0.0034180856
184	0x3c3e0b89	0.01159943
185	0x3c5a757f	0.013333677
186	0x3de4257f	0.11139964
187	0xbdb023dc	-0.0860059
188	0xbd196906	-0.037453674
189	0x3d924542	0.07142116
190	0x3e15ba2e	0.14621803
191	0x3d5d5a85	0.054041404
192	0x3d2727d4	0.040809467
193	0x3c4ff544	0.012692753
194	0x3c111b31	0.008856581
195	0x3ce7360d	0.028224016
196	0x3ca2d64e	0.019877579
197	0x3c4c9609	0.012486943
198	0xbd91d5f8	-0.071208894
199	0xbcc03e2e	-0.02346715
200	0x3cd3c939	0.025852786
201	0x3d8d0a61	0.06886745
202	0xbd252115	-0.040314753
203	0x3de8824f	0.113529794
204	0x3dcc7e30	0.09985006
205	0xbd53a3e2	-0.051669963
206	0xbd30ea03	-0.04319192
207	0x3d283024	0.041061535
208	0x3dba964a	0.091106966
209	0x3dfc420b	0.12317284
210	0xbd50ea8f	-0.051004943
211	0x3d244a72	0.04011006
212	0x3d52d0d1	0.051468674
213	0xbd81dd5b	-0.06341048
214	0xbdc55ac4	-0.09636453
215	0x3e205df4	0.1566084
216	0x3c2e1485	0.010625009
217	0xbd1f296e	-0.03885787
218	0x3dcaf095	0.09909169
219	0xbcbbcf1f	-0.022925911
220	0x3e09eda1	0.13469554
221	0xbce21c52	-0.027601395
222	0x3ca7aec4	0.020469077
223	0xbd81da7d	-0.063405015
224	0x3dab60df	0.08368086
225	0xbcb46619	-0.02202134
226	0xbd3b4672	-0.04572148
227	0x3c0890bd	0.00833529
228	0x3e11e710	0.142483
229	0xbd46048f	-0.04834419
230	0xbc9ae547	-0.018908156
231	0x3d1a4c07	0.03767016
232	0x3d8776a1	0.066144235
233	0x3d6d0b96	0.057872377
234	0x3c438c14	0.011935253
235	0x3dc9aa4c	0.09846935
236	0x3d7e8d45	0.062146444
237	0xbd274303	-0.04083539
238	0x3ddd8f94	0.10818401
239	0xbdbd1fd9	-0.0923459
240	0x3c6fda03	0.01463938
241	0xbd3a1b47	-0.04543617
242	0x3dde9b5e	0.10869478
243	0xbd2589a3	-0.040414464
244	0x3d90fbb5	0.07079259
245	0x3c4290ef	0.011875375
246	0xbd4e3c97	-0.05035075
247	0x3ce445fb	0.0278654
248	0x3d188520	0.037236333
249	0x3e06c35a	0.13160458
250	0x3d08f079	0.033432458
251	0xbd2d7877	-0.042351212
252	0x3befbb0a	0.007315998
253	0xbda55249	-0.08072335
254	0xbd16a213	-0.03677566
255	0xbcd74e6c	-0.026282512

critic_fc1.bias f4 [64]
0	0x3d0d6b65	0.034526248
1	0xbd6a59b1	-0.057214443
2	0xbdece1d3	-0.1156651
3	0x3e1e5216	0.15461001
4	0xbd92f049	-0.07174737
5	0x3b526eec	0.0032109572
6	0x3e486611	0.19570185
7	0x3d8f60c0	0.070008755
8	0xbd72fa02	-0.059320457
9	0x3d550c34	0.05201359
10	0x3d83efef	0.06442248
11	0xbbb4f604	-0.0055224914
12	0x3da68c10	0.081321836
13	0xbd736d1d	-0.05943023
14	0xbc11a0c4	-0.008888427
15	0x3ddf8302	0.1091366
16	0xbdc07018	-0.0939638
17	0xbd94cb60	-0.07265353
18	0xbc9d561b	-0.019206097
19	0x3e318f4e	0.17339823
20	0xb978c171	-0.00023723186
21	0xbced148b	-0.02894046
22	0x3e0f2d4b	0.13982122
23	0x3e2463e1	0.16053726
24	0x3e4982f7	0.19678865
25	0x3dc8ec3b	0.098106824
26	0x3e260950	0.1621449
27	0xbbe608da	-0.007020098
28	0xbb9b599e	-0.004740908
29	0xbb92b0c5	-0.004476639
30	0x3e1d7c1f	0.1537938
31	0x3e7debba	0.24796954
32	0x3e57485a	0.21023694
33	0xbddae3ba	-0.10687967
34	0xbd81af82	-0.063323036
35	0x3d95f45e	0.07322
36	0x3d3eba43	0.04656435
37	0xbcb60174	-0.02221749
38	0x3cc255f7	0.023722632
39	0x3d683597	0.056691732
40	0x3e2338c2	0.1593962
41	0xbd8655ee	-0.065593585
42	0x3dd9f5e1	0.10642601
43	0xbcfe8469	-0.031068997
44	0xbdbbe40f	-0.09174358
45	0xbd343e39	-0.044004653
46	0xbc8c4828	-0.01712425
47	0xbd88cb2c	-0.06679377
48	0x3ce6f3ae	0.028192367
49	0x3e01c8be	0.12674233
50	0xbcc6ce65	-0.024268338
51	0x3e53dcf4	0.20689756
52	0x3e63940c	0.22224444
53	0x3c10e55d	0.008843747
54	0x3e270a40	0.16312504
55	0xbd2b0b83	-0.041759025
56	0xbdcbabaa	-0.09944852
57	0x3d719f52	0.05898983
58	0x3e26f235	0.16303332
59	0x3ddb637b	0.10712334
60	0xbd25182e	-0.040306263
61	0xbca9e189	-0.020737426
62	0xbd63aa9a	-0.05558262
63	0x3e4ae14e	0.1981251

critic_fc2.weight f4 [1, 64]
0	0xbcb5a113	-0.022171533
1	0xbd9f6a7f	-0.077839844
2	0xbdd20a9b	-0.10255929
3	0x3e5965f9	0.21230306
4	0x3b557aac	0.003257434
5	0xbe167507	-0.1469308
6	0x3e73df73	0.23815708
7	0x3e7067d8	0.23477113
8	0xbe186921	-0.14883853
9	0xbd4140ae	-0.047180824
10	0x3e81dcd9	0.25363806
11	0xbd79ab72	-0.06095452
12	0x3e651cec	0.22374314
13	0x3d95999e	0.07304691
14	0xbd8ded56	-0.06930034
15	0x3e238d2e	0.15971825
16	0x3da1bfa0	0.07897878
17	0xbe3f16f9	-0.18661107
18	0xbd8620b5	-0.06549207
19	0x3e491660	0.19637442
20	0xbda9d8ad	-0.08293281
21	0x3c302d5e	0.010753004
22	0x3e43d291	0.19123293
23	0x3e3e23ee	0.18568394
24	0x3e291225	0.16510828
25	0x3e159cf2	0.14610651
26	0x3e8f1788	0.2794764
27	0x3d3029d2	0.043008633
28	0xbe433462	-0.19062951
29	0xbc099571	-0.008397446
30	0x3e724fc2	0.23663238
31	0x3e1e1d03	0.15440755
32	0x3e8d6305	0.27614608
33	0xbe32a9ee	-0.17447636
34	0xbe6ced9e	-0.23137519
35	0xbc9f2dcd	-0.01943102
36	0xbdcca071	-0.09991539
37	0xbd263f7c	-0.040587887
38	0xbdb0dc8f	-0.08635818
39	0x3e72aec8	0.23699486
40	0x3e324ccb	0.17412107
41	0xbd6163eb	-0.05502693
42	0x3e3e1f87	0.18566714
43	0xbd8f6fc5	-0.0700374
44	0xbcbfbc8b	-0.023405334
45	0xbe030d69	-0.12798084
46	0xbac4f54d	-0.0015026719
47	0xbde16275	-0.11005107
48	0xbda4e433	-0.08051338
49	0x3e4a6a65	0.19767149
50	0xbdc8efb6	-0.09811346
51	0x3e549b57	0.20762382
52	0x3e5e05f4	0.21681958
53	0x3d5d6be4	0.05405797
54	0x3e7fa1c4	0.24964052
55	0xbe51ab9b	-0.20475619
56	0xbd85f31e	-0.065405115
57	0xbe2f7db8	-0.17137802
58	0x3e9056f9	0.28191355
59	0x3e25945c	0.16169876
60	0x3dc0abd2	0.09407772
61	0xbe19776e	-0.14986965
62	0xbc0e935e	-0.008702127
63	0x3e5d03e7	0.2158352
