reinforcement_learning/actor_critic/actor_critic_750.pth (torch, 73334 bytes, 9 tensors)

fc1.weight f4 [128, 4]
0	0xbee20dca	-0.44151145
1	0xbeda1697	-0.4259536
2	0xbf3fc517	-0.7491011
3	0xbf23b835	-0.6395295
4	0xbdf0638f	-0.11737739
5	0x3e81071a	0.2520073
6	0xbd518d8f	-0.05116039
7	0xbe76e65a	-0.2411131
8	0xbc4add59	-0.012381875
9	0xbe472124	-0.19446236
10	0xbe36de58	-0.17858255
11	0x3e791809	0.24325575
12	0x3e12f43a	0.14350978
13	0xbdc94b45	-0.0982881
14	0xbe85251f	-0.26004884
15	0xbdaf180d	-0.08549509
16	0x3e19b6b3	0.150111
17	0xbd688ba4	-0.056773797
18	0xbeb7b85d	-0.35882846
19	0xbed58919	-0.4170616
20	0xbdc604e9	-0.09668905
21	0xbba1935c	-0.0049308967
22	0xbf03fa83	-0.51554126
23	0x3ebd6f7f	0.36999127
24	0xbda7eddd	-0.08199666
25	0x3e2492cd	0.16071625
26	0xbd72a175	-0.05923601
27	0xbeacabbe	-0.3372478
28	0xbdde7436	-0.10862009
29	0xbe954185	-0.2915155
30	0xbe719220	-0.23590899
31	0xbe89496b	-0.26813826
32	0xbf1ccce0	-0.61250114
33	0xbe836b1d	-0.25667658
34	0x3e102d57	0.14079796
35	0xbd158c13	-0.03651054
36	0xbec438e5	-0.38324657
37	0x3ea5731f	0.32314393
38	0x3eee5a0e	0.4655308
39	0x3d63d056	0.055618607
40	0x3d20ba1e	0.039239995
41	0x3e77d862	0.24203637
42	0x3e704af7	0.23466097
43	0xbca9069a	-0.02063303
44	0x3f117ee6	0.56834257
45	0xbdaab0ac	-0.08334479
46	0x3f30dd71	0.6908789
47	0x3ea98f8b	0.33117327
48	0x3da83ac5	0.082143344
49	0xbf0ba507	-0.54548687
50	0xbebf979d	-0.3742036
51	0xbe3a5d1f	-0.18199585
52	0x3e7dfb5e	0.2480292
53	0xbea94b88	-0.33065438
54	0x3db1b61c	0.08677313
55	0x3de5e625	0.11225537
56	0x3e17d106	0.1482583
57	0x3ecd22ad	0.40065518
58	0xbea59dbd	-0.32346907
59	0xbefba56e	-0.4914965
60	0xbeb3ea50	-0.35139704
61	0x3ec88dd6	0.39170712
62	0x3ec9eb0b	0.39437136
63	0x3d14a7cb	0.036292832
64	0xbf18cc78	-0.59686995
65	0x3bf5ca85	0.007500949
66	0x3d67b17e	0.056565754
67	0x3e8b5948	0.27216554
68	0x3f0d1c5a	0.55121386
69	0x3ea8ff1b	0.3300713
70	0x3cf1e0c8	0.02952613
71	0x3e801388	0.250149
72	0x3f0a0abf	0.5392265
73	0x3ed49b4e	0.41524738
74	0x3ef55088	0.47913003
75	0x3e8c0146	0.27344722
76	0x3e42df54	0.19030505
77	0xbef1c00a	-0.47216827
78	0xbecac700	-0.3960495
79	0x3e9dc787	0.3081629
80	0xbe2fa159	-0.17151393
81	0x3d8239d2	0.063586846
82	0x3e31ac68	0.17350924
83	0x3e91a984	0.28449643
84	0xbe58fbf5	-0.21189864
85	0x3dc56b8e	0.09639655
86	0xbe973c6f	-0.29538295
87	0x3e91fe71	0.28514436
88	0x3e1d76e4	0.15377384
89	0xbe1a8ea8	-0.15093482
90	0xbe992a0b	-0.2991489
91	0x3d77d0b1	0.060501758
92	0xbe7b3ad8	-0.24534166
93	0xbeaba042	-0.33520705
94	0xbe4dd978	-0.20102489
95	0xbdfff9ee	-0.12498842
96	0x3ea69767	0.32537386
97	0x3e6fe90c	0.23428744
98	0x3e22bc5f	0.1589217
99	0x3eb56cda	0.3543461
100	0xbe7e222d	-0.24817725
101	0xbe6540ca	-0.22387996
102	0x3e4f1d83	0.20226102
103	0x3ede5727	0.43425867
104	0xbca34c66	-0.01993389
105	0x3dcab18b	0.09897145
106	0xbe4b8052	-0.19873169
107	0xbe348158	-0.17627466
108	0xbdb0976e	-0.08622633
109	0xbe26efac	-0.16302365
110	0xbef1a046	-0.4719259
111	0x3eff9201	0.4991608
112	0xbe630a9d	-0.22172017
113	0xbebc66f6	-0.36797303
114	0xbeab71e8	-0.3348534
115	0xbf03fb3b	-0.5155522
116	0x3eae4720	0.3403864
117	0x3e35ab3d	0.17741103
118	0x3ebff086	0.37488192
119	0xbd04286e	-0.03226512
120	0x3e98cf60	0.29845715
121	0x3df96f3f	0.12179422
122	0x3daa1245	0.08304266
123	0x3c973a7d	0.018460507
124	0x3e32fa14	0.1747821
125	0xbe2fd463	-0.17170863
126	0xbee661b8	-0.44996428
127	0xbda60088	-0.0810557
128	0x3e90b285	0.282612
129	0xbd6b0fdb	-0.057388168
130	0x3eaf0daa	0.34190112
131	0xbec03bf6	-0.37545747
132	0x3cdcc7c1	0.026950719
133	0xbf0bd721	-0.54625136
134	0xbe23191d	-0.15927549
135	0xbecb15d2	-0.39665085
136	0xbe72d51b	-0.23714106
137	0xbe41c00b	-0.18920915
138	0xbeed4b19	-0.46346357
139	0x3eb62ca6	0.3558094
140	0xbdfb57f3	-0.12272634
141	0xbdeec6a6	-0.11658983
142	0x3d040ee2	0.032240756
143	0xbe86b46f	-0.26309535
144	0xbf02f272	-0.5115119
145	0xbea3fedf	-0.3203039
146	0xbe3dcfcd	-0.18536301
147	0xbeba3fca	-0.36376792
148	0x3ed84308	0.4223864
149	0xbe55094d	-0.20804329
150	0x3f30093c	0.6876409
151	0x3d4a99ae	0.049462967
152	0x3e47f96c	0.1952874
153	0x3e81d80e	0.2536015
154	0x3e90cdf0	0.28282118
155	0x3ec77d3b	0.3896273
156	0x3d4a5323	0.04939569
157	0xbea228bf	-0.31671712
158	0x3e4c7cbd	0.19969459
159	0xbe0848fd	-0.13309093
160	0xbeafb58b	-0.34318194
161	0x3e7a9983	0.24472623
162	0x3ee2e411	0.44314626
163	0xbda526b8	-0.08064026
164	0x3e4e3d18	0.20140493
165	0xbe4a022f	-0.19727395
166	0xbecc0b4e	-0.39852375
167	0x3d082adb	0.033243995
168	0x3eb31b05	0.34981552
169	0x3d86f75c	0.06590149
170	0xbec1a6e0	-0.37822628
171	0xbed4bc1d	-0.4154977
172	0xbe2fd7ae	-0.17172119
173	0xbe9c5627	-0.3053448
174	0xbee9edd9	-0.45689276
175	0x3e185363	0.1487556
176	0x3e9d1984	0.3068353
177	0xbcbe5d8f	-0.023237972
178	0x3f2518b4	0.6449082
179	0xbe1651a8	-0.14679587
180	0x3e857578	0.26066184
181	0x3e6153c8	0.22004616
182	0x3f1e9868	0.61951303
183	0x3ecd621c	0.40113914
184	0x3ef064d0	0.46951914
185	0xbed80454	-0.42190802
186	0x3f28489c	0.65735793
187	0x3e4bc963	0.19901042
188	0xbeccad2c	-0.3997587
189	0xbef753da	-0.4830616
190	0xbe72ceb6	-0.23711666
191	0x3d305adf	0.04305541
192	0x3e5f1366	0.21784744
193	0xbdf8d324	-0.12149647
194	0xbf06890c	-0.52552867
195	0x3eb25984	0.3483392
196	0xbe8dfbe4	-0.2773124
197	0x3e8536bb	0.2601832
198	0xbb0c1a65	-0.0021378037
199	0x3e9dc754	0.30816138
200	0xbe3c682b	-0.18399112
201	0xbe579764	-0.21053845
202	0x3ce56d81	0.028006317
203	0xbdab37aa	-0.083602265
204	0x3e73cb23	0.2380796
205	0xbe8a74ef	-0.27042338
206	0x3caa90b6	0.020820957
207	0x3ee25e22	0.44212443
208	0x3ea05f95	0.31322923
209	0x3e8b6623	0.27226362
210	0x3e79607b	0.2435321
211	0xbeeef160	-0.4666853
212	0x3e2f549c	0.1712212
213	0x3e91d5bd	0.28483382
214	0xbe261b8d	-0.16221447
215	0xbe801d7c	-0.25022495
216	0xbf185012	-0.5949718
217	0xbd678af3	-0.056528997
218	0x3e5ff0c2	0.21869186
219	0x3e814511	0.25248006
220	0x3e882011	0.26586965
221	0x3d1c5b61	0.038173083
222	0x3e925776	0.28582352
223	0x3ecc2248	0.39869905
224	0x3e90d5b4	0.28288043
225	0xbe6614cf	-0.22468875
226	0xbe88bf73	-0.26708564
227	0x3e5b4282	0.2141209
228	0x3e4e7feb	0.20165984
229	0xbe48f54b	-0.19624822
230	0xbe25761d	-0.16158338
231	0xbcce108e	-0.025154378
232	0xbf1b109d	-0.60572225
233	0xbd1999ea	-0.0375003
234	0xbe0b16d8	-0.13582933
235	0xbe6d303c	-0.23162931
236	0x3b9255c1	0.004465789
237	0xbea9b764	-0.33147728
238	0x3ee01570	0.43766356
239	0x3e251ab1	0.16123463
240	0xbec1fc08	-0.37887597
241	0xbee46e86	-0.44615573
242	0xbe8f440d	-0.27981606
243	0x3d68a00c	0.056793258
244	0x3d8f97bb	0.07011362
245	0xbec6f5e8	-0.38859487
246	0x3e9cd8fe	0.30634302
247	0xbd78949d	-0.060688604
248	0x3ea84a31	0.32869104
249	0x3e13ed41	0.14445974
250	0x3eb4782c	0.35247934
251	0x3e3baeaa	0.18328348
252	0x3ecea6d4	0.40361655
253	0xbe13530c	-0.14387149
254	0x3efd0e0a	0.49424773
255	0x3f03163a	0.5120579

fc1.bias f4 [128]
0	0xbe29fa5a	-0.16599408
1	0x3e6adc66	0.22935638
2	0x3d8acb5a	0.067770675
3	0x3e64ebf8	0.2235564
4	0x3ede2d28	0.43393826
5	0x3e96fb6e	0.294887
6	0x3e3750f5	0.17901976
7	0x3f32c8ed	0.6983784
8	0xbe8603fe	-0.2617492
9	0x3efc029d	0.49220744
10	0x3ebb8c17	0.36630318
11	0xbe884592	-0.26615578
12	0xbeb14eb8	-0.3463037
13	0xbdc3eed0	-0.09567034
14	0x3d15f7e1	0.03661335
15	0x3e667b06	0.22507867
16	0xbe99baab	-0.3002523
17	0xbe6692d8	-0.22516954
18	0xbe7750dd	-0.2415194
19	0x3ec886ba	0.39165288
20	0x3ec6d908	0.38837457
21	0x3ed3b0ad	0.4134573
22	0xbdd76b0c	-0.105184644
23	0xbda8a335	-0.08234254
24	0x3f255e2b	0.64596814
25	0x3f116558	0.56795263
26	0x3eb59786	0.35467166
27	0x3eddd0cc	0.43323362
28	0x3da22771	0.07917679
29	0x3eb8b0be	0.36072344
30	0x3ea6dbca	0.3258956
31	0x3e74000c	0.23828143
32	0x3f14e93b	0.5816838
33	0xbe782595	-0.24233086
34	0x3e489c62	0.19590905
35	0x3efaad58	0.48960376
36	0xbea6f74c	-0.32610548
37	0xbd6bb5fb	-0.057546597
38	0xbead475d	-0.33843508
39	0x3ed26d58	0.41099048
40	0x3ebbb0aa	0.3665822
41	0x3e475ba0	0.19468546
42	0xbca78cfc	-0.020452969
43	0xbea9a185	-0.33131042
44	0xbe60af15	-0.21941788
45	0xbe006da3	-0.12541823
46	0xbe8d0ed7	-0.27550384
47	0x3db132c0	0.08652258
48	0xbe250fbe	-0.16119286
49	0x3e916d87	0.28403875
50	0x3e586be5	0.21134908
51	0xbd95d545	-0.073160686
52	0xbea003f4	-0.31253016
53	0xbe9ab156	-0.30213422
54	0xbdccf770	-0.100081325
55	0x3f201551	0.62532526
56	0x3f081fbe	0.53173435
57	0x3eb9e39a	0.3630646
58	0xbe307ba3	-0.17234664
59	0x3ecf3891	0.40472844
60	0xbe0d5818	-0.13803136
61	0x3e5d69dd	0.21622415
62	0xbe878f29	-0.2647641
63	0xbd83ca24	-0.0643504
64	0xbe88ec24	-0.2674266
65	0x3e8984d1	0.26859143
66	0x3e88a488	0.26688027
67	0x3e1e8693	0.15481023
68	0xbdd7f5fd	-0.105449654
69	0x3ef294c3	0.4737912
70	0x3ee76e2c	0.45201242
71	0xbe700c6e	-0.23442242
72	0x3ec41970	0.38300657
73	0xbe8c6ac2	-0.274252
74	0x3ed692a0	0.4190874
75	0xbebacf8e	-0.36486477
76	0x3d43b322	0.047778256
77	0x3f2ef821	0.68347365
78	0x3f065b7a	0.5248333
79	0x3f320024	0.69531465
80	0x3eba3215	0.36366335
81	0xbd9dda7c	-0.07707688
82	0x3d8c0785	0.06837372
83	0x3e5889b0	0.21146274
84	0xbcabaa5e	-0.02095526
85	0x3e80efa8	0.25182843
86	0x3f0d6c13	0.55243033
87	0xbe909f8c	-0.28246725
88	0x3f0dd445	0.5540202
89	0x3f1c7419	0.6111465
90	0xbe85b4d1	-0.26114514
91	0xbe8bc919	-0.27301863
92	0xbea0c7cb	-0.3140243
93	0xbe3ed020	-0.18634081
94	0x3f2d846f	0.677802
95	0x3ef58972	0.47956425
96	0xbdbf06e0	-0.09327483
97	0x3e928178	0.28614402
98	0x3e40dd9b	0.18834536
99	0xbeca2e8e	-0.39488643
100	0xbdd9a3db	-0.10626956
101	0x3dd12b41	0.10213328
102	0x3f15c940	0.5851021
103	0xbe6449d4	-0.22293788
104	0x3ec0baf1	0.37642625
105	0x3e3fb9d6	0.18723235
106	0x3f0faaba	0.56119883
107	0x3e772af1	0.24137475
108	0xbede5233	-0.43422088
109	0x3ea55df7	0.32298252
110	0xbde5e829	-0.11225922
111	0x3e8c96e3	0.27458867
112	0xbece8a9d	-0.4034013
113	0x3ea3b909	0.31977108
114	0xbe920924	-0.285226
115	0x3f252b3c	0.64519095
116	0xbed72998	-0.4202392
117	0xbe677275	-0.22602256
118	0x3ed135b5	0.40861288
119	0xbd7cb852	-0.06169922
120	0x3f08664d	0.532811
121	0xbe2c55e7	-0.16829644
122	0x3ec82d00	0.39096832
123	0x3e4e52de	0.20148799
124	0xbee15240	-0.44008064
125	0x3eced64d	0.40397874
126	0x3ec2c3e9	0.38040093
127	0x3f0b710a	0.5446936

actor_fc1.weight f4 [64, 128]
0	0x3cf0e3c9	0.029405491
1	0xbc1e097a	-0.009645814
2	0xbda304bd	-0.07959888
3	0x3e23ad99	0.15984191
4	0x3d2c8ce7	0.042126562
5	0xbd80219d	-0.06256411
6	0x39a7cee4	0.00032006868
7	0x3d114411	0.035465304
8	0x3d9ed7c2	0.07755996
9	0xbdd9d18c	-0.10635671
10	0xbc86db42	-0.016461972
11	0x3dc41024	0.09573391
12	0xbb9e643b	-0.0048337257
13	0x3c799a2f	0.015234514
14	0x3dab5c0b	0.08367165
15	0xbdef04a0	-0.11670804
16	0x3d66cf86	0.056350254
17	0x3d8d7694	0.069073826
18	0xbc8fcdb4	-0.017554142
19	0x3d05b18a	0.032640018
20	0xbdccac3a	-0.09993787
21	0xbd9daa81	-0.07698537
22	0x3d9f3cdd	0.077752806
23	0x3df55948	0.1197992
24	0xbbb9d0ef	-0.005670659
25	0xbae56c30	-0.0017503556
26	0xbc96196c	-0.018322669
27	0x3cb42e91	0.02199486
28	0x3d4115f1	0.047140066
29	0xbd18b68b	-0.03728346
30	0x3d5d8393	0.054080557
31	0x3e3cdf07	0.18444453
32	0x3dacf409	0.084449835
33	0x3dd7a5a6	0.10529642
34	0x3cff252f	0.03114566
35	0x3d0c3f77	0.034240212
36	0x3da40a0d	0.080097295
37	0x3d6d704e	0.05796843
38	0x3d704df3	0.05866809
39	0x3ce206f5	0.027591208
40	0x3c3c1a56	0.011480888
41	0x3e045980	0.12924767
42	0x3d93796e	0.07200895
43	0x3cf983bc	0.030458324
44	0xbc9bd3ab	-0.01902183
45	0xbd40254a	-0.04691056
46	0xbdad5bbe	-0.08464764
47	0xbd0cd528	-0.03438297
48	0xbc04555b	-0.008076991
49	0xbdd1f02b	-0.102508865
50	0x3da650fc	0.08120915
51	0xbc69a7eb	-0.014261226
52	0x3dcebe9f	0.10094952
53	0x3d6a3e4c	0.057188317
54	0xbc05b279	-0.008160227
55	0xbe113c17	-0.14183079
56	0xbc1006e9	-0.00879071
57	0x3d8ab724	0.067732126
58	0xbcdf1e67	-0.027236177
59	0x3ce5c1c2	0.028046492
60	0x39b5b33f	0.0003465656
61	0xbd17ad5e	-0.03703057
62	0x3da2937a	0.07938285
63	0xbdaabbb4	-0.08336583
64	0xbcf5264b	-0.029925486
65	0x3db36ca9	0.0876096
66	0x3dad4311	0.084600575
67	0x3dd4840a	0.10376747
68	0xbbd23c67	-0.006415892
69	0xbd820e05	-0.0635033
70	0x3d65f992	0.056146212
71	0xbdea72c6	-0.114476725
72	0xbc4e49eb	-0.012590866
73	0x3c3a9965	0.011389111
74	0x3d6102f5	0.05493446
75	0x3cfc3ab1	0.030789705
76	0xbd2646d0	-0.040594876
77	0xbd6b858c	-0.057500407
78	0x3dee4dac	0.116359085
79	0x3db13a4c	0.08653697
80	0xbd416068	-0.04721108
81	0x3dcc38fa	0.09971805
82	0x3bbd0fcf	0.005769707
83	0xbd932471	-0.07184685
84	0xbca36708	-0.01994659
85	0x3d99f0e5	0.0751665
86	0x3d662ede	0.05619704
87	0x3d66500c	0.056228682
88	0x3bcdc428	0.006279487
89	0x3caacf91	0.020850929
90	0x3dfa9820	0.12236047
91	0xbcaf9a8e	-0.021436002
92	0xbd499fd6	-0.049224697
93	0xbd74145b	-0.059589725
94	0x3dadc7be	0.084853634
95	0x3d8ff8a0	0.07029843
96	0xbcb1295f	-0.021626173
97	0x3c04925d	0.008091536
98	0x3e3831ff	0.17987822
99	0x3acc24bd	0.0015574914
100	0xbdce2e71	-0.10067452
101	0x3d9fa762	0.077955976
102	0x3c7052d7	0.014668188
103	0x3d0765f7	0.033056226
104	0xbd71fee3	-0.05908097
105	0x3d23c2a4	0.039980546
106	0x3d90aa29	0.070637055
107	0xbdf2534e	-0.11832295
108	0xbce3c868	-0.027805522
109	0xbc80f79b	-0.015743067
110	0x3dbd8fc3	0.09255936
111	0xbe0ef0d2	-0.13959053
112	0xbd29bc8c	-0.041439578
113	0x3ddc3bf8	0.10753626
114	0x3da58663	0.08082273
115	0x3d868fb8	0.06570381
116	0xbc81ce3c	-0.01584541
117	0x3d05db8f	0.03268009
118	0xbd949b80	-0.07256222
119	0x3d900bad	0.07033477
120	0x3d7ca3a2	0.06167949
121	0x3c225355	0.009907563
122	0x3d9d4c8d	0.076806165
123	0x3dbe6dc8	0.09298283
124	0x3cc28f42	0.023749951
125	0x3d3985cb	0.04529361
126	0xbc8ff271	-0.01757166
127	0xbb58c33b	-0.003307535
128	0xbe316690	-0.1732428
129	0xbdceae0d	-0.10091791
130	0xbc68e975	-0.014215817
131	0xbdb24fb9	-0.08706612
132	0xbe294b98	-0.16532743
133	0xbd04e7cf	-0.032447632
134	0xbdd15bc1	-0.10222579
135	0xbc156fad	-0.009120864
136	0xbcb884bb	-0.022524228
137	0x3cb136e1	0.021632614
138	0x3df4f76e	0.11961256
139	0x3ce0b8d9	0.027431892
140	0x3c266571	0.010156021
141	0x3ce60b73	0.028081631
142	0xbd7d23f2	-0.06180186
143	0x3df40e21	0.119167574
144	0x3bad5fe5	0.0052909725
145	0x3d754a13	0.059885096
146	0xbac2fc58	-0.001487623
147	0xbc96b1d3	-0.01839534
148	0x3df1d1ff	0.11807632
149	0x3d020e8c	0.031752154
150	0x3b9a86f0	0.004715793
151	0x3bb94c9c	0.0056548845
152	0x3d8967cf	0.06709253
153	0x3d9ffdac	0.07812056
154	0xbdbfe0b9	-0.09369034
155	0x3e088914	0.13333541
156	0xbdb18a92	-0.08669008
157	0x3cdddbf6	0.027082425
158	0x3d4bbf23	0.04974283
159	0xbe2f1349	-0.170972
160	0x3d7846f9	0.06061456
161	0x3c3dff71	0.0115965465
162	0x3dd66d01	0.104700096
163	0xbc91ba28	-0.017788962
164	0xbcfdec86	-0.030996572
165	0x3d85a479	0.06525511
166	0xbd7eff0a	-0.062254943
167	0x3d7befe8	0.06150809
168	0x3d82c4e3	0.063852094
169	0xbd062c4b	-0.032757085
170	0xbe13ab32	-0.14420775
171	0xbc721374	-0.014775146
172	0xbd8d7a1f	-0.069080584
173	0x3d899a86	0.06718926
174	0x3c386ba7	0.011256135
175	0xbd05df97	-0.032683935
176	0x3dba4304	0.090948135
177	0x3db11de3	0.086482786
178	0x3c03aa89	0.008036264
179	0x3ca40751	0.02002302
180	0x3c36d956	0.011160215
181	0x3bdce5ea	0.006741275
182	0xbc0ff30f	-0.008785977
183	0x3d81afbc	0.06332347
184	0x3d8495ee	0.06473909
185	0xbb911066	-0.0044270037
186	0xbd19a422	-0.037510045
187	0x3dd3e1d8	0.10345811
188	0x3c4283f7	0.011872283
189	0x3dab2353	0.08356347
190	0x3bf2df04	0.0074118394
191	0x3d418e09	0.047254596
192	0x3d99d45a	0.07511206
193	0xbe0c032c	-0.13673085
194	0xbd879cba	-0.0662169
195	0xbd821ab0	-0.063527465
196	0xbdc0c6e7	-0.094129376
197	0x3d71514b	0.058915418
198	0xbdd124ad	-0.102120735
199	0x3e04d076	0.12970147
200	0x3db572c9	0.08859784
201	0xbd5d3ba0	-0.05401194
202	0xbd30800c	-0.043090865
203	0x3d898451	0.067146905
204	0xbdb7ec71	-0.089806445
205	0xbd3d8fe5	-0.046279807
206	0x3bb8d62b	0.005640765
207	0xbd98b496	-0.07456319
208	0x3d8dad44	0.069178134
209	0xbd29ec7c	-0.041485295
210	0x3d5d0c0c	0.053966567
211	0x3e2a9bd8	0.16661012
212	0x3ce6de24	0.028182097
213	0xbdce51c1	-0.10074187
214	0xbd622d24	-0.05521883
215	0xbb6af49c	-0.0035851365
216	0xbc5b4b1d	-0.013384608
217	0xbc294de9	-0.010333517
218	0xbe09c5ff	-0.13454436
219	0xbc8d7c6b	-0.017271241
220	0x3d191df3	0.037382077
221	0x3d021f31	0.031768028
222	0x3d977852	0.07395996
223	0xbdb761dc	-0.08954212
224	0xbd889700	-0.06669426
225	0xbda44453	-0.08020844
226	0xbe3ae8a5	-0.1825281
227	0xbd6a9c36	-0.05727788
228	0x3cc7d864	0.024395175
229	0xbd7c6548	-0.061620027
230	0x3caf6d22	0.021414343
231	0x3d8e5a79	0.0695085
232	0x3d89db6f	0.06731307
233	0x3d16f6e7	0.03685656
234	0xbd553827	-0.052055504
235	0x3dc3f073	0.095673464
236	0xbdb97def	-0.09057223
237	0xbb3b7681	-0.002860457
238	0xbe1e6573	-0.15468387
239	0x3d28ce9b	0.04121266
240	0x3dd8f7a8	0.10594112
241	0x3d2341a6	0.03985753
242	0xbc5d53c0	-0.013508737
243	0x3cb00cf0	0.021490544
244	0xbe02ef1b	-0.12786524
245	0x3d52975a	0.05141387
246	0x3e11d686	0.1424199
247	0xbe24aeb1	-0.16082264
248	0x3db0838f	0.08618843
249	0x3d8674c2	0.065652385
250	0x3b180d97	0.002320146
251	0x3cc81c45	0.024427542
252	0xbd55dfe3	-0.05221547
253	0xbd505911	-0.05086619
254	0x3d24f881	0.040276054
255	0xbd1ec88e	-0.038765483

actor_fc1.bias f4 [64]
0	0x3db43aff	0.08800315
1	0x3d84e63f	0.064892285
2	0x3d8695db	0.065715514
3	0x3da1f846	0.079086825
4	0xbd281db7	-0.041043963
5	0xbd88df0e	-0.06683169
6	0xbc096c09	-0.008387574
7	0xbbc1eab6	-0.0059178723
8	0x3d881bbe	0.066459164
9	0x3c75bccb	0.014998625
10	0xbbdc0a83	-0.0067151203
11	0xbdcb0075	-0.099121965
12	0xbcd54b6f	-0.026036946
13	0x3dcd88a1	0.100358255
14	0xbcde0a16	-0.027104419
15	0xbd8eb7f6	-0.069686815
16	0x3d7c2e67	0.06156769
17	0x3cbd9aeb	0.02314516
18	0xbc3cf61e	-0.011533288
19	0x3d9472dd	0.07248471
20	0xbd146a19	-0.036233995
21	0xbdbcfcb8	-0.0922789
22	0x3d461fc9	0.048370156
23	0xbd97e51e	-0.074167475
24	0xbd00687e	-0.03134965
25	0xbcd9ce29	-0.026587563
26	0x3da2c229	0.07947189
27	0xbc88945a	-0.016672302
28	0x3da7739f	0.0817635
29	0x3da39693	0.07987704
30	0x3d90e0e4	0.070741445
31	0x3d88158f	0.06644737
32	0x3dc0eb59	0.09419889
33	0x3d8716a2	0.06596114
34	0xbd8f6c69	-0.070030995
35	0x3bdbd1b4	0.006708348
36	0xbc84572f	-0.016154854
37	0x3db78bcb	0.0896221
38	0xbc5c2f25	-0.0134389745
39	0xbb96e156	-0.004604499
40	0x3c7742d0	0.015091613
41	0x3d450a24	0.048105374
42	0xbc1bf9b1	-0.00951998
43	0xbbcadfa8	-0.0061912127
44	0x3d4a82f1	0.04944128
45	0x3c8d36f9	0.017238127
46	0xbdca7b89	-0.09886844
47	0xbb489fe1	-0.0030612873
48	0x3d15a37f	0.036532875
49	0x3d6e0cb7	0.058117595
50	0xbca281f4	-0.019837357
51	0xbcb34a2a	-0.02188595
52	0xbd76c258	-0.060243934
53	0xbd97431f	-0.07385849
54	0xbcb4203c	-0.021988027
55	0x3d8b56b4	0.06803647
56	0x3d8d8295	0.06909672
57	0xbcdff36f	-0.027337758
58	0x3cc6d704	0.02427245
59	0x3ce98460	0.028505504
60	0x3d829804	0.06376651
61	0xbd35c75b	-0.044379573
62	0x3c8ebf95	0.017425338
63	0x3d89044f	0.06690275

actor_fc2.weight f4 [2, 64]
0	0x3e2f149e	0.17097709
1	0xbe036731	-0.12832333
2	0xbe527c65	-0.20555265
3	0x3e1b5f8c	0.15173167
4	0xbcfb99f4	-0.030713059
5	0x3e486a52	0.19571808
6	0x3e34990e	0.1763651
7	0x3e1de7d1	0.15420462
8	0xbc86bafe	-0.016446587
9	0x3e55a8f7	0.20865236
10	0xbdea72ba	-0.114476636
11	0xbd1c7848	-0.038200647
12	0xbe2bb8fb	-0.16769783
13	0xbd397b4d	-0.045283604
14	0xbd50d500	-0.050984383
15	0x3d1822fc	0.03714274
16	0x3d817943	0.06321957
17	0xbe1400a6	-0.14453372
18	0xbd844d5b	-0.06460067
19	0x3e08eaee	0.13370869
20	0xbd9c50ff	-0.07632636
21	0xbda027e8	-0.078201115
22	0xbe15c5be	-0.14626214
23	0xbda5ad06	-0.08089642
24	0x3da21dbd	0.079158284
25	0x3e3987a0	0.18118143
26	0xbe2500fe	-0.1611366
27	0xbde86f16	-0.11349313
28	0xbe08917c	-0.13336748
29	0x3ded95ef	0.11600863
30	0xbc27197e	-0.010198949
31	0x3dd960c7	0.10614162
32	0xbe28644f	-0.16444515
33	0xbdb137d7	-0.08653229
34	0x3e34bac3	0.17649369
35	0xbe0f1272	-0.1397188
36	0x3e542d0c	0.20720309
37	0x3da3870e	0.07984744
38	0xbda64949	-0.08119447
39	0x3c18bdd5	0.009322603
40	0xbe1a4d46	-0.1506854
41	0x3ddb70d5	0.107148804
42	0x3e2c6998	0.16837156
43	0x3a8302cb	0.0009995339
44	0xbda7dea7	-0.081967644
45	0xbda01fc8	-0.07818562
46	0x3d4401d0	0.04785329
47	0xbcb33c79	-0.021879422
48	0xbc091094	-0.008365769
49	0xbe1aff20	-0.15136385
50	0x3dd4ec25	0.103966035
51	0xbddee943	-0.10884335
52	0x3d8cf6ec	0.06883034
53	0xbde65da6	-0.11248331
54	0x3d294f43	0.041335355
55	0x3c744081	0.014907957
56	0xbcfe0129	-0.031006413
57	0x3d3e655f	0.046483394
58	0xbe154281	-0.1457615
59	0xbd9365f8	-0.07197183
60	0xbe133940	-0.14377308
61	0x3cf66cdd	0.030081207
62	0x3e16257e	0.1466274
63	0xbcbd336e	-0.023095813
64	0xbdb4932e	-0.08817135
65	0x3e0de676	0.13857445
66	0x3df320a5	0.11871461
67	0xbcf39a70	-0.029736727
68	0x3c914e3a	0.017737497
69	0xbe1ebc34	-0.15501481
70	0x3b4c2336	0.0031148917
71	0xbe1a3f15	-0.15063126
72	0xbc1b98ac	-0.009496849
73	0xbe02e97c	-0.1278438
74	0x3d1eaf78	0.03874156
75	0xbdaa5f95	-0.08319012
76	0x3e1a17cb	0.15048139
77	0x3d4e2600	0.05032921
78	0x3e16d723	0.14730506
79	0xbe3885cf	-0.18019794
80	0xbe56dc43	-0.2098246
81	0xbd13a527	-0.036046173
82	0x3e1977a2	0.14987043
83	0xbd634150	-0.05548221
84	0x3dba50fe	0.09097479
85	0x3d552d9f	0.05204546
86	0xb9cecfd5	-0.0003944623
87	0xbd5744af	-0.052555736
88	0xbdeeaac5	-0.116536655
89	0xbe4611fa	-0.19342795
90	0x3d713e04	0.058897033
91	0x3be8f0da	0.00710879
92	0x3d9d4bb2	0.07680453
93	0xbdb4d2d9	-0.088292785
94	0xbc9bd20b	-0.019021055
95	0xbe143e7e	-0.14476964
96	0x3df0100a	0.11721809
97	0x3d6631e8	0.056199938
98	0x3c1c6ffa	0.009548182
99	0x3e557836	0.20846638
100	0xbdfc1e1f	-0.12310433
101	0xbe0a5464	-0.13508755
102	0x3e074c75	0.1321276
103	0x3d22281d	0.039589036
104	0x3d9f55f3	0.077800654
105	0x3ddc11e1	0.10745598
106	0x39200324	0.00015259959
107	0xbb9d55f2	-0.0048015052
108	0x3e4bd8d7	0.19906937
109	0x3d4ea2fa	0.050448395
110	0xbd770e50	-0.060316384
111	0x3ccb8ea0	0.024848282
112	0xbce53f29	-0.027984219
113	0x3c397e28	0.011321582
114	0x3dac8291	0.08423341
115	0xbddc75e9	-0.10764677
116	0x3df3b2ca	0.11899336
117	0x3c81fed8	0.01586859
118	0xbc8a8a3a	-0.016911615
119	0x3cbdaf98	0.023155019
120	0xbc288952	-0.010286646
121	0x3d33b195	0.043870527
122	0x3d04b5be	0.032399885
123	0x3e505485	0.20344742
124	0x3e247abf	0.16062449
125	0xbe33552c	-0.17512959
126	0xbe015f56	-0.12634024
127	0x3e31c90d	0.17361851

actor_fc2.bias f4 [2]
0	0xbd604f98	-0.054763407
1	0x3db36016	0.08758561

critic_fc1.weight f4 [64, 128]
0	0x3da8fffd	0.08251951
1	0xbcc4bc61	-0.024015607
2	0xbd68561c	-0.056722745
3	0xbd5bdee0	-0.053679347
4	0xbdba72dd	-0.0910394
5	0xbc93c62b	-0.01803883
6	0xbd8465e0	-0.064647436
7	0x3cca1a8a	0.024670858
8	0x3d28ffa5	0.041259427
9	0x3ca777b6	0.020442825
10	0xbda990f1	-0.082795985
11	0xbd992145	-0.07477049
12	0xbd19bdf6	-0.037534676
13	0xbd9d6b9b	-0.0768654
14	0xbd32f382	-0.04368926
15	0x3be6f5a4	0.0070483256
16	0xbca87409	-0.020563142
17	0xbda39f47	-0.07989364
18	0x3da6d59c	0.081462115
19	0xbd62b54f	-0.05534869
20	0x3d22a655	0.039709408
21	0xbdb2f78c	-0.08738622
22	0xbd9c1741	-0.07621623
23	0x3d33951c	0.043843374
24	0xbd4b070c	-0.049567267
25	0xbd0ad68f	-0.033896025
26	0x3cbb0ef1	0.022834273
27	0xbd971058	-0.07376164
28	0xbd6f3daa	-0.058408417
29	0xbd81bc46	-0.063347384
30	0xbb7f7338	-0.0038978588
31	0xbd2fc8ad	-0.04291599
32	0xbc896b72	-0.016774867
33	0xbd5dc96a	-0.05414716
34	0x3d9b77fe	0.07591246
35	0xbd5cbbb9	-0.053889964
36	0x3d3e59e0	0.04647243
37	0xbcaff8f4	-0.021481015
38	0xbc8df172	-0.017327044
39	0xbd0aa22f	-0.033846077
40	0x3d4e24cc	0.05032806
41	0x3d9bd5a1	0.07609106
42	0x3d525fdd	0.051360954
43	0x3d0e5e5c	0.034757957
44	0x3c986764	0.018603988
45	0xbcb5cf11	-0.022193464
46	0xbbd01b04	-0.0063508768
47	0xbc7dc37d	-0.015488503
48	0x3d485860	0.048912406
49	0x3cbbb080	0.02291131
50	0xbdc0d161	-0.09414936
51	0x3cdcfb31	0.026975246
52	0x3d8567f1	0.06513966
53	0xbcfa0eb9	-0.030524598
54	0xbd6c92de	-0.05775725
55	0x3c9a5fe0	0.018844545
56	0xbc42d84f	-0.011892392
57	0xbd1c9ff0	-0.038238466
58	0xbc4d7b65	-0.012541627
59	0x3d0c94e2	0.034321673
60	0x3cc2c6f0	0.023776501
61	0xbc296550	-0.010339096
62	0xbc320f6b	-0.010867934
63	0xbcb6f367	-0.02233286
64	0xbd754eed	-0.059889723
65	0x3d1f5fdf	0.03890979
66	0xbc66691a	-0.014063144
67	0x3d044aef	0.032298025
68	0xbd6ad49d	-0.05733167
69	0xbdbdf06c	-0.092743725
70	0x3d80a5ca	0.06281622
71	0x3dac01e4	0.08398798
72	0xbb6255d2	-0.0034536016
73	0xbd3f4dc9	-0.04670504
74	0x3d525705	0.05135252
75	0x3d90c91a	0.07069607
76	0x3c9cea98	0.019154832
77	0x3cf87ee1	0.030333938
78	0xbd77b82f	-0.060478386
79	0xbca1af0e	-0.019736793
80	0x3bbea323	0.0058177873
81	0xbdadbd62	-0.084833875
82	0x3c2fb0cf	0.010723307
83	0xbce01036	-0.02735148
84	0x3c3c68c5	0.011499588
85	0xbd0e89cd	-0.034799386
86	0xbd87699a	-0.06611939
87	0xbd99ce02	-0.07509996
88	0xbd25e285	-0.04049923
89	0xbd0662d9	-0.032809112
90	0x3ce742f5	0.02823017
91	0xbd483a35	-0.048883636
92	0x3cacd741	0.021098735
93	0xbd08baa8	-0.033381134
94	0xbd609049	-0.0548251
95	0x3c0554a0	0.008137852
96	0x3da942bf	0.08264684
97	0x3bf67870	0.0075216815
98	0xbcf065ec	-0.029345475
99	0xbd5d9714	-0.054099157
100	0xbdab7527	-0.083719544
101	0x3da083f4	0.07837668
102	0x3b42cfe7	0.002972597
103	0x3c90c454	0.017671742
104	0x3d6a7b79	0.05724666
105	0x3be451f2	0.0069677765
106	0xbd84f3e4	-0.06491831
107	0x3d873cb3	0.06603374
108	0xbb952797	-0.0045518386
109	0x3bbbfbab	0.0057367883
110	0xbd6e810d	-0.05822854
111	0x3d2e7497	0.042591657
112	0x3d9ea6e9	0.07746679
113	0x3cb83eea	0.022490937
114	0x3d04bd1e	0.03240692
115	0xbb24aa98	-0.0025126096
116	0x3c56163c	0.0130668245
117	0xbd9e50de	-0.07730268
118	0x3c549278	0.012974374
119	0x3d1dabea	0.03849403
120	0x3c70c790	0.014696017
121	0x3cbf550b	0.023355981
122	0x3d031072	0.031998105
123	0x3d1cb864	0.038261786
124	0x3dad3c2a	0.08458741
125	0xbd8fb472	-0.07016839
126	0x3da15756	0.07877986
127	0xbd940d12	-0.072290555
128	0x3dad783a	0.08470197
129	0xbdafc2bb	-0.08582064
130	0xbca7d890	-0.020489007
131	0x3c9255c2	0.017863158
132	0xbda9a21d	-0.08282874
133	0x3cdac130	0.026703447
134	0xbdc34ce7	-0.09536152
135	0x3af95bda	0.0019024566
136	0x3dfc3fe9	0.123168774
137	0xbc71e56b	-0.01476417
138	0xbcf0257f	-0.029314755
139	0x3e1275b1	0.14302708
140	0x3c3b73a4	0.011441145
141	0x3c997551	0.018732699
142	0x3d693407	0.056934383
143	0xbbbea484	-0.0058179516
144	0x3cc4a282	0.024003271
145	0x3d9116e0	0.07084441
146	0x3e300ae4	0.17191654
147	0x3ce47fba	0.027892936
148	0x3ccf5494	0.025308885
149	0xbdd3d3fc	-0.10343167
150	0x3c3bc24d	0.011459899
151	0x3df4e5b0	0.11957872
152	0xbd9d4267	-0.07678681
153	0xbcc70a76	-0.02429698
154	0xbcb70377	-0.02234052
155	0xbc8ed1cf	-0.017434029
156	0x3d0186f8	0.031622857
157	0x3da492f1	0.08035839
158	0xbd9a5749	-0.075361796
159	0x3d3c9eb0	0.046049774
160	0xbde21bf1	-0.11040486
161	0x3cbe6fab	0.023246607
162	0xbcce8e96	-0.025214475
163	0xbd1045b2	-0.035222717
164	0x3dfeb779	0.124373384
165	0x3d55371f	0.05205452
166	0x3db46821	0.088089235
167	0x3cfac07d	0.030609364
168	0xbd0d3594	-0.034474924
169	0x3d2c129c	0.042009935
170	0x3d5ad843	0.0534289
171	0x3e1cf921	0.1532941
172	0x3e2aeed6	0.16692671
173	0x3d9b8582	0.07593824
174	0x3d8af2c5	0.06784586
175	0x3de5fbf6	0.11229698
176	0xbc073639	-0.008252674
177	0xbd26f9e6	-0.040765665
178	0xbcda2f3e	-0.026633855
179	0x3dbc5220	0.091953516
180	0x3dab704c	0.08371028
181	0x3d78daf5	0.06075569
182	0xbb90c215	-0.0044176676
183	0xbc996df6	-0.018729191
184	0x3aa61ef6	0.0012674022
185	0x3bb3f8f0	0.005492322
186	0x3e06c38c	0.13160533
187	0xbda05ea3	-0.078305505
188	0xbc9386da	-0.018008638
189	0x3daedf43	0.085386775
190	0x3e1760f2	0.14783075
191	0x3d4a1851	0.049339596
192	0x3d32abe1	0.043620948
193	0x3c99cad7	0.01877348
194	0x3aa04e7a	0.0012230419
195	0x3d1c8e4f	0.038221654
196	0x3cdc27fe	0.026874539
197	0x3ba60f7c	0.005067764
198	0xbdb5c1ab	-0.0887483
199	0xbb150b1e	-0.0022742222
200	0x3b416e29	0.0029515123
201	0x3db7f3a3	0.08982017
202	0xbd841050	-0.06448424
203	0x3ddc7017	0.10763567
204	0x3dad66c7	0.08466869
205	0xbd64c97e	-0.05585622
206	0xbd15c198	-0.03656158
207	0x3d3856ec	0.04500477
208	0x3da30bd6	0.07961242
209	0x3ddedfc4	0.10882524
210	0xbd4ef361	-0.050525073
211	0x3ca6c024	0.020355292
212	0x3d86eaac	0.06587729
213	0xbda27857	-0.07933109
214	0xbde5f9fd	-0.11229322
215	0x3e1be023	0.1522222
216	0x3c060f64	0.00818238
217	0xbd7055c7	-0.058675554
218	0x3deeaf4c	0.11654529
219	0xbd1c3df4	-0.03814502
220	0x3e0b19a0	0.13583994
221	0xbc8747d5	-0.016513744
222	0x3bab476d	0.0052270205
223	0xbd6b0981	-0.05738211
224	0x3d95f337	0.0732178
225	0xbd391496	-0.045185648
226	0xbd010f73	-0.031508874
227	0x3cf174ce	0.029474642
228	0x3df27556	0.11838786
229	0xbd00f210	-0.03148085
230	0xbc17f0cc	-0.009273719
231	0x3d2fd5af	0.042928394
232	0x3d3a9364	0.04555072
233	0x3d70f786	0.058829807
234	0x3c389293	0.011265415
235	0x3da36e1d	0.07979987
236	0x3dab284a	0.08357294
237	0xbd6121f0	-0.054964006
238	0x3dfba8fc	0.122880906
239	0xbddefa94	-0.10887638
240	0x3c27dd79	0.010245674
241	0xbd813a61	-0.06309963
242	0x3df51643	0.11967137
243	0xbd6acd62	-0.057324775
244	0x3d8f26c4	0.06989816
245	0x3d044500	0.032292366
246	0xbd79881b	-0.060920816
247	0x3cc53e72	0.024077628
248	0x3cb6f822	0.022335116
249	0x3e05968e	0.13045713
250	0x3c99491f	0.018711625
251	0xbd6a7fed	-0.057250906
252	0x3be8d8a5	0.007105904
253	0xbd9e93b0	-0.07743013
254	0xbd3919fc	-0.045190796
255	0xbd0cf6df	-0.034415122

critic_fc1.bias f4 [64]
0	0x3d0d6b65	0.034526248
1	0xbd901703	-0.07035639
2	0xbded3487	-0.115822844
3	0x3e20d318	0.15705526
4	0xbd92f049	-0.07174737
5	0xbc880bd0	-0.016607195
6	0x3e4af29d	0.19819112
7	0x3d947268	0.07248384
8	0xbd428110	-0.047486365
9	0x3d550c34	0.05201359
10	0x3d89151a	0.06693478
11	0xbc9d82bc	-0.019227378
12	0x3dabe454	0.083931595
13	0xbd736d1d	-0.05943023
14	0xbd109a60	-0.035303473
15	0x3de40291	0.11133302
16	0xbdc07018	-0.0939638
17	0xbdb62efc	-0.0889568
18	0xbc9d561b	-0.019206097
19	0x3e3402ce	0.17579195
20	0xb978c171	-0.00023723186
21	0xbced148b	-0.02894046
22	0x3e11985a	0.14218274
23	0x3e26c9d5	0.1628793
24	0x3e4bc7d0	0.19900441
25	0x3dcd3bad	0.10021148
26	0x3e28b130	0.16473842
27	0xbbe608da	-0.007020098
28	0x3c2c2bfe	0.010508535
29	0xbb92b0c5	-0.004476639
30	0x3e200428	0.15626585
31	0x3e80111a	0.25013047
32	0x3e59e47f	0.2127857
33	0xbdc5935a	-0.09647246
34	0xbd52c30d	-0.051455546
35	0x3d95f45e	0.07322
36	0x3d3eba43	0.04656435
37	0xbcb60174	-0.02221749
38	0x3cc255f7	0.023722632
39	0x3d729b6a	0.059230246
40	0x3e259203	0.1616898
41	0xbd8655ee	-0.065593585
42	0x3ddebef3	0.108762644
43	0xbcfe8469	-0.031068997
44	0xbdbbe40f	-0.09174358
45	0xbcfd0757	-0.030887289
46	0xbc8c4828	-0.01712425
47	0xbd88cb2c	-0.06679377
48	0x3ce6f3ae	0.028192367
49	0x3e0443a3	0.12916426
50	0xbcc6ce65	-0.024268338
51	0x3e564f39	0.20928659
52	0x3e662309	0.22474302
53	0x3c10e55d	0.008843747
54	0x3e299cf2	0.16563776
55	0xbcfa4ae3	-0.030553287
56	0xbdcbabaa	-0.09944852
57	0x3d069a0f	0.032861765
58	0x3e298d84	0.1655789
59	0x3ddfd77f	0.109297745
60	0xbd25182e	-0.040306263
61	0xbd36c792	-0.04462392
62	0xbd63aa9a	-0.05558262
63	0x3e4d5e79	0.2005557

critic_fc2.weight f4 [1, 64]
0	0xbcb5a113	-0.022171533
1	0xbd94854c	-0.07251987
2	0xbdd9008b	-0.10595807
3	0x3e59bfbd	0.21264549
4	0x3b557aac	0.003257434
5	0xbe12c7b6	-0.14333996
6	0x3e74a263	0.2389007
7	0x3e70a2a3	0.23499541
8	0xbe2528ca	-0.16128841
9	0xbd4140ae	-0.047180824
10	0x3e81eebc	0.25377452
11	0xbd8873a6	-0.06662683
12	0x3e65cf43	0.22442345
13	0x3d95999e	0.07304691
14	0xbd7c4ee6	-0.06159868
15	0x3e248b2c	0.16068715
16	0x3da1bfa0	0.07897878
17	0xbe3cdef6	-0.18444428
18	0xbd8620b5	-0.06549207
19	0x3e4996ec	0.19686478
20	0xbda9d8ad	-0.08293281
21	0x3c302d5e	0.010753004
22	0x3e449db7	0.19200788
23	0x3e3ed7a9	0.18636955
24	0x3e2998bd	0.16562171
25	0x3e161cf9	0.1465949
26	0x3e8f40b0	0.2797904
27	0x3d3029d2	0.043008633
28	0xbe4f681e	-0.20254561
29	0xbc099571	-0.008397446
30	0x3e734280	0.23755836
31	0x3e1f1100	0.15533829
32	0x3e8d9fce	0.27660984
33	0xbe3dc725	-0.18532999
34	0xbe79d944	-0.24399287
35	0xbc9f2dcd	-0.01943102
36	0xbdcca071	-0.09991539
37	0xbd263f7c	-0.040587887
38	0xbdb0dc8f	-0.08635818
39	0x3e733146	0.23749265
40	0x3e32cf9f	0.17462014
41	0xbd6163eb	-0.05502693
42	0x3e3ec0b3	0.18628196
43	0xbd8f6fc5	-0.0700374
44	0xbcbfbc8b	-0.023405334
45	0xbe0f81cb	-0.14014356
46	0xbac4f54d	-0.0015026719
47	0xbde16275	-0.11005107
48	0xbda4e433	-0.08051338
49	0x3e4adefa	0.19811621
50	0xbdc8efb6	-0.09811346
51	0x3e555a1b	0.20835154
52	0x3e5f6e98	0.21819532
53	0x3d5d6be4	0.05405797
54	0x3e802fd2	0.25036484
55	0xbe5ec9b3	-0.2175663
56	0xbd85f31e	-0.065405115
57	0xbe31762a	-0.17330232
58	0x3e9089c9	0.28230122
59	0x3e25acae	0.16179153
60	0x3dc0abd2	0.09407772
61	0xbe1a02e8	-0.15040171
62	0xbc0e935e	-0.008702127
63	0x3e5d7f10	0.21630502
