reinforcement_learning/actor_critic/actor_critic_0.pth (torch, 4814 bytes, 5 tensors)

fc1.weight f4 [64, 4]
0.078909874 -0.011179626 -0.44130844 0.47115922 -0.43139163 0.22107367 0.008624769 0.22753438
0.392598 -0.2764268 0.48987296 0.4737849 0.20276581 -0.4795779 -0.15964016 0.50390095
0.43284518 -0.24621946 0.050999403 -0.09860313 -0.10889543 -0.3704126 0.06455845 -0.36931136
0.2746737 0.44041392 -0.30006352 -0.37685907 -0.4827752 0.2571228 0.1896056 0.11227429
-0.38845488 0.3885077 -0.37768757 -0.40470025 0.20486182 0.2414856 -0.2937819 -0.47358528
-0.25346443 0.39831692 -0.097875625 -0.24517006 0.18247914 0.39764535 0.27909893 0.41408938
0.24560289 -0.017249051 -0.36306155 -0.41684332 0.45973608 -0.15581031 0.1127066 -0.3960713
-0.11023958 -0.020500869 0.2601441 -0.20960307 0.29557168 -0.43989506 -0.033801295 -0.35937926
0.2325635 -0.3050113 0.14916612 -0.14502487 0.45217317 -0.34875917 0.16889265 0.36057445
0.04922167 0.3931351 0.36320573 -0.31662107 0.2741103 0.14284416 0.4248536 -0.5000882
-0.27589983 -0.4253113 0.2129059 0.17465909 0.09161568 0.46995136 -0.07697256 0.1595402
0.052607268 -0.011549737 -0.1835164 -0.42686403 -0.43672973 -0.17243111 -0.16641212 0.21716088
-0.06863012 -0.4760445 -0.06497042 0.385483 0.4732495 -0.06529224 0.4740873 -0.17329204
-0.20647246 0.46405602 -0.43907756 0.26949227 -0.115572795 0.23907915 0.08325474 -0.5030263
0.48797885 -0.4217161 -0.30592933 -0.2874949 0.46673608 -0.29040504 0.053349793 -0.2215848
0.24733996 0.05281949 -0.10343039 -0.065223634 -0.46867865 0.11705702 0.28479648 0.044496477
0.46106982 0.32159522 0.36063695 -0.3111317 0.16851932 -0.094013035 -0.1579678 0.49165004
0.23843718 -0.026827395 -0.22139269 -0.08877194 -0.3306727 0.22475788 -0.29703662 0.10927302
-0.46577337 -0.2087743 -0.3880088 0.09807514 -0.13591939 -0.342504 0.1640966 -0.117079906
0.26735878 0.45051092 0.09538659 -0.4754181 -0.08437301 -0.1422503 0.18332566 -0.39148638
-0.17986639 -0.2483727 0.3827686 0.15120037 -0.17775658 -0.10376043 -0.060150918 -0.22030874
0.19935647 -0.039713822 0.17298993 0.18979496 0.1929942 -0.3683937 -0.41171578 0.22073387
-0.24185424 -0.20210403 -0.13887548 -0.4748089 0.028985398 0.19961302 -0.14969984 -0.17200767
-0.25230724 0.10317671 -0.11671597 0.22136414 -0.16272314 0.018158391 0.46223447 0.26141924
-0.0412619 0.21453783 -0.24462008 0.29632723 -0.23221356 0.23015153 0.21125907 -0.05104828
0.29528874 -0.25773042 -0.40512758 -0.25174212 -0.22002381 -0.48970544 0.42054892 -0.041419685
-0.18291974 0.41671795 -0.2791974 0.2829228 0.50482583 0.47699258 0.51230127 -0.1477278
-0.41377702 -0.28714707 0.32156342 -0.1563584 0.10170919 -0.15700226 -0.3906529 0.41530484
-0.14681487 -0.3612362 -0.22005671 0.39999524 -0.10864354 -0.47997698 0.23890652 0.41539136
-0.2859304 0.37647742 -0.4689462 -0.40250772 0.22686744 -0.4825743 0.45688456 0.122789666
-0.14608008 0.033819508 -0.19275254 0.2929346 0.47511485 -0.4579771 -0.3030174 0.42601848
-0.29109818 0.430266 0.32216993 -0.4917125 0.21892168 -0.3345524 -0.044850476 0.088482134
00000000: 809b a13d c02a 37bc 2ef3 e1be c83b f13e
00000010: 5ddf dcbe 2361 623e e74e 0d3c c6fe 683e
00000020: 9b02 c93e d087 8dbe a1d0 fa3e ef93 f23e
00000030: d7a1 4f3e 3c8b f5be b678 23be a7ff 003f
00000040: e29d dd3e f420 7cbe c0e4 503d 70f0 c9bd
00000050: 9104 dfbd b8a6 bdbe 3837 843d 6116 bdbe
00000060: 08a2 8c3e ef7d e13e eda1 99be acf3 c0be
00000070: 502e f7be 9aa5 833e f827 423e 10f0 e53d
00000080: 8fe3 c6be 7bea c63e 4460 c1be df34 cfbe
00000090: 4cc7 513e 0048 773e 956a 96be c579 f2be
000000a0: 17c6 81be 32f0 cb3e 0473 c8bd dc0d 7bbe
000000b0: d0db 3a3e 2c98 cb3e 0ee6 8e3e 8603 d43e
000000c0: 537f 7b3e e24d 8dbc 34e3 b9be 7d6c d5be
000000d0: 8762 eb3e bd8c 1fbe b8d2 e63d dcc9 cabe
000000e0: 4ac5 e1bd 70f1 a7bc 9c31 853e 30a2 56be
000000f0: 2c55 973e ed39 e1be 3a73 0abd 8f00 b8be
00000100: 2025 6e3e 712a 9cbe 01bf 183e 6681 14be
00000110: 3e83 e73e 9090 b2be 32f2 2c3e 379d b83e
00000120: a99c 493d 0149 c93e 1af6 b93e 281c a2be
00000130: 2f58 8c3e bd45 123e 6986 d93e c805 00bf
00000140: be42 8dbe 67c2 d9be 0104 5a3e d5d9 323e
00000150: 00a1 bb3d 779d f03e caa3 9dbd 825e 233e
00000160: b87a 573d 1c3b 3dbc b9eb 3bbe ec8d dabe
00000170: 0a9b dfbe c891 30be f067 2abe 6c5f 5e3e
00000180: f38d 8cbd 1bbc f3be 360f 85bd 075e c53e
00000190: c24d f23e f0b7 85bd 92bb f23e 7873 31be
000001a0: 846d 53be c098 ed3e c6ce e0be e4fa 893e
000001b0: 6eb1 ecbd 2ad1 743e 7681 aa3d 55c6 00bf
000001c0: 5dd8 f93e 2ceb d7be c5a2 9cbe 8832 93be
000001d0: 08f8 ee3e f8af 94be 5085 5a3d 20e7 62be
000001e0: b046 7d3e 4059 583d 50d3 d3bd f893 85bd
000001f0: a6f6 efbe 97bb ef3d d8d0 913e f041 363d
00000200: 5811 ec3e 21a8 a43e 68a5 b83e a74c 9fbe
00000210: 5490 2c3e e889 c0bd 50c2 21be 8eb9 fb3e
00000220: e028 743e 20c5 dbbc c4b4 62be 10ce b5bd
00000230: ef4d a9be ee26 663e 2f15 98be 88ca df3d
00000240: d979 eebe eec8 55be 17a9 c6be 9edb c83d
00000250: 742e 0bbe af5c afbe f008 283e 97c7 efbd
00000260: 40e3 883e 5ea9 e63e 0b5a c33d 006a f3be
00000270: c2cb acbd 10aa 11be b9b9 3b3e e770 c8be
00000280: e52e 38be 6a55 7ebe 3ffa c33e 45d4 1a3e
00000290: d205 36be 5980 d4bd cf60 76bd 9d98 61be
000002a0: 1a24 4c3e f6aa 22bd 4624 313e 9c59 423e
000002b0: 46a0 453e 199e bcbe 69cc d2be 0f08 623e
000002c0: a3a8 77be 5cf4 4ebe 6035 0ebe 271a f3be
000002d0: c972 ed3c 5b67 4c3e ea4a 19be c722 30be
000002e0: 6a2e 81be 504e d33d c808 efbd 48ad 623e
000002f0: e5a0 26be e8c0 943c ffa9 ec3e bed8 853e
00000300: 3d02 29bd ceaf 5b3e b07d 7abe 34b8 973e
00000310: 64c9 6dbe d8ac 6b3e 4c54 583e 0018 51bd
00000320: 1630 973e 3ef5 83be e26c cfbe 58e4 80be
00000330: ec4d 61be acba fabe 3052 d73e b0a7 29bd
00000340: 504f 3bbe 0e5c d53e f6f2 8ebe 42db 903e
00000350: 443c 013f 5f38 f43e 2d26 033f f545 17be
00000360: 95da d3be f104 93be f6a3 a43e 6b1c 20be
00000370: e84c d03d 33c5 20be a803 c8be d6a2 d43e
00000380: a356 16be f4f3 b8be 8c56 61be 2dcc cc3e
00000390: 8180 debd 8bbf f5be e9a3 743e 2dae d43e
000003a0: 7865 92be a6c1 c03e b719 f0be 7e15 cebe
000003b0: f04f 683e fb13 f7be c6ec e93e 2679 fb3d
000003c0: 0496 15be 5386 0a3d ec60 45be 86fb 953e
000003d0: 4142 f33e f97b eabe 1925 9bbe 181f da3e
000003e0: d20a 95be d34b dc3e 75f3 a43e bec1 fbbe
000003f0: 012d 603e 744a abbe 22b5 37bd 1f36 b53d

fc1.bias f4 [64]
-0.38242602 0.29118893 0.16410048 -0.17604537 -0.45640528 0.20019074 0.41136488 -0.06490356
0.3336768 -0.24386749 0.38456023 -0.09289807 0.43677372 -0.23746684 0.32392293 0.20458068
0.30534512 0.4809404 -0.4080863 0.03994563 -0.11824032 -0.15357885 0.14027393 -0.20631754
0.43908358 -0.468664 -0.41978598 0.26295897 -0.029560085 -0.25848806 -0.28543198 -0.021455895
-0.07710244 -0.43950993 -0.49966204 0.31787756 -0.14078546 0.10118119 -0.23167305 0.23154436
0.28337473 0.0668877 0.011520826 -0.24377042 -0.17132998 -0.48695567 -0.20602536 0.014037428
0.20153551 -0.35768014 -0.4716975 -0.46720296 -0.209243 0.4320295 0.1894635 0.29647547
-0.32330406 -0.24018338 -0.34611952 0.17549634 0.28838995 -0.13959016 0.2776432 -0.18222742
00000000: 58cd c3be b716 953e f509 283e 3d45 34be
00000010: f4ad e9be cdfe 4c3e 6b9e d23e 28ec 84bd
00000020: afd7 aa3e 66b8 79be 14e5 c43e 5841 bebd
00000030: cea0 df3e 822a 73be 3ad9 a53e 997d 513e
00000040: 3256 9c3e d23d f63e b0f0 d0be 079e 233d
00000050: fb27 f2bd c643 1dbe f8a3 0f3e e844 53be
00000060: 90cf e03e baf4 efbe 30ee d6be 8fa2 863e
00000070: fe27 f2bc 8c58 84be 2424 92be 46c4 afbc
00000080: e2e7 9dbd 7207 e1be b4d3 ffbe d9c0 a23e
00000090: 102a 10be 1538 cf3d b33b 6dbe f719 6d3e
000000a0: 7e16 913e 6bfc 883d d9c1 3c3c f49e 79be
000000b0: 2071 2fbe 4152 f9be 50f8 52be 3efd 653c
000000c0: 535f 4e3e da21 b7be 5682 f1be 3a35 efbe
000000d0: cc43 56be f832 dd3e b802 423e a2cb 973e
000000e0: 1c88 a5be a2f2 75be 9436 b1be 50b5 333e
000000f0: d9a7 933e b9f0 0ebe 4027 8e3e d399 3abe

actor.weight f4 [2, 64]
0.001163274 0.015060585 -0.01217435 0.06907251 0.07249856 -0.082848065 -0.03941521 0.05254747
0.028368672 -0.10981672 0.059879776 -0.054789886 0.07162442 0.10685763 0.038158 -0.08619525
0.058436 0.035599418 -0.06984296 0.02309126 -0.05447482 0.060407285 -0.006650492 -0.12324883
-0.021528691 -0.1119619 0.06974596 -0.028197752 0.062760964 0.099775806 -0.09127411 0.10244743
-0.010310702 0.01801242 -0.12090202 0.03330482 -0.047292713 -0.07222858 -0.011485278 0.01131308
-0.024581388 0.09556695 -0.07173953 0.06967182 -0.053023364 0.029393483 -0.026002884 0.00010557963
-0.05407717 -0.049700424 0.0776895 -0.04539959 0.09110294 -0.03887386 -0.12183952 0.018505272
-0.06381809 0.00997034 -0.11723547 0.11401127 -0.107478015 -0.11213284 -0.06455329 0.004245391
0.041919693 0.07004057 0.06574655 -0.019581823 0.11890358 -0.07687976 0.01925942 -0.10700832
-0.11838331 0.0867692 -0.09386686 0.054660812 -0.09358098 -0.053996228 0.08464857 -0.093147166
0.1043665 -0.037139095 0.0036750282 -0.01724628 -0.08306055 -0.088442154 -0.021298384 0.058132797
0.025601 0.069624454 -0.12212025 -0.05200318 0.103972435 0.040058076 0.097690776 -0.11134233
-0.03918648 -0.094004616 0.030681282 0.049555387 -0.01781772 0.10280678 -0.0049111843 0.09254929
-0.08164696 -0.07376344 0.056985103 0.099337645 0.07748887 -0.036417786 -0.04619378 0.08671551
0.102626525 -0.039716437 -0.07658216 0.020951524 0.11715455 0.066930145 -0.04217903 0.064112775
0.08582527 0.06831291 -0.021144776 -0.033308934 -0.051384095 -0.06568489 -0.061398532 0.035581704
00000000: 0079 983a acc0 763c ed76 47bc e375 8d3d
00000010: 207a 943d 3fac a9bd d871 21bd 043c 573d
00000020: 6b65 e83c 97e7 e0bd 7f44 753d 5c6b 60bd
00000030: d3af 923d 2cd8 da3d 904b 1c3d 2387 b0bd
00000040: 965a 6f3d b2d0 113d d309 8fbd e229 bd3c
00000050: fd20 5fbd a16d 773d 5fec d9bb e269 fcbd
00000060: f05c b0bc 484c e5bd f8d6 8e3d f9fe e6bc
00000070: d288 803d 4257 cc3d eced babd f5cf d13d
00000080: 38ee 28bc c88e 933c 7a9b f7bd a36a 083d
00000090: 01b6 41bd 94ec 93bd bf2c 3cbc 7f5a 393c
000000a0: e85e c9bc 9bb8 c33d 2dec 92bd 19b0 8e3d
000000b0: 072f 59bd 9aca f03c 0004 d5bc a26a dd38
000000c0: 0680 5dbd ac92 4bbd ac1b 9f3d ecf4 39bd
000000d0: 2e94 ba3d 323a 1fbd 0087 f9bd 5e98 973c
000000e0: 0fb3 82bd a35a 233c 2619 f0bd be7e e93d
000000f0: 6f1d dcbd e7a5 e5bd 8434 84bd ec1c 8b3b
00000100: fcb3 2b3d 6e71 8f3d 21a6 863d 0f6a a0bc
00000110: b883 f33d 2373 9dbd eec5 9d3c 2e27 dbbd
00000120: f372 f2bd 0db4 b13d 453d c0bd 04e4 5f3d
00000130: 63a7 bfbd 262b 5dbd 3b5c ad3d f1c3 bebd
00000140: 1bbe d53d 2a1f 18bd bed8 703b 1248 8dbc
00000150: a61b aabd 2921 b5bd f379 aebc a81c 6e3d
00000160: 30b9 d13c 4497 8e3d 2e1a fabd 4901 55bd
00000170: 80ef d43d f013 243d 1a12 c83d 7307 e4bd
00000180: 0182 20bd 7e85 c0bd 5057 fb3c 97fa 4a3d
00000190: 78f6 91bc 5c8c d23d 00ee a0bb 7b8a bd3d
000001a0: 8536 a7bd 4911 97bd 3669 693d 8971 cb3d
000001b0: 7cb2 9e3d d12a 15bd b035 3dbd e797 b13d
000001c0: db2d d23d b4ad 22bd 1cd7 9cbd 88a2 ab3c
000001d0: baee ef3d ac12 893d ebc3 2cbd 8f4d 833d
000001e0: 29c5 af3d a4e7 8b3d cf37 adbc f36e 08bd
000001f0: 2178 52bd cd85 86bd 077d 7bbd 1fbe 113d

actor.bias f4 [2]
0.07520527 0.104741104
00000000: 3805 9a3d 8182 d63d

critic.weight f4 [1, 64]
-0.113240734 -0.07770412 -0.097673155 0.12428162 -0.02915147 0.053880088 0.14808686 -0.078165025
0.03578985 0.07298365 0.039784227 0.085598886 0.05619906 -0.0775961 0.13324656 -0.08741777
0.037681945 0.00044804934 -0.06760074 0.016653383 0.07798587 -0.0055314056 0.023039019 0.08886413
0.053310618 0.10730629 -0.060332164 0.1275264 0.10894218 -0.0005490184 -0.08140732 -0.0953736
0.075925045 -0.024240881 0.08243567 0.08124061 0.101268955 0.090450004 0.12921499 0.08160735
0.02212645 0.008559743 0.05958628 -0.07830891 0.016103743 -0.01900222 0.06977622 0.04535654
0.05835207 0.061281353 -0.05425091 -0.032471076 0.063472584 -0.09380548 -0.034071445 0.08280199
0.093953215 -0.092179954 -0.08138836 -0.01674451 0.110753395 -0.07535389 -0.09057101 -0.10141258
00000000: c2ea e7bd 5623 9fbd dd08 c8bd 5d87 fe3d
00000010: 10cf eebc 5eb1 5c3d 15a4 173e fc14 a0bd
00000020: 6198 123d 7478 953d c9f4 223d 784e af3d
00000030: fc30 663d b4ea 9ebd c971 083e 1608 b3bd
00000040: 6258 1a3d 2ae8 ea39 4272 8abd ad6c 883c
00000050: 0eb7 9f3d cb40 b5bb 53bc bc3c 66fe b53d
00000060: 3c5c 5a3d 66c3 db3d dc1e 77bd 4896 023e
00000070: 141d df3d 00ec 0fba e2b8 a6bd 3c53 c3bd
00000080: 977e 9b3d d094 c6bc 08d4 a83d 7a61 a63d
00000090: 1966 cf3d da3d b93d ef50 043e c121 a73d
000000a0: 8742 b53c 2a3e 0c3c be10 743d 6c60 a0bd
000000b0: ffeb 833c 8baa 9bbc d6e6 8e3d c7c7 393d
000000c0: 9502 6f3d 2802 7b3d 3436 5ebd 6400 05bd
000000d0: eafd 813d 161d c0bd 808e 0bbd 1794 a93d
000000e0: 8b6a c03d d8c8 bcbd f1ae a6bd c82b 89bc
000000f0: add2 e23d 2453 9abd 4b7d b9bd 66b1 cfbd
