reinforcement_learning/actor_critic/actor_critic_0.pth (torch, 73306 bytes, 9 tensors)

fc1.weight f4 [128, 4]
000000 76 3f 9c 3e 2c 20 8c be cd 00 00 bd ce e2 9b 3e
       0.30517167 -0.27368295 -0.031250764 0.30446476
000010 ea e1 f6 3d 24 18 b6 be 4c 7f a6 3e 88 fd f3 be
       0.120548084 -0.35565293 0.32518995 -0.47654366
000020 87 8b cf 3c f4 62 86 be 83 a5 2d be b6 bf cf 3d
       0.025335087 -0.2624737 -0.16957669 0.10143988
000030 98 de b2 be 80 98 0b bd 78 58 84 be a2 9c 99 be
       -0.3493545 -0.034080982 -0.25848746 -0.30002314
000040 62 fe 93 3d 46 11 d2 be 01 37 3a 3e 26 c7 92 3d
       0.07226254 -0.41028804 0.18185045 0.07166891
000050 ab 1d 65 3e d5 fc 0f be bd b3 13 3d a0 40 bb 3e
       0.22374599 -0.14061292 0.036060084 0.36572742
000060 4a 43 ed be 50 da 94 3e 5c 6f 8d 3e 16 ca ab 3d
       -0.463404 0.2907281 0.27624023 0.08388154
000070 a6 64 ac bd 6c 5a 69 be 7a 23 b8 be 52 7d d2 be
       -0.08417635 -0.227884 -0.35964566 -0.41111237
000080 90 99 e0 be 36 08 e4 be ce b9 96 3e 95 77 0d 3e
       -0.4386716 -0.44537514 0.29438633 0.13815148
000090 4a 7e 65 be e2 10 e1 be 68 e3 b3 3e 62 f1 ca 3e
       -0.22411457 -0.43958193 0.35134435 0.39637285
0000a0 76 52 90 3d 23 9c 5a 3e 34 f7 d6 3e c2 b5 a2 3e
       0.07046978 0.21348624 0.41985476 0.31779295
0000b0 06 77 c9 3e 16 80 8e be 30 b3 f9 3e 05 f8 8b 3c
       0.3934862 -0.27832097 0.48769522 0.017086038
0000c0 71 14 06 3e 4f 21 23 be 20 ae ee 3e dc fd 80 be
       0.13093735 -0.15930675 0.46617222 -0.2519368
0000d0 e0 bf ab bc a0 1d 41 3e 98 a5 fc be fe 27 ea 3e
       -0.020965517 0.18858957 -0.49345088 0.45733637
0000e0 c5 8f 0b 3e fe 76 c7 3e 79 32 6e 3e c2 2e e5 be
       0.13629062 0.3895797 0.23261441 -0.44762236
0000f0 60 de 4d 3d 52 a9 c1 3e 6a bd ce 3e 98 d5 2f 3e
       0.0502609 0.37824494 0.40378886 0.17171323
000100 7f 24 b8 bd b9 a1 a3 3e df 32 49 3e 84 7c bb 3e
       -0.08991336 0.31959322 0.19648312 0.36618435
000110 61 cf e2 be 22 72 da be 54 56 f6 be ef 06 c5 bd
       -0.44298843 -0.426652 -0.48112738 -0.09620463
000120 7b 8a ed be ea 45 99 3e ee 31 e8 be a7 83 03 3e
       -0.46394715 0.29936153 -0.45350593 0.1284319
000130 32 61 95 3e e0 f1 52 bd 32 9d 9d be 98 a8 2c be
       0.29175717 -0.0515002 -0.30783993 -0.16861188
000140 24 db e3 3e 06 78 ec 3e c0 98 bb 3c 08 a1 84 3d
       0.4450313 0.4618532 0.022899985 0.06476027
000150 c2 a8 ae 3e b8 90 92 be 36 58 90 3e f9 86 66 3e
       0.34113127 -0.28626037 0.281923 0.22512425
000160 75 7f 71 3e ba a8 b1 3e a4 73 b8 be 7c 27 ae 3e
       0.23583777 0.3469904 -0.36025727 0.340145
000170 56 b9 85 be 7a a9 e0 3e b1 34 7f be 84 7f bb be
       -0.26117963 0.438793 -0.24922444 -0.36620724
000180 68 34 f5 3e 4d fc 56 3c d4 2e 91 3e c4 fd c6 3e
       0.47891545 0.013121677 0.2835604 0.38865483
000190 57 17 17 be ec f2 84 be e3 68 09 3d 2a 19 ce 3e
       -0.14754997 -0.25966585 0.033547293 0.40253574
0001a0 bc d2 31 be 23 34 09 3e 0d a3 3d 3d 7c f2 c3 3e
       -0.17365545 0.13398795 0.046298075 0.38270938
0001b0 d8 07 c0 be 4e 91 90 3e 5c 85 e3 3e e0 1c fe 3c
       -0.37505984 0.2823586 0.44437683 0.031019628
0001c0 e9 e2 ed bd ba 1c fc 3e 36 21 ab 3d 45 c8 10 be
       -0.11615545 0.49240667 0.08355944 -0.14138897
0001d0 31 5d 2b bd 06 2c 9c 3e 0f 70 2b be 43 e5 06 be
       -0.04183692 0.30502337 -0.16741966 -0.13173394
0001e0 e9 ef 44 be 27 88 da bc 11 ce 19 be 9b 7d b9 3b
       -0.19232143 -0.02667625 -0.15020014 0.0056607253
0001f0 2c ca f7 3e 51 e1 51 3e 90 c3 ab 3e 5a 6a f4 3e
       0.48396432 0.20496108 0.3354764 0.4773739
000200 4f 3e 51 be 20 bc f7 be a8 88 89 be 1d d0 65 bd
       -0.20433925 -0.48385715 -0.26862073 -0.056106675
000210 7c ae 41 be 08 57 3c 3e 18 4d b5 be 48 d8 43 be
       -0.18914217 0.18392575 -0.3541038 -0.19125473
000220 a0 13 61 bd 6c 60 04 be 02 49 f8 3e 78 d1 55 be
       -0.054950356 -0.12927407 0.484932 -0.20880687
000230 2b 3b 7c 3e a2 2f e0 be e3 16 9b 3e 3a 6a a3 3e
       0.24631946 -0.4378634 0.302909 0.31916982
000240 62 0b fd 3e 44 69 af be 9b 32 a3 bb ed d9 04 3e
       0.49422747 -0.3426 -0.004980398 0.12973757
000250 34 90 69 bc b7 58 0d be ab 78 14 be 1f a4 d6 3d
       -0.014255572 -0.13803373 -0.14499156 0.10480522
000260 69 74 51 be 75 0c 64 be 7e 90 86 3e c8 84 b6 3e
       -0.20454563 -0.22270377 0.26282114 0.3564818
000270 cd 8d 36 3e ab bb 26 be 58 78 f9 3e d2 9a 97 3e
       0.1782753 -0.16282527 0.48724627 0.29610306
000280 12 ff a4 be 44 8c 96 3e eb ad 71 be 63 f5 50 3e
       -0.32225853 0.2940389 -0.236015 0.20406108
000290 aa 07 c5 be d9 63 71 3e ac 82 80 3e 60 a5 93 3e
       -0.3848241 0.23573245 0.25099695 0.2883711
0002a0 98 b5 90 be 4e e4 96 be f3 87 46 3e dd b8 38 3e
       -0.28263545 -0.29471058 0.19387798 0.1803927
0002b0 68 29 b3 be 50 5b ed be aa 07 8a 3d 39 c8 04 be
       -0.34992528 -0.46358728 0.06739743 -0.12967004
0002c0 1e a5 1f 3b ab 4a 2e 3e 9d 8d 5f 3e 9c d2 eb be
       0.0024359892 0.17020671 0.21831365 -0.4605912
0002d0 22 eb 8e be 6a a6 e1 3e b5 05 65 3e e0 c8 d4 be
       -0.27913767 0.44072276 0.22365458 -0.41559505
0002e0 21 e6 42 3e 92 3d e1 3e a1 70 43 3e 3d f6 2f bd
       0.190331 0.43992287 0.19085933 -0.04295944
0002f0 d0 4c 53 3e c0 0d 4d be 68 32 1b 3e b0 e7 03 3d
       0.2063477 -0.20024776 0.15155947 0.032203376
000300 62 5a 97 be 75 8d 3d be ef e6 93 bd 38 7d ff 3e
       -0.29561144 -0.18510993 -0.072217815 0.49900222
000310 34 55 a5 be bc 45 a0 3e 40 39 ed be a8 69 cd be
       -0.32291567 0.31303203 -0.4633274 -0.40119672
000320 b0 3f b0 be f0 82 85 3d 04 79 9b be 00 b7 03 3b
       -0.3442359 0.06519115 -0.30365765 0.002009809
000330 16 e6 fa be 72 3d f4 3e 7a fc d8 3d 98 54 f3 3e
       -0.49003667 0.4770313 0.10595031 0.47525477
000340 52 6f 8c 3e b6 e3 be be 16 dd a7 3e bc 4e ec be
       0.2742868 -0.37283105 0.32785863 -0.4615382
000350 76 a3 be 3e ea c8 f7 be 0c 4f 0e 3e 7f d5 7c 3e
       0.37234086 -0.48395473 0.13897341 0.24690817
000360 1f 24 54 3e a3 34 67 bd 0d 88 40 3d ee 71 8c be
       0.20716904 -0.056446683 0.047004748 -0.2743067
000370 58 7c fa be 2a b1 ad bd e2 75 df be 1a 80 92 be
       -0.48922992 -0.08481057 -0.43644625 -0.2861336
000380 a6 84 9d be e8 8b e1 bd 94 1e 68 be 60 6d 17 bd
       -0.30765265 -0.11013013 -0.22667915 -0.036969543
000390 f0 65 bf be 50 ce e9 3e d0 b5 d6 bd 60 8e 5f 3e
       -0.3738246 0.45665216 -0.10483897 0.21831656
0003a0 53 4a 6c be 60 9b d8 be 6d 84 2e bd f3 7f 30 3c
       -0.23075227 -0.42306042 -0.04260676 0.010772693
0003b0 b0 3f 68 be 50 c3 2c bd 22 71 a7 3e c0 0b e9 bc
       -0.22680545 -0.042178452 0.327035 -0.028447986
0003c0 b8 89 3f be 18 1c af be a0 36 f0 3e ca 8d da be
       -0.1870488 -0.3420112 0.46916676 -0.426863
0003d0 fb 90 be 3e d2 84 eb 3e dc 4c 46 be 7b bc 71 be
       0.37219986 0.4599977 -0.19365257 -0.23607056
0003e0 d1 4f 2d 3e 74 b5 ed be f1 a4 aa bd e9 84 08 be
       0.16924979 -0.464275 -0.08332241 -0.13331951
0003f0 83 f4 53 bd 3d c1 67 be e3 1f 3e 3d 60 d1 c3 3e
       -0.051746856 -0.22632308 0.04641713 0.38245678

fc1.bias f4 [128]
000000 52 d8 a5 3e d8 9c d6 3e d0 d0 84 3e 42 13 fd be
       0.32391602 0.41916537 0.2594056 -0.49428755
000010 e2 39 b7 3e b2 87 68 bc 98 37 8f 3e b2 00 ef 3e
       0.3578635 -0.0141925085 0.27972102 0.46680218
000020 c8 04 92 be 0c 21 b0 3e 07 f3 e1 bd a6 f7 9c be
       -0.28519273 0.34400213 -0.11032682 -0.3065769
000030 9e 34 89 3e f0 b0 f6 be ba f1 aa 3e 68 0f fa be
       0.26797956 -0.48181868 0.33387548 -0.4883988
000040 65 37 86 be 7e 62 86 be 5e 28 90 bd 08 78 67 be
       -0.26214138 -0.2624702 -0.070389494 -0.22604382
000050 82 fb d7 be 33 9c 03 3d f2 49 9c 3e e6 1a ca bd
       -0.42184073 0.032131385 0.30525166 -0.09868412
000060 03 be 73 bd b2 5d e0 3e 2c 4a a8 be 24 7e 5f be
       -0.05950738 0.43821484 -0.3286909 -0.21825463
000070 be 9a 9c bd 96 2d 9c 3d 3c 63 98 3e e8 e9 c7 3e
       -0.07646702 0.07625882 0.2976321 0.39045644
000080 07 ce 00 3e 2c 74 f5 be 20 51 ce be 1d c8 38 bd
       0.12578593 -0.47940195 -0.40296268 -0.045112718
000090 3c f7 81 3e 5a 17 d0 3e ea fb b0 3e 78 54 95 be
       0.25383937 0.40642816 0.34567195 -0.29166007
0000a0 02 d8 a3 3e b4 bf b6 3e 21 c7 75 3e 7c 24 fd 3e
       0.32000738 0.35693133 0.24001743 0.49441898
0000b0 e5 12 2b be fe cb db 3d a0 63 83 3e e2 be cf be
       -0.16706426 0.10732268 0.25661945 -0.4057532
0000c0 1f 2e cf bd 39 2e 68 3e 28 a7 eb be 72 32 99 3e
       -0.10116219 0.22673883 -0.46025968 0.299213
0000d0 88 5c 81 3e 22 72 fd 3e a2 31 8f 3d dd f7 4f 3e
       0.25265908 0.4950114 0.069918886 0.20309396
0000e0 b4 e8 59 be 8e 20 95 be de ec b7 3e e8 e0 89 be
       -0.21280175 -0.291264 0.35922903 -0.26929402
0000f0 52 45 cc be cd 04 32 be 0e b0 c8 3e 12 25 cd 3e
       -0.39896637 -0.17384644 0.3919682 0.40067345
000100 90 27 d5 be 0e eb 0e 3c 24 82 f1 be 5a 0e 82 3e
       -0.41631746 0.008723034 -0.47169602 0.25401574
000110 78 90 fa be a8 96 93 be 8c f7 d8 3e 06 41 b9 bd
       -0.48938346 -0.2882588 0.42376363 -0.09045605
000120 b0 bc d6 3e 00 7e 96 3e 43 ee 35 3d 76 fc eb be
       0.41940832 0.29393005 0.044416677 -0.4609105
000130 f3 d6 76 be 19 b5 3e be 84 b3 d8 be 72 6c 99 be
       -0.24105434 -0.18623771 -0.4232446 -0.2996555
000140 97 b3 19 be 4d 99 38 3d fb d3 1e 3e 18 d7 d2 be
       -0.15009914 0.045068074 0.15510552 -0.41179729
000150 02 c0 83 3d 16 47 df be b6 90 a1 be 2d 51 4f bd
       0.06433107 -0.43608922 -0.31555718 -0.050614525
000160 93 9a 36 3e e5 b7 95 3b c4 95 b5 be 82 8d e8 3e
       0.17832403 0.004569041 -0.35465825 0.45420462
000170 5d 4b 42 3e aa 1f a9 3d ac 45 9e be 8c 8d 28 be
       0.18974061 0.082579926 -0.3091253 -0.16460246
000180 f6 c0 ed 3d 69 81 77 be a1 f1 38 3e 80 16 9b be
       0.1160907 -0.2417046 0.18060924 -0.30290604
000190 83 e6 00 3e 06 74 96 3e 4a 28 bf bd 90 fd 80 3e
       0.12587933 0.29385394 -0.093338564 0.25193453
0001a0 7a 3c c2 3d e3 90 4d 3e e3 5c 39 3e 41 50 1e be
       0.09484191 0.20074801 0.1810184 -0.15460302
0001b0 14 8c 9d 3e 09 5a 1c be 40 dc b1 3e fd 6c 07 bd
       0.30770934 -0.1526872 0.3473835 -0.033062924
0001c0 70 81 fd 3e f1 0f c4 3d ac a6 af 3e fa ff 83 be
       0.49512815 0.09573353 0.34306848 -0.25781232
0001d0 07 a4 2c 3e 0d bc 7e be 2f aa 7b 3e f8 af fb 3e
       0.16859446 -0.24876423 0.24576639 0.4915769
0001e0 86 39 8c be c6 78 8e be 97 72 78 3e f4 8a ee be
       -0.27387637 -0.27826518 0.24262463 -0.46590388
0001f0 00 7f c3 3e e2 4f c7 be 4e f7 de be cb b3 1d 3e
       0.3818283 -0.38928133 -0.43548054 0.15400617

actor_fc1.weight f4 [64, 128]
000000 80 f5 41 bd bf b2 16 3d fc b7 8a 3d df 5b e5 3c
       -0.047353268 0.03679156 0.067733735 0.02799791
000010 74 04 5d 3d fc 1b 05 bd fc 8b 1f bd c5 eb e1 bc
       0.053959325 -0.03249739 -0.03895186 -0.027578244
000020 bb ef 48 3d 11 0b 1d 3d be f7 5f 3b 14 08 b7 bd
       0.04905675 0.038340632 0.0034174765 -0.08937088
000030 96 35 99 bd 34 f9 c7 3c 6b 9d b7 bc 6e e0 a8 3d
       -0.07480924 0.024410821 -0.02241393 0.082459316
000040 83 99 87 3d ff ad 6e 3d ba 87 3d 3d a7 1a 9b 3d
       0.06621077 0.058271404 0.046272017 0.07573443
000050 f1 b8 35 3d 61 66 3c 3d fb e8 0c bd f0 4c 18 bd
       0.044365827 0.045996074 -0.034401875 -0.03718275
000060 1c 41 8d bd 98 37 9f 3d 47 ce 9f 3d 52 20 9c 3d
       -0.06897184 0.077742755 0.07803016 0.07623352
000070 e3 09 6b bd 3a c1 c0 3c 92 1f 95 3c 6f 5e a1 bd
       -0.057382476 0.023529638 0.01820353 -0.0787934
000080 40 b1 a4 3d a3 0d 8a bb 16 ab 74 3d e2 d5 ba bc
       0.0804162 -0.0042130514 0.059733473 -0.022807065
000090 7b e3 a8 3d 21 50 10 bd 05 00 51 b9 a5 5b 18 bd
       0.082465135 -0.035232667 -0.000199318 -0.037196774
0000a0 72 28 32 bd ba fd 6e 3d 38 69 92 3d d1 df a0 3d
       -0.043495603 0.05834744 0.07148975 0.078551896
0000b0 9a d5 72 3d cb 06 e5 3c c5 19 a9 bd 1c 17 98 bd
       0.059285738 0.02795734 -0.08256868 -0.07426283
0000c0 a2 43 51 bd 4a df 49 bd 25 90 f7 bc 99 ec 0e 3d
       -0.05108989 -0.04928521 -0.0302201 0.034893606
0000d0 cb 94 64 bd fc 73 76 bd df b1 88 3d 60 b9 3d bd
       -0.055805963 -0.060169205 0.06674551 -0.046319366
0000e0 a2 d4 45 bd fa 7f 15 3d 61 a8 7a bc 19 53 11 bd
       -0.048298486 0.036499 -0.015298934 -0.03547964
0000f0 ea 0a 57 bc f8 07 6a 3d 12 2c b1 3d fd cb 48 bc
       -0.013125161 0.057136506 0.08650984 -0.012255666
000100 41 42 64 bd 07 68 82 3c 2e 60 84 3b 56 d4 8d bd
       -0.055727247 0.015918745 0.004039786 -0.069252655
000110 e4 15 15 3d f9 ae 00 bc d7 88 67 3d 09 c1 99 3c
       0.03639783 -0.007854217 0.056526985 0.018768804
000120 d2 d0 a4 3d d9 39 de 3c e5 55 5b bd 7c c0 92 bd
       0.08047642 0.027127193 -0.053548712 -0.0716562
000130 87 37 7c 3d 58 d4 27 bd 77 e7 b2 3d ad ce 7a bd
       0.061576393 -0.04097399 0.08735555 -0.061232258
000140 4f e9 1b bb 9f b9 e4 bc e4 be 85 3c 1d 4e 9c bd
       -0.0023790186 -0.027920542 0.016326375 -0.076320864
000150 5e be 5d bd 88 f1 9b bd 07 d6 4d bc 77 69 0a bd
       -0.054136626 -0.07614428 -0.012563235 -0.033791985
000160 7b d5 4f 3d 3f 56 a1 bb 0c e2 a2 bd 8f 47 ca 3c
       0.0507407 -0.0049236114 -0.07953271 0.024692325
000170 7f 5d 14 3d 7e 83 9c bc c1 40 6e bd 78 09 af bb
       0.036221977 -0.01910567 -0.058167223 -0.005341705
000180 7f 0d 6b bb 22 08 39 3b ea 9a e7 3c 3c 67 c2 ba
       -0.0035866199 0.0028233607 0.028272111 -0.0014831792
000190 b1 12 ec ba 44 df 17 3d 69 52 5f bd 81 e2 52 bc
       -0.0018010942 0.037078157 -0.05452195 -0.012871386
0001a0 21 91 a4 bd d0 4e 7b bd eb ee 73 3d 82 72 a0 bd
       -0.08035494 -0.06135446 0.05955402 -0.07834341
0001b0 55 3e 47 3d a2 aa ae bb 24 12 89 39 f3 ee 4e 3d
       0.04864343 -0.0053303996 0.00026144192 0.05052085
0001c0 2b a3 4c 3d a8 cb a7 bc 97 07 d9 3c 65 67 7c 3d
       0.049960297 -0.020482853 0.026492877 0.061622042
0001d0 fb 77 a3 bc dc ba be bc 8d 0c a7 3d 65 82 7c 3d
       -0.019954672 -0.02328246 0.08156691 0.06164779
0001e0 17 99 2f bd 01 2e 05 bd 4d bf af bc dc b0 88 3d
       -0.042870607 -0.032514576 -0.021453524 0.06674358
0001f0 7f 08 6e 3d f7 fb 26 3c 64 47 97 bd e1 34 de 3b
       0.05811357 0.010191909 -0.073866636 0.006781206
000200 f9 70 ab bd 1d 71 70 bd 19 b6 ac 3d 4c 31 9c 3c
       -0.08371157 -0.058701623 0.0843317 0.019066475
000210 ac 2d f9 bc 2e e7 f8 bc 99 07 12 bd 4c 48 3a bc
       -0.030417286 -0.030383673 -0.035651777 -0.011369776
000220 da 67 a0 3d c8 a9 b3 3c ba 72 83 3d 0f cd 98 3b
       0.07832308 0.021931544 0.06418367 0.0046631168
000230 27 c0 14 bd 67 c5 fb 3b 85 8e c7 3b 21 ca c9 bb
       -0.036316063 0.0076834443 0.0060899877 -0.006158129
000240 e1 50 7e bd 7f 69 4f 3d 04 a8 cc 3b ec 8a 18 bd
       -0.06208885 0.05063772 0.006245615 -0.03724186
000250 50 e5 5b bd a3 35 62 bd 47 37 ac 3d 37 f5 8a bc
       -0.053685486 -0.055226933 0.08408981 -0.01696263
000260 5b 10 87 bd c9 5e 89 bd f1 75 8a 3d af bc 2d 3d
       -0.065949164 -0.06707532 0.06760777 0.04241627
000270 c7 db 1c 3d 3c 67 81 bd b2 be 93 bd a2 c4 58 3d
       0.038295534 -0.063185185 -0.072141066 0.0529219
000280 da 3c 1a bd 35 ff ad 3d c7 55 96 bd 0f 7a 10 3c
       -0.03765569 0.084959425 -0.073405795 0.008818164
000290 a4 90 97 bd 2d e9 1a 3d 8d 5d 87 bd 57 57 11 3d
       -0.07400635 0.03782003 -0.0660964 0.035483684
0002a0 2c c1 20 bd ae da 4d bc db 67 8a bd 20 75 09 3d
       -0.039246723 -0.012564344 -0.0675809 0.033558965
0002b0 a3 f4 df 3c 26 4a 91 3c ef 98 0d bd 4d 0d 18 bc
       0.027338332 0.017735552 -0.034569677 -0.009280515
0002c0 22 49 fe bb 4b 4e 97 3d 9b 8a ae bb f2 af 1a bd
       -0.007760183 0.0738798 -0.0053265817 -0.03776545
0002d0 c5 0a a9 bd 2f 45 d3 bb 93 57 85 3d 1c 4e 73 bd
       -0.08254007 -0.0064474563 0.06510844 -0.059400663
0002e0 1d 36 40 bd 20 09 8b 3d de b7 5b 3d 18 2d 9b bd
       -0.046926606 0.0678885 0.053642146 -0.0757696
0002f0 f7 bd 98 3c 6f 23 a9 3d 58 75 b1 3d 0f 90 3c ba
       0.01864527 0.082587115 0.0866496 -0.0007193097
000300 9a 66 08 bd d3 61 f8 3c f3 9e 43 bd d3 a7 97 3d
       -0.033300973 0.030320084 -0.047759008 0.07405057
000310 7b af 66 bd 0b 71 87 bd d9 8a e9 3c f1 b9 34 bd
       -0.056319695 -0.06613358 0.02850859 -0.04412264
000320 a9 a8 73 bd 14 43 32 3b d5 76 8b 3d 3a b1 3e bd
       -0.05948702 0.0027200626 0.06809775 -0.046555735
000330 b1 63 46 3d 18 78 23 3d b1 86 8b bd 5d d2 0d bd
       0.048434917 0.039909452 -0.068128 -0.034624446
000340 bd 58 f5 3c 92 0c a9 3c 9a 07 81 bd 1a f2 de bc
       0.02994954 0.020635877 -0.06300278 -0.027215052
000350 ce 4c 83 bc 0a 3d 36 bd 5f c6 8e bc c4 76 b1 3d
       -0.016027834 -0.044491805 -0.017428575 0.08665231
000360 26 f0 80 bd 6b b1 24 3b b9 93 08 3d 28 50 05 3c
       -0.06295805 0.0025130163 0.033344004 0.0081367865
000370 c5 51 c8 bb e9 80 f5 bc 30 58 85 bd 41 b9 7e bd
       -0.0061132633 -0.029968696 -0.06510961 -0.06218839
000380 15 5b ad 3d 85 5d 5c bd d6 74 d9 bc e0 10 a3 bd
       0.08464638 -0.053800125 -0.02654497 -0.07962203
000390 5b 7a a3 3c b8 65 4d bd 8c 79 ab bd 59 be 30 39
       0.019955805 -0.050145835 -0.083727926 0.00016855578
0003a0 61 f2 80 bd 00 00 63 3d 38 78 5b 3d 0d 10 3e 3d
       -0.0629623 0.055419922 0.053581446 0.046402026
0003b0 b2 6c ce bc 94 41 86 bd 2c 48 1d 3d 40 5d 9d bd
       -0.025198314 -0.06555477 0.038398907 -0.07683802
0003c0 8e 5a 97 bc 9b ab 33 bd 2c e0 5b bd a3 08 a5 3c
       -0.018475797 -0.043864828 -0.053680584 0.02014572
0003d0 df 9c 75 bd 1c 9a 10 bd ed 16 46 3d cb bd f4 bc
       -0.059964057 -0.03530322 0.048361707 -0.029875657
0003e0 02 b6 21 bc 82 99 78 3c 3c 8c 92 3d 2f 28 c8 bc
       -0.009870054 0.015173318 0.07155654 -0.024433224
0003f0 08 70 ca 3b bb d2 d4 bc 10 3c 6d bd 64 22 a3 3c
       0.006177906 -0.02597939 -0.05791861 0.01991386

actor_fc1.bias f4 [64]
000000 4f 2e b6 bd d9 b7 35 3d 2d ef 95 bd 60 16 70 3d
       -0.088955514 0.044364784 -0.0732101 0.05861509
000010 6b c9 02 3d 0c 58 b0 3d e8 27 2a 3d 23 6f 9b 3d
       0.03193037 0.086105436 0.041541964 0.07589557
000020 9a 71 7d 3d f0 2a 9b 3c 93 9d bd 3c 9c ff 4f bd
       0.061875917 0.018941373 0.023146426 -0.050780877
000030 9b 59 a8 bc 78 7f 82 3d 08 77 90 bd c3 bb 92 3d
       -0.02055054 0.06371969 -0.070539534 0.07164719
000040 e4 5c ab bd 03 c0 a0 bd 08 c4 66 bd 5d c9 56 bc
       -0.08367327 -0.07849123 -0.056339294 -0.013109532
000050 fb 8b 7f bd 15 97 0a bb 68 37 fe bc a4 cc 78 ba
       -0.062389355 -0.002114718 -0.03103228 -0.0009490943
000060 4a 13 20 bd cd da 01 3d ff 99 89 bd 95 60 2a bc
       -0.039080895 0.031702805 -0.067188255 -0.0103990035
000070 d1 bc 3e 3d ea e0 32 3d 62 e4 98 3c 74 0e 17 bd
       0.046566788 0.043671526 0.018663589 -0.036879018
000080 85 ad 52 bd 2f 67 e0 3c f1 40 5f 3d 2a eb 24 3c
       -0.051435012 0.027392952 0.054505292 0.010065833
000090 2e c5 df bc 46 e9 0f 3d f1 9a a9 3d 0c e2 6d 3d
       -0.027315702 0.035134576 0.08281506 0.058076903
0000a0 53 ab 27 bd 7b 61 8c bd a3 75 88 3b 58 80 70 3b
       -0.040934872 -0.068545304 0.004164414 0.0036697593
0000b0 3a 6c 9e bd 53 de 9d 3d 22 69 b4 bd 9f 4d 88 bc
       -0.07735486 0.077084206 -0.08809115 -0.016638575
0000c0 53 0c 1d 3d d1 18 88 bd c4 69 a9 bc d7 2f 9c bd
       0.03834183 -0.06645358 -0.020680316 -0.07626312
0000d0 c3 31 70 bd 7c 97 d8 3a 5d 4e f7 bb a4 87 53 bd
       -0.058641206 0.0016524638 -0.0075471834 -0.05164303
0000e0 8f 30 17 3d 5b 80 9d bd 61 b0 12 3d 66 dc 99 3d
       0.036911543 -0.076904975 0.03581274 0.07512741
0000f0 9d 69 72 bd c8 f4 e9 3c 6e 39 15 3b 2e a6 ea bc
       -0.059182752 0.028559104 0.0022769826 -0.028643694

actor_fc2.weight f4 [2, 64]
000000 c6 e1 c2 bd dc d4 cd 3d 87 8e ee bd c2 00 96 3c
       -0.09515719 0.10050365 -0.11648279 0.018310908
000010 8c 8e d6 bd 89 77 ae bd 43 2f af 3d 84 3d d0 3d
       -0.104764074 -0.08518893 0.08553936 0.10167983
000020 f3 31 04 bd 5d 3f 7e bc ca 21 ad 3d 1b 05 23 bd
       -0.032274198 -0.015518037 0.084537104 -0.03979979
000030 d0 5b cb 3d b0 50 d7 3d b2 74 59 3d 22 2a e7 3d
       0.09929621 0.10513437 0.053089805 0.11287333
000040 ee 4a a2 3c 44 5c ac bd 69 0f 57 bc 23 84 34 bd
       0.01981112 -0.08416036 -0.013126233 -0.044071328
000050 de 0f 83 bd 98 b2 9e bd cb 3e 34 bc ba dd fe 3d
       -0.06399511 -0.07748908 -0.011001299 0.12444635
000060 9a 21 f6 bd 3c 0f 74 bd 23 e9 99 3d 66 2d 7b bd
       -0.12018128 -0.05958484 0.075151704 -0.061322592
000070 b5 ee e5 bd de ca 28 3b 5d 29 7c 3d 23 13 58 bd
       -0.112271704 0.0025755684 0.061562885 -0.052752625
000080 58 50 66 3d ed 8a da 3d 59 0b 06 3a d0 82 9c bd
       0.056228966 0.10671029 0.0005113385 -0.07642138
000090 4d 1e b3 3c a9 64 73 bd c6 3b d8 bd a1 2d ca 3d
       0.021865034 -0.05942217 -0.10558276 0.09871984
0000a0 b0 7f bd bc 3a 00 e8 bd 1a dd da bd 6f fb e3 bc
       -0.023132175 -0.11328168 -0.10686703 -0.027829854
0000b0 cb 85 74 3d 3e 65 c1 bd 7c 9a 13 3d 78 5b b4 bc
       0.059697907 -0.094431385 0.036036 -0.022016272
0000c0 28 6c 9d 3d c3 0a 1e 3c 10 45 a0 bd 10 4f ea 3c
       0.07686645 0.0096461205 -0.078256726 0.028602153
0000d0 e8 b5 c6 bc 46 45 70 3c e0 2c 99 3c 44 f8 bb 3d
       -0.024256662 0.014664954 0.018698156 0.09178212
0000e0 08 3e 04 bd 24 4b 02 3d 9f 0c b6 bd 95 e1 66 3d
       -0.03228572 0.03180994 -0.08889126 0.056367476
0000f0 38 73 ae 3c 16 4a 54 3d 96 92 2a 3d 0f b8 f6 bd
       0.021295175 0.051828466 0.0416437 -0.12046825
000100 4c 62 c9 bd 50 6f f9 bd bd db cc 3d 2a dc fb 3d
       -0.09833202 -0.12179434 0.10002849 0.12297852
000110 69 52 00 bd 3b 23 d9 3c ad 04 0c bd e2 1e d5 bd
       -0.031328592 0.026506057 -0.034184147 -0.10406281
000120 6d 5e 16 bd 93 cd 39 bc 22 46 a5 bd cd 4f 16 bd
       -0.036711145 -0.011340517 -0.080700174 -0.036697198
000130 40 e8 b3 3c 7b c7 47 3d 28 1c 62 3c fd 20 59 bd
       0.021961331 0.048774224 0.013800658 -0.053009976
000140 16 0b 82 3d e0 d8 63 bc f7 66 c9 3d 66 d4 ed 3d
       0.06349771 -0.0139066875 0.09834092 0.116127774
000150 c2 60 d0 3d 30 85 88 bd 13 7d 92 bd 6c 47 9f 3d
       0.10174705 -0.066660285 -0.07152762 0.077772945
000160 12 10 94 bd 68 62 ba 3c e5 5d 93 bd dc ef a1 bc
       -0.07229628 0.022752002 -0.07195643 -0.019767694
000170 f1 80 97 bd a9 3a f1 bd 41 ef d0 bc 1e 28 d4 3d
       -0.073976405 -0.11778767 -0.02550471 0.10359214
000180 c8 d3 19 3d 03 a3 b6 3d 51 40 61 bd 31 1d 5b bd
       0.037555486 0.08917811 -0.054992978 -0.053494636
000190 d3 54 df 3c f7 5e af bd 3d 62 32 bd f7 25 7f bd
       0.027262127 -0.08563035 -0.04355072 -0.062292065
0001a0 30 4e 65 3c e2 96 e7 bd 5c 78 92 3d 48 f1 c8 3d
       0.013995692 -0.113080755 0.07151863 0.09811646
0001b0 3f 5a ad 3d 6f 19 c1 3c e8 45 a2 3c ee f4 9c 3d
       0.08464479 0.023571698 0.019808725 0.07663904
0001c0 c8 42 fc 3d 0d df 77 3c 06 ab da bd a4 a5 ab bd
       0.12317425 0.015128863 -0.106771514 -0.08381203
0001d0 80 7e 6c 3d 4a b9 20 3d 68 5f 7c 3d 72 55 d0 bd
       0.057737827 0.039239205 0.061614424 -0.101725474
0001e0 60 14 93 bb 72 3c b3 bd a7 9c 69 bd 52 d6 f3 3d
       -0.004488513 -0.087517634 -0.05703416 0.11906113
0001f0 70 b3 47 3c 32 ff 71 bd f3 b3 dc bb 89 0e 53 3d
       0.012188777 -0.059081264 -0.006735319 0.051527534

actor_fc2.bias f4 [2]
000000 c8 63 b4 3d 5c 94 f4 3d
       0.08808094 0.1194236

critic_fc1.weight f4 [64, 128]
000000 44 fe 23 3d d9 af d3 3b a3 81 8f 3c 9c 0c 65 bc
       0.04003741 0.0064601717 0.01751787 -0.013980057
000010 94 86 92 3b d2 ba fc b8 eb 9c ae 3d 33 bb 95 bd
       0.0044716094 -0.000120510944 0.085260235 -0.07311096
000020 3c 0d ad bd ca f5 58 3d ae 2f 43 bd e6 6f 43 bd
       -0.0844979 0.052968778 -0.047652893 -0.047714137
000030 90 c6 d3 3b d3 33 d5 3c b2 aa 44 bd e3 e1 1c bd
       0.0064628795 0.026025688 -0.04801435 -0.03830136
000040 1d 46 ae 3d f7 a4 96 ba 28 b5 98 3d e6 fd 00 bd
       0.08509467 -0.0011493255 0.07456428 -0.031492136
000050 e1 57 57 bd 11 55 7e 3d 6a 16 70 3d 90 80 f4 3c
       -0.052574042 0.062092844 0.058615126 0.02984646
000060 92 65 13 bd e8 d8 63 3d f0 e0 33 bd 09 71 66 bd
       -0.035985537 0.05562678 -0.04391569 -0.056260142
000070 b6 7d 4e bb 1e c6 a8 bd 0d 3c 4e bd 7c ee 87 3c
       -0.0031508035 -0.08240913 -0.050350238 0.01659321
000080 ed a8 19 bb dc d4 5b bd c5 e2 0b 3d 45 34 ad 3d
       -0.0023446635 -0.053669795 0.03415181 0.08457235
000090 8e 51 49 bd 01 32 50 3d b1 d2 5e bd 23 6f 9c bd
       -0.049150042 0.050828937 -0.05440015 -0.07638385
0000a0 cd e1 8e 3d f0 3d 69 3c f5 2d 8b 3d da 5b 3c 3c
       0.06976662 0.014235958 0.06795875 0.0114965085
0000b0 30 81 3c bd 96 50 87 bc 69 02 70 bd 7a 2d 82 3c
       -0.04602164 -0.016517919 -0.05859605 0.015890826
0000c0 79 0f 02 bd 23 3e 11 bd bb 23 07 bb 46 6c 01 bd
       -0.031753037 -0.03545965 -0.0020620662 -0.0315974
0000d0 47 44 3a 3a cc 2d 56 3c cb fe 95 3d 6d 32 39 bd
       0.0007105511 0.013072442 0.073239885 -0.045214105
0000e0 ce 94 30 bc 51 d4 51 bd 42 6d 8f 3d ed fa 1d 3c
       -0.010777665 -0.05122787 0.07003261 0.009642345
0000f0 63 61 d6 3a 04 db 09 bd 0c 66 7c bb 26 f2 3a bc
       0.0016355928 -0.033656135 -0.0038512973 -0.011410272
000100 13 cd 56 bd 2a ce 7f bd 45 1f 6b bc 49 1d 77 bd
       -0.052441668 -0.062452473 -0.014350717 -0.060330663
000110 c5 50 9c 3d eb 75 e9 3c 6d 8b 43 bd 01 8a 2f bc
       0.07632593 0.02849861 -0.04774039 -0.010714055
000120 9b d1 4d 3d a0 3d 82 3c e3 1b 9d bc 6d 3e a3 bd
       0.050248723 0.015898526 -0.019178336 -0.07970891
000130 e0 da 9b bb c9 f6 70 3d f2 6f 93 3d 05 97 95 bd
       -0.0047563165 0.058829103 0.07199086 -0.07304195
000140 68 bc 3a bd 5d e8 4a bd bc 0d b8 bc e8 f7 a1 3d
       -0.045589834 -0.049538005 -0.022467487 0.079086125
000150 b1 98 35 bd e5 13 9b bd 64 1c 68 3c d2 6f 55 bc
       -0.04433507 -0.07572154 0.014166925 -0.013027148
000160 e6 0c 82 bd 38 9f 92 3d 86 90 3c bd c5 b5 40 bd
       -0.063501164 0.07159275 -0.046036266 -0.04704835
000170 fd 30 ca 3b 25 d3 99 3d 16 dd 92 bd fd 1c fd bc
       0.0061703906 0.07510976 -0.07171075 -0.030897612
000180 57 fb 44 3d 04 04 53 3d 03 4e 8c bd ad 5f cb 3c
       0.04809126 0.0515175 -0.06850817 0.024825895
000190 41 88 58 bd ea 71 13 bd e6 89 82 3d 0b 98 7e bd
       -0.052864317 -0.03599731 0.06373958 -0.06215672
0001a0 e4 e5 95 3d fa bc 60 3c 27 f2 46 bc be 1d 35 3d
       0.07319239 0.0137169305 -0.012142695 0.044217817
0001b0 97 11 c5 bc 68 4c 01 3d cb f2 b4 bc 56 99 82 bd
       -0.024056239 0.031567007 -0.022088429 -0.06376903
0001c0 5b 21 40 bd db 92 b1 3d 94 b8 5f bd ba 99 01 3d
       -0.04690681 0.086705886 -0.054619387 0.031640746
0001d0 a9 6e 5f 3d 08 da 26 bb 63 9a ab bd c4 c2 8f bd
       0.054548893 -0.0025459547 -0.08379056 -0.070195705
0001e0 e6 41 ce bc 49 aa 23 bd 34 6d 68 bd 95 6c a5 bd
       -0.025177907 -0.03995732 -0.05674477 -0.08077351
0001f0 7c ca 3c bd 9c 15 2d 3d 3f cb 8a bd 63 43 73 bc
       -0.04609154 0.042256936 -0.06777047 -0.014847609
000200 27 b2 d0 3c df 1b 2d 3d 42 c6 1e 3c fc f8 88 bd
       0.025475575 0.042262908 0.009690823 -0.06688115
000210 2b cc c9 bc 7d dd 63 bc 13 e6 98 bd c3 19 9f 3c
       -0.024633488 -0.013907787 -0.07465758 0.019421464
000220 e6 da 94 3d 4e 76 91 3d 96 e1 4a 3d 4b fa 11 3d
       0.07268314 0.07102643 0.04953154 0.03563909
000230 18 03 98 bc 52 27 b7 3c 6a be 6b 3d 6b 6e b3 3d
       -0.018556163 0.022357617 0.05755464 0.08761295
000240 bc 3e 1c bd d9 63 52 bd d5 c3 fb 3c 7d 6f b3 bd
       -0.038145766 -0.051364753 0.030733028 -0.08761499
000250 5b 8b 67 3d c6 79 59 3d 83 2e 80 bd dc 47 44 bd
       0.056529384 0.053094648 -0.062588714 -0.047920093
000260 9c d2 a7 bd 81 62 7f 3d 06 62 2a bd fc 99 50 3d
       -0.081944674 0.0623498 -0.04159739 0.0509281
000270 ec 94 8c bd 29 4a ef bc 02 91 5c bd 73 f2 f3 3c
       -0.06864342 -0.029210167 -0.053849228 0.029778695
000280 53 b2 1c bd cc c0 59 bd 8f 1d 8d 3d d9 92 5f bd
       -0.038256 -0.05316238 0.068904035 -0.054583404
000290 6c b1 ac bd 7b e7 32 ba 90 22 7a bd 54 7a a3 3d
       -0.08432278 -0.00068246544 -0.061068118 0.079823166
0002a0 a4 c4 81 bd 35 e8 7d bd 30 60 31 3d 33 a5 13 bd
       -0.06336334 -0.061989028 0.043304622 -0.036046218
0002b0 b4 1f a5 bc 13 bc 73 3d 62 b4 8e bc aa ca 2c 3d
       -0.020156719 0.059505533 -0.017419998 0.042185463
0002c0 b3 8b 87 bd 7d 70 08 3d e4 8e 09 bd 35 8c 13 3d
       -0.066184424 0.033310402 -0.033583537 0.036022384
0002d0 4c 86 3f bd a8 cb 59 3d 91 87 70 3c ed 2f 99 bd
       -0.046758935 0.053172737 0.014680759 -0.07479844
0002e0 c4 41 b3 3d d6 22 3d 3d 19 f6 9b bb 42 aa 70 3c
       0.08752778 0.0461758 -0.0047595617 0.01468903
0002f0 28 59 a2 3d d8 9a 22 3c a1 85 62 bd 85 e3 93 3d
       0.079271615 0.009924613 -0.05530322 0.0722113
000300 b2 58 ad 3b 9e c9 f3 3c 32 e6 1e 3d 8d 76 99 3d
       0.0052901143 0.029759225 0.03879375 0.07493315
000310 8c 17 aa 3c 1f 65 8b 3a f5 85 e8 bc ee db 7b 3d
       0.020763181 0.0010634995 -0.028384188 0.06148904
000320 6f a7 89 3c fd b9 ba 3b d4 36 98 3d 8a c4 a9 bd
       0.016803471 0.005698441 0.07432333 -0.0828944
000330 9e 05 8f 3d a6 50 a3 3b e1 87 17 bc d0 b7 66 bd
       0.06983493 0.0049839793 -0.009248705 -0.05632764
000340 e0 eb 39 3d 47 38 98 bd e9 82 8c bd c6 1a 8a bd
       0.045390964 -0.07432609 -0.06860907 -0.06743388
000350 37 30 b0 3d 6f 65 2b bc b3 9d 6d 3c 3b 8b 83 bc
       0.08602946 -0.010461195 0.01450293 -0.016057601
000360 06 eb 1c bd 71 7e 67 bd c4 9a 55 3d b8 a7 7c bd
       -0.038310073 -0.05651707 0.05214955 -0.061683387
000370 03 4f 8b 3d 33 97 8a bc 4c 25 a5 3c 44 e2 6d 3d
       0.0680218 -0.0169178 0.020159386 0.05807711
000380 8b c5 ae bd 11 58 cb 3c 20 89 8e bd 21 f2 11 3d
       -0.08533772 0.024822267 -0.06959748 0.035631303
000390 ca 7f 94 bd 53 c5 4f bc 43 f5 27 3d f1 93 ef 3b
       -0.07250936 -0.012681323 0.041005384 0.007311337
0003a0 97 3f 4f bc df b4 75 bc 3e 62 33 3d a1 43 48 bc
       -0.012649438 -0.014996736 0.043794863 -0.012223155
0003b0 36 c0 26 bc f1 67 b1 bc d1 90 c3 3b 13 48 af bd
       -0.010177663 -0.021656008 0.005968191 -0.08558669
0003c0 9d 97 0c bc 8a d1 16 3d e5 d1 73 bd d9 46 d6 bc
       -0.008581069 0.036820926 -0.059526343 -0.02615683
0003d0 17 1d 97 bd 3e 09 98 bd 65 cc 88 3d e8 c6 f5 3c
       -0.07378595 -0.07423638 0.0667961 0.030002072
0003e0 ed ae 77 3c 22 01 d1 bc 8b a2 a9 bc ba a5 9f 3d
       0.015117389 -0.025513235 -0.02070739 0.07795282
0003f0 a5 bc 2e bd 65 07 65 bc b5 18 52 bc 7b f2 ac 3d
       -0.042660374 -0.013978814 -0.012823273 0.08444687

critic_fc1.bias f4 [64]
000000 49 93 68 bc 5f 89 45 bd 80 28 59 bc 98 45 46 3d
       -0.014195272 -0.04822671 -0.013254285 0.048406214
000010 4d ed 24 bd 6f db 1c 3c 53 ea 4d bc 84 0b 81 bd
       -0.04026537 0.009573801 -0.012568074 -0.063010246
000020 c6 4b 4e 3d 1a 3c 8a 3c d9 69 d9 3c 7d 5a a9 39
       0.050365232 0.016874362 0.02653973 0.0003230161
000030 f4 9f 52 3d 02 5d a5 3c 9f b2 53 bd d7 20 5c bd
       0.051422074 0.020185951 -0.05168402 -0.053742256
000040 85 ae 93 3d 6c 06 cd 3c f5 2a 82 bd aa b7 87 bd
       0.07211021 0.025027476 -0.0635585 -0.06626828
000050 3a b0 7a bc ab 33 af bd 9a e7 67 3d af d2 79 bc
       -0.015300805 -0.08554777 0.056617357 -0.015247985
000060 40 34 d5 3c 64 51 84 3d 34 30 16 3d 09 1b 9f 3c
       0.026025891 0.064608365 0.036667064 0.019422071
000070 e8 1c 58 3d d5 0f 9b 3d 0e 8c cc bc e7 ff 1f 3d
       0.052761942 0.07571379 -0.024969127 0.039062407
000080 d0 6d 37 3d 86 57 7d bd ee e2 62 bd c3 4e d1 bc
       0.04478246 -0.061851047 -0.0553922 -0.025550252
000090 47 2b b0 3c b8 06 35 bc 70 7a fd bc d0 46 00 3d
       0.021505011 -0.011048965 -0.030942172 0.031317532
0000a0 31 f2 8a 3d 39 8b 4a 3d 00 06 37 3d 1c 23 4b 3d
       0.067844756 0.04944918 0.044683456 0.04959403
0000b0 55 46 1e 3d d1 20 92 3d 7c 0e 1c 3d b1 0e 86 bd
       0.038641293 0.071351655 0.03809975 -0.06545771
0000c0 1f 95 67 3d 55 86 60 3d 3b 2d 92 3d 04 1d ce 3c
       0.056538697 0.05481561 0.07137533 0.02516032
0000d0 49 07 a2 bd 06 b6 01 bd a0 af 68 3d 96 c6 81 3d
       -0.07911546 -0.03166773 0.056808114 0.063367054
0000e0 ab c6 32 bd 75 ea 6f bb b6 da 30 3d c0 d8 2b bd
       -0.043646496 -0.0036608253 0.04317733 -0.041954756
0000f0 b0 60 74 bd 82 da 4a 3d 54 0a a6 3d 27 50 51 3c
       -0.05966252 0.04952479 0.08107439 0.012775457

critic_fc2.weight f4 [1, 64]
000000 09 8a 6f bd 65 b1 11 bd 24 8c 81 3d 6a fd ea bd
       -0.05848125 -0.035569567 0.06325558 -0.11474116
000010 f4 66 d5 3d e0 4c ad bd 24 b6 55 3d 8e 93 a5 bd
       0.104200274 -0.08461928 0.052175656 -0.080847844
000020 40 55 9b 3d 62 02 f2 bd 49 1f 46 bd 47 82 ba 3c
       0.075846195 -0.11816861 -0.04836968 0.0227672
000030 de 21 63 3c 26 c3 f4 3d c4 d4 eb bd e0 8b 40 3d
       0.013863055 0.11951284 -0.11515191 0.047008395
000040 f7 ca 3c 3d 5e 23 bb 3d bc 34 b7 bd ae ec cb bd
       0.046092 0.09137605 -0.08945605 -0.099572524
000050 e1 9d d2 bc 88 0f 26 bd 64 42 8f bd 60 ac 8c bd
       -0.025710048 -0.040542156 -0.06995085 -0.068688154
000060 6f f1 41 3d c2 2d 80 bd b2 65 94 3d f7 87 16 3d
       0.04734939 -0.062587276 0.07245959 0.03675076
000070 f7 79 34 3b 4d 88 61 bd 57 7e 4e 3d f0 da 8f 3d
       0.0027538517 -0.055061627 0.050413456 0.07024181
000080 50 2c c3 bc 7c 82 09 3d 03 12 3c 3d 50 82 81 3d
       -0.02382484 0.033571705 0.045915615 0.06323683
000090 97 c4 fb 3c 00 85 01 ba cc 71 01 3d f2 2e dc bd
       0.03073339 -0.0004940778 0.031602666 -0.107511416
0000a0 f6 34 b8 3d d4 3a b1 bd ed f6 4b bd 02 f0 89 3d
       0.089944765 -0.08653799 -0.049796034 0.06735231
0000b0 a0 37 a6 bd 92 55 7c bc 62 f6 de 3d 96 21 c4 bd
       -0.081160784 -0.015401261 0.108868375 -0.095767185
0000c0 e2 e2 1b bc 28 78 a1 bd fe a5 21 3c 6e a2 9a 3a
       -0.009514542 -0.07884246 0.009866236 0.0011797675
0000d0 46 04 b8 bb cb 41 b4 bd 10 f2 cb bd db e2 1a 3d
       -0.005615744 -0.088016115 -0.09958279 0.037814002
0000e0 b0 02 fc bd a8 b4 a3 bd 06 22 80 3d 42 19 58 bc
       -0.123052 -0.07993442 0.062564895 -0.013189616
0000f0 86 89 c6 3d f7 94 0e 3d 1a 3a d9 3d 3a f2 bb bd
       0.09694199 0.034810033 0.10606785 -0.091770604
