reinforcement_learning/actor_critic/actor_critic_750.pth (torch, 4834 bytes, 5 tensors)

fc1.weight f4 [64, 4]
00000000: 44fd 073f 5c8e 103f 3912 4f3f 1384 0b3f
00000010: 3346 c8be 040f d73e ff24 8a3e 874d ba3e
00000020: 2513 823e 5926 92be b4d2 d13f e747 af3f
00000030: 23e6 7d3e 7be9 3cbf 6dd6 e8be b314 8c3f
00000040: f4d5 c03e 67f0 46bf f7ec 5ebf 37ce 8a3e
00000050: b230 79bd 4006 87be 1c9d 4abd fbc5 ccbe
00000060: 7710 cc3d 66e4 973e ceee a9be 7157 6ebe
00000070: 3767 5fbf abb4 c33e f19d 8f3f b3b2 d53e
00000080: 908e d5be 37d7 c73e 3baf e0be fdc8 cebe
00000090: 085b bdbe 70ba d6be cbf5 e6bf fc35 5abf
000000a0: ab2e a3be b286 bd3e 80e8 31bd 009e 00be
000000b0: b404 c2bc 08bc c93e 1936 653e 8279 973e
000000c0: 5ef6 263e d9f2 aebd 8af2 0ebf 6d9c e1be
000000d0: 6f9d 023f 07bb 1cbf b7ed e2bf b229 4dbf
000000e0: 09d9 aabd 0b22 9d3d 8b2b 833e 4446 2cbe
000000f0: 36b2 803e a919 00bf 7e4e b1be df19 e6be
00000100: c82a 7e3e bb61 62be 9e87 cc3d 9664 0cbe
00000110: 6d3c 013f f4e1 c3bd fedd 6f3d 76de 363e
00000120: ac9a 5e3e bf62 0a3e d664 efbe db96 9cbe
00000130: e9b8 413c 481f 4ebd cd8f 92be 2fdb 5cbf
00000140: a94a c4b9 03b8 2cbe d6f0 1d3e dac5 433e
00000150: 6c98 0ebe 187e b93b 6c78 1cc0 e25d 83bf
00000160: 0c8f 38bd ae6b 5ebd 2862 1ebe d041 afbe
00000170: 2ad7 adbe d611 2c3e d9fe dc3f e175 ae3f
00000180: d6c6 c33c b50c 03be 7eda 06be a14a 403e
00000190: d68e 263f fa99 0a3d 30c4 883f b247 44be
000001a0: e3bf ec3d a207 853f 9a1c dd3e b184 e23e
000001b0: 1bb3 68be 8de5 683e a32b 3d3d 4691 fdbe
000001c0: 442c d43e 94ec f8be a897 11bf ab6a 86be
000001d0: 9469 833e 813b 55bf 48c5 a6bf d423 c3be
000001e0: 4815 28be 346d 09bf effe e9bf acee 0cbf
000001f0: 6afe 7dbf 2e6c 49bc 055a 623f 064a 6e3e
00000200: ffae b8ba 8012 82bd 58a6 05bf 2bea 4cbf
00000210: d87d b13e e594 d03e eacd d33f 3599 0b3f
00000220: d44a 1b3f 5fdf 403e 409a f7be 84fc a03e
00000230: ea73 92be e42a b33e 5072 83be 37e8 2a3e
00000240: ac09 3abe 3e41 9c3d 07b4 d0be 7a9d 1d3e
00000250: 00fc 7bbd 9df1 37be 3ead 553e 7e92 94bd
00000260: d360 43be 7031 4a3e f605 7abf 5681 a4bf
00000270: e69c c6bd e4aa eabd 66d1 963e 4187 73be
00000280: 6332 f4bd 8689 45bd fa1e bd3e 4ff4 c83d
00000290: 7762 10be f6e5 cdbc c5a8 e1bd 0b96 5ebe
000002a0: 0a3f 493e cfce 023e 5b5f 323e 6480 103e
000002b0: d19d 9f3e 1889 533e 815e 8a3f 5f5e b03e
000002c0: 80e0 54bf 6e09 78bf 3ba5 a9bf 26eb 75bf
000002d0: 5f22 d2bd a1fc 5abe b1e9 bbbf e498 c2be
000002e0: 08fb b2be 833e 1f3f 99ed 043f 56db 093f
000002f0: ca06 08be 4b5e 8c3e cc16 133f f4a7 6f3e
00000300: e847 29bc 855c ae3e 345e cbbd 8a93 d63e
00000310: 4db2 dfbe e4e3 2e3f ef7a a73f 40ad ed3e
00000320: c986 9d3e 45d8 66bf 7339 dabf 1dd3 1abe
00000330: 059c 70bf 6309 34bf 3ebd 083f 808c a4be
00000340: 32a1 e33e 8dc1 493f 92d9 0d3f a8b8 d03e
00000350: d577 623e 30ec 403e a910 583f 2709 793e
00000360: aa40 73be e73a ff3b 759d 213f b2eb 15bc
00000370: e761 283e 8fd9 cd3d 69b6 f2be 6811 8d3e
00000380: 9416 d2bc 94bd 48be 1102 a03f 4106 973f
00000390: c7da 29bf d5aa 90be 4647 313f 2cda fe3d
000003a0: 270c 21bf bab9 8cbe ea30 e0bf 45a9 e5be
000003b0: 483c 833e 0ce6 45be a47b a73e 9b79 00be
000003c0: aa12 a6bd 4b6e 503e af48 30be 22df 9c3e
000003d0: ddb4 3a3f 5e03 a93d b8f5 943f ee35 853e
000003e0: 7b25 0fbf 28ad 76be a206 eebf eb7b 65bf
000003f0: 17bb fd3e 33c1 783e c743 a33f fb10 503c
0.5312083 0.56467223 0.8088718 0.54498404 -0.39116058 0.42003644 0.2698135 0.36387274
0.2540523 -0.28544882 1.6392426 1.3693818 0.24794821 -0.7379376 -0.45476094 1.0943817
0.37663233 -0.77710575 -0.8708033 0.27110454 -0.060837455 -0.26371956 -0.049466237 -0.39994797
0.09964078 0.29666442 -0.33190006 -0.23275544 -0.8726687 0.38223776 1.1220075 0.417379
-0.4171033 0.39031383 -0.4388369 -0.40387717 -0.36983514 -0.41939116 -1.804376 -0.85238624
-0.31871542 0.37016827 -0.04343462 -0.12560272 -0.023683883 0.3940127 0.22383918 0.2958489
0.16304919 -0.08542413 -0.55838835 -0.44064656 0.51021475 -0.6122288 -1.7728795 -0.80141747
-0.083421774 0.07672509 0.25619158 -0.16823679 0.25135964 -0.50039154 -0.34630197 -0.44941613
0.24821007 -0.22107594 0.099868044 -0.13710245 0.5048283 -0.095645815 0.058561318 0.178583
0.2173869 0.13514231 -0.4675662 -0.30583844 0.011823871 -0.0503228 -0.28625336 -0.8627195
-0.0003743966 -0.1686707 0.15423903 0.19118443 -0.13925332 0.0056607835 -2.44485 -1.0263026
-0.045058295 -0.05430191 -0.15467131 -0.34229898 -0.3395322 0.16803679 1.7265273 1.3629724
0.023898523 -0.12797816 -0.13169286 0.18778469 0.650617 0.03383825 1.0684872 -0.19167975
0.11560037 1.0392954 0.43185884 0.4424186 -0.22724573 0.22743817 0.046184193 -0.49524897
0.41440022 -0.48617995 -0.56872034 -0.26253256 0.25666487 -0.8329392 -1.3028955 -0.38113272
-0.16414368 -0.53682256 -1.8280925 -0.55051684 -0.9921633 -0.012293858 0.8841861 0.23270425
-0.0014090239 -0.06351185 -0.52206945 -0.8004481 0.34666324 0.40738598 1.6547215 0.5453065
0.60661054 0.1883521 -0.4835987 0.31442654 -0.2860406 0.3499366 -0.2567315 0.16690145
-0.18167752 0.076296315 -0.4076235 0.15392104 -0.061519623 -0.17963262 0.20866868 -0.07254504
-0.19079904 0.19745421 -0.97665346 -1.285197 -0.09697895 -0.11458376 0.29456633 -0.23782064
-0.11923673 -0.048226856 0.36937696 0.09812223 -0.14100061 -0.025134068 -0.11018518 -0.21736924
0.19652954 0.12774204 0.17419188 0.14111477 0.31175092 0.20657766 1.081009 0.34447
-0.8315506 -0.9688939 -1.3253549 -0.96061933 -0.10260462 -0.21385433 -1.4680692 -0.3800727
-0.34957147 0.6220476 0.51925045 0.53850305 -0.1328384 0.2741569 0.5745666 0.23403913
-0.010332085 0.34054962 -0.09930077 0.41909438 -0.4369072 0.68316483 1.3084391 0.46421242
0.30766895 -0.9017375 -1.7048782 -0.15119596 -0.93988067 -0.70326823 0.5341376 -0.32138443
0.4445892 0.7881096 0.5541011 0.40765882 0.22116025 0.18840098 0.8440042 0.24319898
-0.23755136 0.007789004 0.63130885 -0.009150432 0.16443597 0.10051262 -0.47404793 0.27552342
-0.025645532 -0.19603568 1.2500631 1.1798784 -0.6634945 -0.28255334 0.6924938 0.12443957
-0.6290917 -0.27485448 -1.7514927 -0.44855705 0.25631928 -0.19326037 0.32711518 -0.12546389
-0.08109029 0.20354573 -0.17215227 0.30638987 0.72932225 0.08252595 1.1637487 0.26017708
-0.55916566 -0.24089491 -1.8595774 -0.8964221 0.495568 0.2429245 1.2755059 0.012699361

fc1.bias f4 [64]
00000000: b620 5e3f 17b5 5a3f 9c30 623f 6757 20bb
00000010: 15e6 85be cad9 6b3f add2 a73f 09b6 973e
00000020: 2f46 983f adcb 69bd af0b 9c3f 98ae 7b3f
00000030: 4dc0 9d3f 2e86 e83d edb6 823f 797a 0f3f
00000040: 85c6 843f 83f9 b63f adb2 5e3e 07f5 513f
00000050: 798c 373f d30e 163f 82d7 823f 8f2b d73e
00000060: 39a6 b43f f764 4cbf dca4 2b3e eed2 863f
00000070: ccaa 3d3f d0e8 0a3e a2d2 14bf d58b b6be
00000080: 1748 363f 9952 10bf 8074 bb3b 4f16 853f
00000090: 3a97 333f 13b7 5f3f 5172 e53e f44d 823f
000000a0: 59fd 933f 74d5 473f 2478 723f 114c 06bf
000000b0: 16c6 4ebf 8920 3cbf 373c 1f3f 8107 753f
000000c0: 1e7b 763f 4cc4 513f dfae 813d bc94 a0bf
000000d0: 1440 853f 0f34 9c3f fc7e 773f bb1e 9b3f
000000e0: 6173 7e3e bc99 92bf 3489 8ebf 0459 863f
000000f0: 0e3e 8b3f d7ed 7d3f 10e6 223f cd57 3e3f
0.8676866 0.8543257 0.8835542 -0.0024466158 -0.261521 0.92129195 1.3111168 0.2963107
1.1896418 -0.057079006 1.2191066 0.98313284 1.232431 0.11353718 1.0212075 0.56046253
1.0373083 1.4294895 0.21747847 0.8201451 0.7169872 0.5861637 1.0222018 0.4202542
1.4113227 -0.7984156 0.16762108 1.0533121 0.7408874 0.13565373 -0.581339 -0.35653558
0.7120375 -0.56376034 0.005720675 1.0397433 0.7015263 0.87388724 0.4481378 1.018004
1.156169 0.7806008 0.9471457 -0.5245982 -0.80771005 -0.73487145 0.62201256 0.95714575
0.9628161 0.8194015 0.06332182 -1.254539 1.041018 1.2203387 0.9667814 1.2118753
0.24848701 -1.1453166 -1.1135621 1.0495915 1.0878313 0.9919104 0.636323 0.74352723

actor.weight f4 [2, 64]
00000000: cdb8 a5be e9fe 76be b177 f4be 6c9a d23d
00000010: eb31 e83e be1a b3bc e14f 523e ad33 48bf
00000020: 05d3 e63d 3359 193f f918 aabb b958 3fbe
00000030: 9965 8f3e 253c e93f 4220 023d ad50 2b3e
00000040: ede5 253e 1771 dc3d 0b56 123f 9b1d ec3e
00000050: 0c93 23be 7201 513f 3a7c 893d a92d 56bf
00000060: b1f8 50bd 0b4a 81be 6971 a5bf 08f5 9c3d
00000070: 44bc fb3e 9b38 093f 3021 4b3f d3e8 eebe
00000080: 5cd2 d63e 006c f4be 4d1b 3cbd 458a 65bd
00000090: 8267 8cbd 9dd7 eebd 8a4a 0c3f 5dd7 a5bc
000000a0: dea3 28be 9429 703d 7f7c 7bbd d3e6 1e3e
000000b0: 5020 a53e f132 1c3f 4763 62bf 14db 4abe
000000c0: ed62 60be 8edc 79bf 12df 4e3f dbc3 3bbe
000000d0: 016b 21be c6c8 5dbe 3843 84be e9f0 973d
000000e0: cbee 22bf 17c6 44be 455d 493e 9729 503e
000000f0: 2622 5ebe 6109 1bbf ff43 5d3f 0e76 99be
00000100: 7ac7 bb3e 9511 a73e 11f3 073f 987f 5abd
00000110: c031 86be 7d2c 0dbe 7bf3 66be 8742 3a3f
00000120: 8895 4fbe 9a3f 1fbf 64e7 ebbc dc36 3f3e
00000130: 92a3 9abe 0a78 e2bf 2b72 ba3d e47a b1be
00000140: 917b 4f3a 9798 dfbd 4f46 23bf 511f e9be
00000150: 91e5 b53c d72e 58bf 1ab9 c2bd 2082 453f
00000160: f7a6 613d 8c39 573e 24bd 9e3f 7a9a 20be
00000170: b15d a6be 78d9 cabe a77c 49bf 295b ea3e
00000180: 6e2a f0be 9183 cd3e 0a6f 35bd bb3b 0e3e
00000190: a8cf 613b b4bb 163e f27c 10bf 022c fe3d
000001a0: 7074 6f3d 03db 16bd b40c 3f3d db96 623c
000001b0: 8599 98be 48ff 1dbf d6e7 4f3f 5ee1 913e
000001c0: 8b0c 893e 94f8 623f 7a96 4ebf eaba 223e
000001d0: 0157 bb3e 4e83 7a3e 6b24 c13d ce17 0a3c
000001e0: f890 283f af77 8a3e 1388 abbe 160d fbbd
000001f0: 8cd6 6d3d 8309 db3e 2282 7dbf 90da ad3e
-0.32367554 -0.24120678 -0.47747567 0.1028336 0.45350584 -0.021863338 0.20538284 -0.7820385
0.112707175 0.5990173 -0.0051909653 -0.18686189 0.280072 1.822148 0.031769045 0.16729994
0.16200991 0.10763758 0.5716254 0.46116337 -0.15974063 0.8164283 0.067131475 -0.8366342
-0.05101842 -0.25251803 -1.2925235 0.076639235 0.49167073 0.53602 0.79347515 -0.46662006
0.41957366 -0.47738647 -0.045924474 -0.056040067 -0.0685568 -0.11662219 0.5480124 -0.020244295
-0.1646876 0.058633402 -0.061398026 0.1551774 0.32251215 0.6101523 -0.88432735 -0.19810134
-0.21912737 -0.97602165 0.8080913 -0.18336432 -0.15763475 -0.2165862 -0.25832534 0.07418997
-0.6364562 -0.1921619 0.19664486 0.20328365 -0.21692714 -0.60561186 0.8643188 -0.2997288
0.36675626 0.32630602 0.53105265 -0.05334434 -0.2620983 -0.13786502 -0.22553818 0.7275776
-0.20271885 -0.62206423 -0.02879686 0.18673271 -0.3020292 -1.7692883 0.09103807 -0.3466407
0.0007914836 -0.10917776 -0.6377916 -0.45531705 0.022204192 -0.8444647 -0.095079616 0.7715168
0.05509087 0.21018046 1.2401471 -0.15683928 -0.32493356 -0.3961904 -0.7870583 0.45772675
-0.4690737 0.4013944 -0.04429535 0.13889973 0.0034456048 0.1472004 -0.5644065 0.124107376
0.058460653 -0.03682996 0.046642974 0.013829912 -0.29804626 -0.61717653 0.8121313 0.28492254
0.26767382 0.8866055 -0.8069836 0.15891615 0.36589816 0.24464151 0.09430774 0.008428527
0.65846205 0.27044436 -0.33502254 -0.12258355 0.058065936 0.42780694 -0.9902669 0.33955812

actor.bias f4 [2]
00000000: bc65 4b3d 7d6a 053e
0.04965757 0.13028903

critic.weight f4 [1, 64]
00000000: 3fca 97bf db5c 513f f792 753e d8da 253e
00000010: fd7f 093d ba74 063f 3990 413f 55d6 a3bf
00000020: cc6a 0a3f 8580 22bf 1cde 113f 3486 a73f
00000030: 3c0a 103f 362b 20bf 43ba 213f 0ad4 3b3e
00000040: 057e 253f a97d a13f 18dd 00bf 0f59 993e
00000050: ca99 973e c1b3 113e cceb bd3e 9af5 0abe
00000060: b492 513f 83ac 54bf 690a 9a3e e559 013f
00000070: 746a 293f 7a02 ad3c bf51 98bf 553d 94bf
00000080: 4bf0 733e 94a0 7bbf 653d ff3e 7041 383f
00000090: d6fe 113f b5b5 573f c1c0 4d3e 6eef 053f
000000a0: 63f2 5c3f afa8 f13e ae84 ac3f adde 7bbf
000000b0: 2eca 6abf 8929 92bf 5c72 5e3f f9ae 7b3f
000000c0: f5d2 7a3f c781 523f 27cf e83b ab85 81bf
000000d0: 0df1 92bf bef3 433f 5903 203f 5d55 853f
000000e0: fc5c 18bd 901c 8ebf 9402 b5bf b700 5f3f
000000f0: c249 7f3f 999f 82bf 2048 0fbf 28f6 86bf
-1.1858596 0.8178231 0.23981844 0.16196764 0.033569325 0.5252186 0.7561069 -1.2799784
0.5406921 -0.63477355 0.56979537 1.308783 0.56265616 -0.62565935 0.6317484 0.18342605
0.64645416 1.2616473 -0.5033736 0.2995076 0.2960952 0.14228727 0.3709396 -0.13570252
0.81864476 -0.8307573 0.30086067 0.50527793 0.6617806 0.021119345 -1.1899947 -1.1581217
0.23822133 -0.982919 0.49851528 0.7197485 0.57029474 0.8426164 0.20093061 0.52318466
0.8630735 0.47199008 1.3477991 -0.9838665 -0.9171475 -1.1418926 0.8689325 0.9831386
0.97978145 0.82229275 0.0071047726 -1.0118917 -1.1479813 0.76543796 0.6250511 1.0416676
-0.03719805 -1.1102467 -1.4141412 0.87110466 0.9972192 -1.0204955 -0.5596943 -1.0543871
