reinforcement_learning/actor_critic/actor_critic_750.pth (torch, 4834 bytes, 5 tensors)

fc1.weight f4 [64, 4]
00000000: 2ccc b43d 5d46 5b3e 0667 893d fc37 9b3e
00000010: bca7 8b3d deab 313f 7717 1840 c6c8 e33f
00000020: faed 67be cefb 67bd 91f0 10bf b3c0 91be
00000030: 78d8 4c3f dc69 823d fc8d 853d f6e0 30bd
00000040: eb9d 753d 44e7 b13e 229f 333f 5551 a23e
00000050: 08bd 2dbe 302d 20bf 2732 a3be e39b 08bf
00000060: 6a4b 3c3e 9e0b 2abe 6dd2 8a3e 1f3a 85be
00000070: 00dc e83d fa79 11bf 4eda 85bf 7361 1fbf
00000080: 2f1b 68be 30c8 f6be bed3 bbbf dce0 39bf
00000090: c988 78be b000 37bf 7836 14c0 1275 a0bf
000000a0: 58d0 0fbf fc2c c63e a0d8 203f 697b 2ebd
000000b0: d37a 02bd 4194 423e 0036 d1be 02ef 0abf
000000c0: fae0 343e be45 d4bd 87b4 253e 7df5 c9bd
000000d0: 1eca f03d 6428 7d3d 0b8d 74be a6ac b23e
000000e0: d699 113e 31b4 dbbd 46c0 f43d b408 e43e
000000f0: 479e 583e 1b38 07bd 5780 88bf 0d63 86be
00000100: 7828 41bf 85cb 98bd c21b 023e ea1d a43d
00000110: b40f 0dbf 3eb1 47bf eb43 18bf 1dd0 f0be
00000120: 11de debe f299 213d 1644 d0bd 1f9a 9bbd
00000130: ef81 bcbd 621c 3fbd 37ce abbe 2ade ecbd
00000140: 2502 59be 212c a53e b52b 80be 99b9 cc3e
00000150: 5ac9 92be f7cc 04be 164f 673c 728e a0bd
00000160: 10a1 d53e 40a4 ebbe 58bf 2abf db7c f53d
00000170: 5dce 853f 2c56 713c e1d8 e6be 48cb b5be
00000180: 306b 1fbf e38d 24bf 5686 72bf 0d58 21bf
00000190: 2a40 273f 8e74 523e bb1f 753e f7d0 c23d
000001a0: edf7 163f d050 743e cd2e 9d3e 547d 923e
000001b0: a7c4 413b bc08 683c f494 ce3e 9ef5 883d
000001c0: f0c7 633e b0bb 1e3d 603f 27bf fbb6 623e
000001d0: c8ba 36bd 7ea0 ecbe e039 00c0 bc2c 82bf
000001e0: e373 0dbe 5e50 8fbd cce8 e1bf 5e7d a2bf
000001f0: 51a9 2f3f 281f d53d 9f42 2e3f 46e1 c83c
00000200: 2477 a3bd 4d12 b23e d722 903e 4e58 20be
00000210: d767 2c3e 6f1e 5ebe 818c e3be b423 b9bd
00000220: e892 483b 4358 1b3e 5e42 0840 1c57 cf3f
00000230: 12eb f8bd 80bb bb3e 783d dd3f 6105 bc3f
00000240: a8c7 223f fa35 593e dd9b d53d c55f d03d
00000250: 3cd3 e7be ad70 f5be bbd1 cdbf 4d17 f8be
00000260: da77 0a3d 742c 9b3d 9d52 e93e 997d 943e
00000270: 2baa 7f3f cad6 e9be 758b 83bf 18a2 6abf
00000280: 5a9a 0fbf 96e9 06bf c673 6bbf bd31 77be
00000290: de33 abbe 1cff 46be 6e40 ccbd 0612 8fbd
000002a0: be13 5c3e cd2a 92be 96c9 23be 2ab3 dd3d
000002b0: 7e35 e43e 08a1 8fbe 4b89 a93d 5c2c 4cbe
000002c0: df40 303e 1266 f7be dbf8 47bf acf1 cebe
000002d0: b4d7 fcbd 0da8 a83e 2dfb 46bc 6c85 c9be
000002e0: 8245 7f3d 9aa5 84be 4f48 663e 015e 863d
000002f0: 1a6b c03e f8e0 8cbe 0451 54bd 0d22 73be
00000300: a100 2c3f e0bc 543e 0241 ff3f 0e22 153f
00000310: 2b5d 16bf 1a61 4f3e 00f3 febe ba44 7a3e
00000320: a851 1abe f218 ec3e 689c 49be 10b9 873d
00000330: 130a 51bf 1cc1 3b3f 6098 1040 8ff6 223f
00000340: 49f1 c7be 1f88 aa3e 1433 c63e af11 96be
00000350: 1d4b 00bf e2bc 683e 7db8 4cbe 18a2 21bd
00000360: 8603 a1bd 49c8 84bf a7b6 93bf dc26 91be
00000370: e3c9 95be 068f 67be 2c72 07bf 828d 173e
00000380: 0060 2bbe 4e8c d53e 1fd5 af3e 27db 4f3e
00000390: e87a 13bd 365c dc3e 9b0b 463f 18f7 103f
000003a0: 66a0 26bf 90de ca3e f91c 013d 4507 e43e
000003b0: 26b5 c93d da6e a53e 6f3c 49be 90b0 883c
000003c0: 6e15 a2be e502 e23e e9e6 d3be 06bd 783e
000003d0: 52c7 4e3f 3092 693d e9de 87be 61a9 ebbc
000003e0: a1c1 24bf f57f 03bf 372e f7bd f434 96be
000003f0: 0727 803d df3a 69be 1f47 b33f f29f e53f
0.08828005 0.2141356 0.06709103 0.3031615 0.06819102 0.69402874 2.3764322 1.7795646
-0.22649375 -0.056636624 -0.56617075 -0.2846733 0.80017805 0.06367847 0.06521222 -0.04318329
0.059965055 0.34746754 0.7016469 0.31702676 -0.16966641 -0.6256895 -0.318742 -0.53362864
0.18388143 -0.16605994 0.27113667 -0.26020905 0.11370087 -0.56826746 -1.0457246 -0.6225807
-0.2266662 -0.48199606 -1.4673994 -0.72608733 -0.2427093 -0.71485424 -2.3158245 -1.2535727
-0.5617728 0.38706195 0.62830544 -0.04259816 -0.031855416 0.19001867 -0.4086151 -0.54270947
0.17663947 -0.10364865 0.16182147 -0.09861276 0.11757301 0.061806098 -0.23881929 0.34897345
0.1421884 -0.10727728 0.11950736 0.4453789 0.21154128 -0.03301249 -1.0664166 -0.26247445
-0.75452375 -0.07460693 0.12705901 0.08013518 -0.55102086 -0.78004825 -0.59478635 -0.47033778
-0.43528798 0.039453454 -0.10169236 -0.07597756 -0.0920447 -0.046657927 -0.33555767 -0.11565812
-0.21192224 0.3226023 -0.25033346 0.3998535 -0.28669244 -0.12968813 0.014117977 -0.07839669
0.41724443 -0.4602375 -0.6669822 0.11986705 1.0453602 0.014730018 -0.4508734 -0.35506654
-0.6227293 -0.64279 -0.9473623 -0.6302498 0.6533228 0.20552275 0.23937885 0.09512513
0.58972055 0.23858953 0.3069977 0.28611243 0.0029566677 0.014162239 0.40348017 0.06687473
0.22244239 0.03875321 -0.6533108 0.22140114 -0.044611722 -0.46216196 -2.0035324 -1.0169902
-0.13813739 -0.06997751 -1.7649169 -1.2694509 0.6861773 0.10406333 0.68070406 0.024521481
-0.07981709 0.34779587 0.2815158 -0.15658686 0.16836487 -0.21691297 -0.44443133 -0.09040013
0.003060514 0.15170388 2.1290507 1.6198459 -0.12154211 0.3666649 1.7284384 1.4689142
0.635859 0.21211997 0.10430119 0.101745166 -0.45278347 -0.47937527 -1.607963 -0.48455277
0.033805706 0.07576838 0.4557084 0.29002073 0.9986903 -0.45671684 -1.0276934 -0.91653585
-0.56094897 -0.52700174 -0.9197353 -0.24140067 -0.3343801 -0.19433254 -0.099732265 -0.069858596
0.21491906 -0.2854828 -0.15994868 0.108251885 0.4457206 -0.28052545 0.0827814 -0.19938797
0.17212246 -0.4832006 -0.781141 -0.40418756 -0.123458296 0.32940713 -0.012144846 -0.39359605
0.062322147 -0.25907594 0.22488521 0.065608986 0.37581712 -0.27515388 -0.051835075 -0.23743458
0.6718846 0.20775175 1.9941714 0.5825509 -0.58735913 0.20251885 -0.4979477 0.2444028
-0.15070212 0.46112782 -0.1968857 0.06627095 -0.81656 0.73341537 2.2593002 0.6365747
-0.39051273 0.33306977 0.38710845 -0.29310367 -0.50114614 0.22728303 -0.19992252 -0.039461225
-0.07862 -1.0373622 -1.1540116 -0.2834996 -0.2925559 -0.22613153 -0.5290859 0.14800075
-0.1673584 0.41708606 0.34342286 0.20298444 -0.036005884 0.430391 0.7736146 0.56627035
-0.650885 0.39622927 0.03152177 0.44536796 0.098490044 0.32311136 -0.1965196 0.016685754
-0.31656975 0.44142833 -0.41387108 0.24290857 0.8077289 0.05702418 -0.26537254 -0.02876729
-0.64357954 -0.5136712 -0.12069362 -0.29337275 0.06257444 -0.22776364 1.400608 1.7939436

fc1.bias f4 [64]
00000000: 8d78 873f 3e34 7a3e 21b6 643f c12a 87bf
00000010: dc97 8cbf 6bd3 56bf 5b15 a03f be10 01bf
00000020: 56fd 34be 4785 d93e d89c 733f 3307 923f
00000030: d764 a03f 6a87 a13f 50d7 4e3f 178d c53e
00000040: c9e5 96bf 08a8 82bf f883 8ebf 130f 563f
00000050: a376 023e b780 813f 9744 7a3f 740c ebbe
00000060: a8b5 83bf 0650 73bf d0a7 083e a045 84be
00000070: 649e 7d3f bbda d13e bc8a 5c3f f321 7abf
00000080: 9691 8e3f e353 7a3f 0fbd 193e 90c0 273d
00000090: 6ad1 61bf aa09 4cbf c570 883f 9e0b c73e
000000a0: 3854 71bf d875 a43f 1136 aa3f 5fee 8bbf
000000b0: 1190 783f 82b1 9f3f 3b57 923f b0fb 76bf
000000c0: bbe7 f5be e7bb 8a3f d473 613f 2027 16be
000000d0: 70f6 593f 9006 643f aa07 ad3e 3392 b23f
000000e0: decf 513f 563e 2fbf bb76 59bf d6fc a03f
000000f0: 0924 3b3f 66cd 86bf d3f5 92bf 8260 073e
1.0583664 0.24433991 0.89340407 -1.0559922 -1.0983844 -0.8391635 1.2506517 -0.5041617
-0.17674765 0.42484495 0.951612 1.1408447 1.2530774 1.261945 0.8079729 0.38584206
-1.1788875 -1.0207529 -1.1134024 0.8361675 0.12740569 1.0117406 0.9776091 -0.45907938
-1.0289812 -0.9504398 0.13345265 -0.2583437 0.9906981 0.4098719 0.8614919 -0.9770805
1.1138179 0.9778425 0.15013526 0.040955126 -0.88210166 -0.79702246 1.0659415 0.3887605
-0.9426913 1.2848463 1.329775 -1.093212 0.9709483 1.2476046 1.1432871 -0.96477795
-0.4802836 1.0838593 0.88067365 -0.14663363 0.8514166 0.89072514 0.3379491 1.3950866
0.81957805 -0.6845449 -0.84946793 1.257716 0.7310186 -1.0531433 -1.148127 0.13220409

actor.weight f4 [2, 64]
00000000: 93c3 483e 92e6 b4bf 65f7 c03d 176f 73be
00000010: 088a 11bf 5b24 8e3e eb86 923e 21a5 ed3e
00000020: 45ee 853f 006e e13f a606 96be 2399 c73e
00000030: ac80 823e fe10 9c3d 688e 0d3d 4e42 d13e
00000040: 7541 373e 699a 2e3e 0662 50bd e741 4c3e
00000050: 5f22 76be b566 acbe 4937 e23e b274 7b3e
00000060: 0bc9 b93e 85e4 7cbe 4d23 edbd f0f4 843c
00000070: 1039 7b3e 69a3 993f c750 82be 24d3 aebe
00000080: bf7e 0b3e 337a 8d3e 024a 19bf 29de 33bf
00000090: ff0a 213e e55f 2d3f d952 a83d 0f39 8f3f
000000a0: 97ee 0c3e fdb7 c5be 70b9 6b3e 77c6 95bc
000000b0: 55c1 ce3e 69fc 613e 5a8f f83d e7e1 0fbe
000000c0: 8fe4 0cbf 8e5e 31bf a429 283e 785c 04c0
000000d0: 3055 0dbd 0b82 04bf 4b49 973d 3013 9ebe
000000e0: f00a cf3c d2a9 473e 83b1 18be 5570 133e
000000f0: 03b8 933d bc2e a0be f808 07be d97c 14bf
00000100: 4bcf 05be 058f b73f 0283 b13d 5722 7c3e
00000110: eff0 0a3f 16e0 d4be 6f09 59be 0f8c 02bf
00000120: 6dd7 71bf 2d2b d6bf a972 cd3e f59a aebe
00000130: 1317 84be d7e5 4abe 8ece 04bd 22c0 04bf
00000140: 4053 ccbd 40b5 58be 29e4 6e3d c32f 7bbe
00000150: 06ec da3d 61e2 923e c0f0 b4be 8bb7 1cbe
00000160: 32f5 bfbe c8c0 9d3e f70e 143d 7962 0b3d
00000170: ec18 7dbe 0d00 a4bf a8f7 393e b18f d63e
00000180: 6a2a d9bd d75c d4be 8504 3d3f 0540 223f
00000190: 4264 56bc 804c 15bf 3709 b5bc 7d2f 84bf
000001a0: 3f3c a6bc efdf 993e 6f7d 28be 15d7 b43d
000001b0: 6ff8 04bf 40f8 5cbe 115c 80bd 176e 993d
000001c0: f560 ff3e 0cb1 3a3f 4964 61bd 97b2 fb3f
000001d0: e4f4 803d 6cd0 d83e 26ab b2bd 67ad 363e
000001e0: 452f 72bd 3f61 93be 2cd5 7c3e 6087 57be
000001f0: af3c a93d f43f 5e3e 59e3 e23c 6442 fc3e
0.19605856 -1.4132864 0.09422187 -0.23772846 -0.56851244 0.27762112 0.2861856 0.46415046
1.0463339 1.7611694 -0.29301947 0.38984022 0.25488794 0.076204285 0.034559637 0.408709
0.17896064 0.1705109 -0.050874732 0.19947015 -0.24036549 -0.3367211 0.44182804 0.24556234
0.36286196 -0.24696548 -0.11578999 0.016230077 0.24533486 1.2002994 -0.25452253 -0.34145463
0.13622569 0.27632293 -0.5987855 -0.70260864 0.15726851 0.6772445 0.08218927 1.1189288
0.1376289 -0.38616934 0.23019958 -0.018283112 0.40381876 0.22068943 0.12136717 -0.14051019
-0.5503625 -0.69284904 0.16422135 -2.0681438 -0.03450507 -0.5176093 0.073870264 -0.30874014
0.02527377 0.19498375 -0.14911465 0.1439832 0.07212832 -0.31285655 -0.13187015 -0.58003
-0.13067357 1.4340521 0.08667566 0.24622475 0.54273885 -0.41577214 -0.21195005 -0.5099496
-0.9446934 -1.6731926 0.4012654 -0.34102598 -0.25798854 -0.1981424 -0.03242355 -0.5185567
-0.09976816 -0.21162891 0.05832306 -0.24529938 0.10689549 0.28688338 -0.35339928 -0.15304391
-0.37491757 0.30811143 0.036147084 0.034029458 -0.24716538 -1.2812515 0.1816088 0.41906503
-0.10603793 -0.4147708 0.7383502 0.63378936 -0.013085427 -0.58319855 -0.02209912 -1.0326992
-0.0202924 0.3005366 -0.16454099 0.08830086 -0.5194158 -0.21579075 -0.0626756 0.07491701
0.4987866 0.729264 -0.05502728 1.9663876 0.06296709 0.42346513 -0.0872405 0.17839585
-0.05912711 -0.2878513 0.24690694 -0.21047735 0.082635276 0.21704084 0.027696298 0.49269402

actor.bias f4 [2]
00000000: 28f6 b83d e089 f6bd
0.090313256 -0.12038016

critic.weight f4 [1, 64]
00000000: 9774 323f f756 22be 9dc0 383f ef18 89bf
00000010: b785 73bf ab28 2dbf b56e 3d3f c299 26bf
00000020: b952 61bf 6c84 c7bb ec12 3b3f 1941 dd3e
00000030: b06f 313f 0f84 1a3f d84d c73e 4f04 a73d
00000040: b98a 81bf 786f 78bf 6aec 8bbf 4f9e 063f
00000050: a9fc 753e 0cc4 643f 6284 253f 5679 84bf
00000060: d23f 26bf dd4e 7dbf d8df b93e bbf6 0cbd
00000070: c4d0 293f af3a a5be 2c44 823e cd55 6dbf
00000080: f436 053f 3ae0 103f 4fb0 37bd 174e 03bd
00000090: c968 8bbf 4c52 91bf 9af0 0d3f f1f4 8dbf
000000a0: 5a1a 7dbf 5786 7e3f dd47 0d3f fdb8 6cbf
000000b0: ba47 3d3f 956c ca3e 38e8 183f ff16 2fbf
000000c0: 9935 5cbf 141d ae3f ecd9 013f b5ec 46bf
000000d0: 79a9 ae3e 7560 843f 7b0e c33e 833e 433f
000000e0: db9f 313f 8057 61bf d1f8 65bf cec6 3f3f
000000f0: cc68 0d3f 8d5f 99bf 98b1 56bf 5962 753c
0.6970915 -0.15853487 0.72168905 -1.0710734 -0.9512591 -0.6764018 0.7399705 -0.65078366
-0.8801685 -0.006088784 0.7307575 0.43213728 0.69311047 0.60357755 0.38926578 0.08155119
-1.012046 -0.9704509 -1.0931523 0.5258531 0.24022163 0.89361644 0.64655125 -1.0349529
-0.6494113 -0.9894846 0.36303592 -0.034414988 0.66334176 -0.32271335 0.25442636 -0.92709047
0.52036977 0.5659214 -0.044845875 -0.032056894 -1.0891353 -1.135324 0.55445254 -1.1090375
-0.98868334 0.99423736 0.5518778 -0.9246977 0.7393757 0.39535967 0.5972934 -0.68394464
-0.86019284 1.3602624 0.5072315 -0.77704936 0.34113672 1.0341936 0.38096985 0.7626726
0.69384545 -0.8802414 -0.8983279 0.74912727 0.5523803 -1.1982285 -0.83864737 0.014977061
