reinforcement_learning/actor_critic/actor_critic_250.pth (torch, 73334 bytes, 9 tensors)

fc1.weight f4 [128, 4]
000000 a7 37 c0 be 3f 15 d9 be fb e0 21 bf 24 39 19 bf
       -0.3754246 -0.42399022 -0.6323392 -0.59852815
000010 79 20 fd bd 5a 59 89 3e b7 7b 59 bd 10 fc 84 be
       -0.12359709 0.26825982 -0.0530965 -0.25973558
000020 bc 89 2d bd 0d 8b 5b be 93 7d 41 be 9a c6 7d 3e
       -0.04236768 -0.21439762 -0.18895559 0.24782792
000030 32 a2 0d 3e 4b 65 c7 bd d7 97 8e be 19 ae ca bd
       0.13831404 -0.09736117 -0.2785022 -0.09896488
000040 1e 37 0e 3e b9 34 5b bd e6 07 c2 be 89 26 e1 be
       0.13888213 -0.053517077 -0.3789665 -0.43974712
000050 14 fd 24 be 60 51 2e bd a3 31 08 bf fa 96 ba 3e
       -0.16112167 -0.042558074 -0.5320074 0.3644331
000060 59 73 bc bd 38 3a 2b 3e 3a 90 83 bd 28 17 b6 be
       -0.09201688 0.16721427 -0.064239934 -0.35564542
000070 7c d0 47 be 69 52 b0 be 1f 15 84 be 5a 7e 90 be
       -0.19513124 -0.34437874 -0.25797364 -0.282214
000080 a7 74 0c bf b5 8b 7c be 4c 2b 7d 3e a4 ea 47 bc
       -0.548655 -0.24662669 0.24723548 -0.012201939
000090 9f d6 d2 be bd eb 9f 3e 93 ab e9 3e d9 f8 31 3d
       -0.41179368 0.31234542 0.45638713 0.04345021
0000a0 0d 06 82 3d 70 46 8d 3e 0e 47 6d 3e 15 f8 15 bd
       0.0634881 0.27592802 0.23171636 -0.036613543
0000b0 dc 1a fe 3e 7d 6c da bd 68 3e 04 3f 97 96 8e 3e
       0.49629867 -0.10665224 0.51657724 0.27849266
0000c0 71 6c 1c 3e a8 db f8 be 6d 8e 95 be 22 e8 40 be
       0.15275742 -0.48605084 -0.29210225 -0.18838552
0000d0 79 b2 81 3e df 73 aa be 29 5b 89 3d ca bd f3 3d
       0.25331476 -0.33291528 0.067068405 0.11901434
0000e0 20 a4 26 3e b1 5e d6 3e ad 03 a5 be f3 47 01 bf
       0.16273546 0.4186912 -0.32229367 -0.5050041
0000f0 b1 a7 c2 be 78 fd ca 3e ad 0f c7 3e 85 20 af 3c
       -0.38018563 0.39646506 0.38879147 0.021377811
000100 a0 61 06 bf a2 93 ba 3c e1 9e 0f 3e 61 95 95 3e
       -0.52492714 0.022775475 0.14025451 0.2921553
000110 ae b2 04 3f a7 62 b8 3e ff 8a 7c bd 2e 32 63 3e
       0.51835144 0.36012766 -0.061655995 0.22187111
000120 41 50 02 3f a8 72 e4 3e 78 b0 bc 3e 4a b0 66 3e
       0.5090371 0.44618726 0.36853385 0.22528186
000130 2f 52 2a 3e b5 97 fb be a0 5d cf be fb 1c 9d 3e
       0.16632913 -0.4913918 -0.40501118 0.30686173
000140 f1 fa 4c be 3f ce 4a 3d 38 c9 25 3e 20 b9 8c 3e
       -0.20017602 0.049513098 0.1619004 0.2748499
000150 4f 0d 85 be 1e 9d 98 3d 54 54 9e be f9 9b 8d 3e
       -0.25986716 0.07451843 -0.30923712 0.2765806
000160 e2 e6 d7 3d 5b 12 ad bd 22 ae 84 be 25 85 09 3c
       0.10542084 -0.08450767 -0.25914103 0.008393561
000170 1e fa 39 be ee 20 a9 be e1 84 ac bd 85 02 b6 bd
       -0.18161818 -0.33032936 -0.08423782 -0.08887199
000180 c5 6f b8 3e 74 60 85 3e 44 ef 1f 3e ca f5 ae 3e
       0.36022773 0.2605015 0.15618616 0.34171897
000190 78 ad ab be 0c 8e 88 be 7d bb 36 3e b7 d2 d5 3e
       -0.33530784 -0.26670873 0.17844959 0.41762325
0001a0 76 75 13 bd 71 af c6 3d 1f 03 5a be 75 a5 44 be
       -0.03600069 0.097014315 -0.21290253 -0.19203742
0001b0 92 0f 1f be bd a2 4f be f4 46 fb be 6e 1b fb 3e
       -0.15533283 -0.20276923 -0.4907757 0.49044365
0001c0 9e 12 6a be a1 88 c1 be 2b d2 a7 be 20 8d 04 bf
       -0.22858664 -0.37799552 -0.32777533 -0.5177784
0001d0 93 0a b7 3e a8 4f 4d 3e 82 e3 c0 3e 17 e9 44 bd
       0.35750255 0.20049918 0.37673575 -0.048073854
0001e0 fc ff 9f 3e 0a 48 12 3e af 14 a3 3d c3 8f b7 3a
       0.31249988 0.14285293 0.079629295 0.0014004636
0001f0 16 48 2e 3e 9b df 33 be 9b 36 ef be 4f 0f ba bd
       0.17019686 -0.17565767 -0.46721348 -0.09084951
000200 d4 6a 94 3e bc 65 2d bd fe 79 a6 3e 67 87 ca be
       0.28987753 -0.04233335 0.32514948 -0.3955643
000210 7d 79 65 3d 79 19 07 bf ba 2c 91 bd cd 70 cb be
       0.056024063 -0.52773243 -0.07088609 -0.39734498
000220 dd af 8f be 94 c7 4e be b7 ce f8 be 50 70 b4 3e
       -0.2806386 -0.2019332 -0.4859521 0.35241938
000230 84 35 51 be ea e1 24 be 08 0b 51 3c 75 80 8f be
       -0.20430571 -0.16101804 0.012758978 -0.28027692
000240 b7 8d e2 be aa af 9d be f6 76 9b bd f2 12 aa be
       -0.44248745 -0.30798084 -0.075910494 -0.3321758
000250 7e ca b2 3e bc 31 74 be 6f 8f 06 3f 32 e1 39 3d
       0.34920114 -0.23847097 0.5256261 0.04538078
000260 2c 6d 02 3e 60 fe 53 3e fe 9f fd 3d 64 91 be 3e
       0.12736958 0.20702505 0.12384032 0.372203
000270 7d 3d 22 bc 05 6f b4 be a9 1a 37 3e 37 25 16 be
       -0.009902355 -0.3524095 0.17881264 -0.14662634
000280 ff e3 d1 be 7d 29 5c 3e c7 dc da 3e 98 4e c0 bd
       -0.4099426 0.21500202 0.42746565 -0.093899906
000290 84 0b 5b 3e a7 19 49 be 20 a0 cf be 65 e6 da 3c
       0.21391112 -0.19638692 -0.40551853 0.026721189
0002a0 b9 e0 b8 3e b4 a4 cb 3d 41 0e c8 be 86 f1 d5 be
       0.3610895 0.09943524 -0.39073375 -0.4178583
0002b0 d9 e4 dc bd f3 52 89 be da 22 bd be 85 bc 1a 3e
       -0.10785837 -0.26821098 -0.36940652 0.15110977
0002c0 ff 0e 80 3e 70 b4 c3 bc 72 ec f5 3e 0d d5 43 be
       0.2501144 -0.02388975 0.48031956 -0.19124241
0002d0 64 78 71 3e 7e e3 80 3e 03 d7 02 3f 3a ce b4 3e
       0.23581082 0.25173563 0.5110933 0.35313588
0002e0 d4 75 cb 3e 5a 8a e4 be ed e4 0e 3f 1c 79 2c 3e
       0.39738333 -0.44636804 0.55818063 0.16843075
0002f0 30 fb d7 be 13 6b ff be 8a 8c 78 be a8 6b 36 3d
       -0.42183828 -0.4988638 -0.24272361 0.044536263
000300 df 4c 63 3e d2 8c 00 be e7 30 0e bf c6 93 b4 3e
       0.22197293 -0.12553719 -0.5554337 0.35268992
000310 f2 9d a8 be b3 c3 72 3e 65 e8 8c bc 8a 98 98 3e
       -0.32933003 0.23707466 -0.017200658 0.29803878
000320 77 fa 5f be be bc 58 be 72 c8 a3 ba 8a d3 c7 bd
       -0.21872889 -0.2116575 -0.001249565 -0.09757145
000330 64 8e 83 3e 1a 59 8a be 2d b0 a5 3c de bb e4 3e
       0.25694573 -0.27021104 0.020225609 0.4467458
000340 30 c2 92 3e 24 21 90 3e f9 a1 5c 3e d2 ed ea be
       0.28663778 0.28150284 0.21546163 -0.45884567
000350 e9 cc 11 3e 4b 70 8f 3e 9e c3 38 be ad 42 76 be
       0.14238323 0.2801536 -0.18043372 -0.24048872
000360 46 93 06 bf 10 50 7a bd a0 5b 98 3e 3c 04 8a 3e
       -0.5256847 -0.06111151 0.29757404 0.26956356
000370 de 6c 96 3e fc 14 4d 3d d6 8c 8f 3e 22 76 c9 3e
       0.29379934 0.05006884 0.28037137 0.3934794
000380 e4 35 91 3e ae ff 6b be 6a fc 8f be 68 28 57 3e
       0.28361428 -0.23046753 -0.28122264 0.21011508
000390 b8 ba 40 3e 9f 62 4e be 66 f0 35 be dd a9 14 bd
       0.18821228 -0.20154808 -0.17767486 -0.036294807
0003a0 bf ca 07 bf 93 f0 00 bd 42 bb 26 bb 2f 68 3f be
       -0.5304374 -0.03147943 -0.0025441204 -0.18692087
0003b0 49 bd 6a bd 0b ae bb be 3d 11 d5 3e d6 3b 19 3e
       -0.057309423 -0.36656222 0.41614714 0.14964232
0003c0 c3 56 a3 be c9 b3 df be 7e 9c 35 be e2 13 9d 3d
       -0.3190213 -0.43691853 -0.17735478 0.07669808
0003d0 f8 11 e8 3c d9 53 cd be 61 00 93 3e 13 38 96 bd
       0.02832888 -0.40103033 0.28711227 -0.07334914
0003e0 91 ea 9c 3e aa ea 30 3e c1 a6 58 3e a2 0a 0f 3e
       0.3064771 0.17277017 0.21157362 0.139689
0003f0 95 9a c9 3e 1d 81 1b be 12 49 d9 3e 75 d0 04 3f
       0.3937575 -0.15185972 0.4243856 0.5188058

fc1.bias f4 [128]
000000 6d 9f 5b be 40 08 57 3e 57 2b 75 3d 80 91 52 3e
       -0.21447535 0.20999241 0.059855785 0.20563316
000010 57 4f d4 3e 0e 31 89 3e 6a 4b 25 3e 61 f3 2a 3f
       0.41466781 0.26795238 0.1614205 0.66777617
000020 50 1b 8e be e3 c3 f2 3e 88 72 af 3e 98 b9 9e be
       -0.27755213 0.47415075 0.34267068 -0.31000972
000030 44 94 ca be 9b ca b1 bd e1 1f 11 3d 54 36 4d 3e
       -0.39566243 -0.08681222 0.035430793 0.20040256
000040 98 be a8 be f7 3d 35 be d6 7b 44 be 69 33 bd 3e
       -0.32957911 -0.17699419 -0.19187865 0.36953285
000050 39 0d bd 3e f5 0c c8 3e 33 70 3b be 0a 12 93 bd
       0.3692415 0.39072385 -0.1830452 -0.07181175
000060 ff 26 1f 3f 12 19 0b 3f b4 1c ad 3e 85 7a cf 3e
       0.6216888 0.5433513 0.3381096 0.40523162
000070 78 a6 b0 3d 64 26 b0 3e de 06 9f 3e 4e 6e 60 3e
       0.086255014 0.3440429 0.31059927 0.21917078
000080 e6 53 0f 3f 8d 71 72 be aa 17 43 3e d2 90 eb 3e
       0.55987394 -0.23676129 0.19051996 0.46008927
000090 4b 7e ba be 80 de d8 bd c7 3c a7 be 12 25 c6 3e
       -0.3642448 -0.105893135 -0.32663557 0.38700157
0000a0 9c b9 af 3e 9b b7 32 3e 7e e7 42 3c d7 a9 b3 be
       0.34321296 0.17452852 0.011896012 -0.35090515
0000b0 13 8d 39 be 3e 2f ab bd 15 fa ae be ce a0 ba 3d
       -0.18120222 -0.0835862 -0.34175172 0.09112702
0000c0 e7 26 15 be 5a cf 85 3e a1 7e 5e 3e 45 dc 8a bd
       -0.14565621 0.2613476 0.21727993 -0.06780294
0000d0 2a 71 8a be 8a 4a 8b be ae f3 da bd 05 74 19 3f
       -0.27039462 -0.27205306 -0.106910095 0.59942657
0000e0 89 ac 02 3f 18 24 b1 3e c7 e0 61 be fa 7e c3 3e
       0.5104452 0.3459785 -0.22058402 0.38182813
0000f0 5d 71 fe bd 76 e6 54 3e d9 7c 3f be 4a 95 3b bd
       -0.12423966 0.20791039 -0.1869997 -0.04579667
000100 18 c7 bf be d0 9d 77 3e 23 eb 79 3e 70 b1 0e 3e
       -0.37456584 0.24181294 0.24406104 0.13934875
000110 fb e9 d0 bd d1 b1 e4 3e 09 b3 dd 3e 41 8e 6d be
       -0.10200878 0.44666913 0.43300655 -0.23198797
000120 e8 2c bb 3e d3 e5 8a be 1a 24 cc 3e e6 04 9b be
       0.36557698 -0.27128467 0.39871293 -0.30277175
000130 13 45 5e 3d 8e 86 28 3f c7 ab fb 3e de 76 28 3f
       0.054265093 0.65830314 0.49154493 0.65806377
000140 d9 34 ac 3e 42 2e 17 bd fd 35 6a 3d 6f ac 4c 3e
       0.3363407 -0.03690935 0.057180393 0.19987653
000150 af 52 a0 bc 6c 2e 76 3e 9d ac 06 3f 60 16 6e be
       -0.019570677 0.24041146 0.52607137 -0.23250723
000160 64 25 09 3f 6f 51 16 3f 01 a8 8d be a3 9a b3 be
       0.5357268 0.5871801 -0.2766724 -0.35078916
000170 12 00 6c be 44 ba 38 be ab 4c 29 3f f0 47 e6 3e
       -0.23046902 -0.18039805 0.6613261 0.4497676
000180 a4 d0 b1 bd a1 81 88 3e 7e b0 37 3e ac e2 da be
       -0.08682373 0.266614 0.1793842 -0.42751062
000190 0d 6c 63 bd 85 af df 3d 6f e6 0e 3f f3 2f 68 be
       -0.055522967 0.109221496 0.55820364 -0.22674541
0001a0 93 b5 b5 3e 1a f9 32 3e 04 5d 08 3f db a2 67 3e
       0.35490093 0.17477837 0.5326693 0.22620718
0001b0 fd a0 e6 be ac 6c 9b 3e ba bb 26 be 23 c3 80 3e
       -0.450447 0.30356348 -0.1628255 0.25148878
0001c0 e1 d1 9b be 91 a9 9b 3e 46 36 bf be d5 05 21 3f
       -0.30433562 0.30402806 -0.37346095 0.62899524
0001d0 ab ee ca be 84 25 58 be c0 0e c8 3e 5e 91 17 bd
       -0.39635214 -0.21108061 0.39073753 -0.037003867
0001e0 3c 4e 04 3f dc 64 0f be 4a 5d be 3e cb a9 45 3e
       0.51681876 -0.14003319 0.3718055 0.19303052
0001f0 2a e1 f4 be c4 4a c2 3e 4c 39 b7 3e 42 cd 04 3f
       -0.47828037 0.37947667 0.35785902 0.518757

actor_fc1.weight f4 [64, 128]
000000 7f b3 c4 bb 27 b4 e0 bc bf 8e 93 bd 65 42 02 3e
       -0.006002843 -0.027429653 -0.07204961 0.1272064
000010 aa 40 f0 3b e0 4f 71 bd 6e a2 db bc 55 5e 57 3c
       0.0073319273 -0.058914065 -0.026810851 0.013145049
000020 1f 33 9e 3d d1 8b c6 bd f4 dd 5c bc fc 2c c6 3d
       0.07724594 -0.096946366 -0.013480652 0.09676549
000030 cd 3d 1c bd 28 2b ba 3c 86 d8 85 3d ff 22 c8 bd
       -0.038144875 0.022725657 0.06535439 -0.097723
000040 c0 f0 8a 3d ea 81 9b 3d 69 b3 da bb d3 81 0a 3d
       0.06784201 0.075931385 -0.0066742194 0.033815216
000050 c7 bf a4 bd 2d 13 96 bd ab 71 87 3d 06 a7 e1 3d
       -0.08044391 -0.07327876 0.06613477 0.11018185
000060 dd d5 ee 3b 43 6f a6 3b fa a8 26 bd c4 48 e9 3c
       0.007288678 0.0050791814 -0.040688492 0.02847708
000070 ce 5e 2f 3c 5c 55 fe bc 4e f2 68 3d 73 2b 11 3e
       0.010703756 -0.031046562 0.056871705 0.14176731
000080 6c f3 8f 3d 59 30 ab 3d 0e fe db 3c d5 2b 5c 3c
       0.07028851 0.08358831 0.026854541 0.013438185
000090 4c 4a 84 3d b9 f3 68 3d 86 c1 76 3d f0 03 80 3c
       0.064594835 0.056873057 0.060243152 0.015626878
0000a0 fb a1 4a 3c a6 52 d2 3d ec 0d 3c 3d d5 cc c4 3c
       0.012367721 0.1026967 0.045911714 0.024023453
0000b0 51 ec 04 bd a0 ff b3 bc 0d 3e b3 bd 9e bb 34 bd
       -0.03245193 -0.021972477 -0.087520696 -0.04412424
0000c0 cb 27 0f bb 76 f6 a5 bd 26 c5 82 3d ca ac fb 3a
       -0.0021843787 -0.08103649 0.06385259 0.0019201275
0000d0 be ad b0 3d c8 e1 28 3d b1 93 f6 ba 8f 72 fb bd
       0.08626889 0.041230947 -0.0018812326 -0.1227771
0000e0 ba bd 2d bc 90 e7 52 3d ba a3 34 bd bb a5 1d 3d
       -0.010604316 0.051490366 -0.044101454 0.03848813
0000f0 d7 d8 60 bb d8 b9 20 bd 0b fc ab 3d 14 28 8d bd
       -0.0034308934 -0.039239734 0.08397683 -0.0689241
000100 31 98 81 bd 49 b5 5e 3d 7a 1e 48 3d 36 15 a5 3d
       -0.06327856 0.054372106 0.04885719 0.08060686
000110 eb f6 e1 bc 91 e7 9b bd fe 84 24 3d 8b 17 a2 bd
       -0.02758356 -0.07612527 0.040165894 -0.07914647
000120 5e a9 bc bb 49 b3 8c 3c 67 d1 6b 3d 05 6b ff 3c
       -0.005757495 0.017175334 0.05757275 0.03117896
000130 37 b1 4f bd df 68 87 bd 73 9c b3 3d f6 e3 8e 3d
       -0.050706115 -0.066117994 0.08770075 0.06977074
000140 5d 00 17 bd 46 f9 a9 3d 7c ce 0e 3d 7b 2b 4b bd
       -0.03686558 0.08299498 0.034864888 -0.049602013
000150 d5 b6 c6 bb 58 80 70 3d 23 32 69 3d 83 26 6d 3d
       -0.0060642757 0.05871615 0.05693258 0.057898056
000160 0b 9f ad bc 5d 17 1b 3c fa f7 d7 3d ea a2 82 bd
       -0.021194002 0.009466019 0.10545345 -0.0637873
000170 ac cc 3f bd e8 f8 40 bd 67 d6 a3 3d 5a ac 5d 3d
       -0.04682605 -0.047112375 0.079998784 0.054119445
000180 2f 89 98 bc 3f 4b a6 bc c0 e1 14 3e 31 e8 a1 bb
       -0.018620102 -0.020299552 0.14539242 -0.0049410095
000190 71 d4 a3 bd c3 10 83 3d 38 57 8f bb 98 df 12 3d
       -0.07999504 0.063996814 -0.004374411 0.035857767
0001a0 93 d0 64 bd de c2 af 3c 16 8c 28 3d 61 52 cd bd
       -0.055862974 0.021455225 0.04114922 -0.10025478
0001b0 f2 c6 0f bd da b4 27 bc 9a a2 65 3c d9 6f d1 bd
       -0.03510184 -0.0102359895 0.014015818 -0.10226411
0001c0 48 5b 15 bd ef a8 b2 3d a5 25 2c 3d 42 af 52 3d
       -0.036464006 0.08723628 0.042028088 0.05143667
0001d0 f2 0d 1b bd a7 ce 1e 3d a0 79 63 bd 4f bf 0c 3d
       -0.037855096 0.038771298 -0.055535913 0.034362134
0001e0 4c d7 81 3d 27 76 21 3d a8 e3 7e 3d 38 8d af 3d
       0.06339893 0.03941932 0.06222883 0.08571857
0001f0 46 a3 07 3b 52 9f 00 3c 2a 4a e3 bc 37 6c 16 bb
       0.0020696684 0.007850485 -0.027745325 -0.0022952685
000200 5e cc 0b be 02 fe a5 bd 6b 2f b7 bc 46 1e 59 bd
       -0.13652179 -0.08105089 -0.022361478 -0.053007387
000210 ca a0 f8 bd ce fe 1e bd 87 ff 87 bd 68 9b 3c 3c
       -0.12140043 -0.03881722 -0.06640535 0.011511661
000220 cb 8b a2 bc 4f 8d fc 3b c9 0f e5 3d ee cd e3 3c
       -0.01984205 0.007707275 0.111846514 0.027808156
000230 88 70 3a 3d e1 58 b1 3c 31 d3 1f bd fc 5f c4 3d
       0.045517474 0.021648826 -0.039019767 0.0958862
000240 a4 ef 93 bb eb 6c 62 3d 27 fe 27 bc fd 48 ae bc
       -0.0045146514 0.055279654 -0.010253466 -0.021275038
000250 01 2f c2 3d d1 c1 c7 3c a6 13 96 3c 49 c6 8e 3c
       0.094816215 0.024384411 0.018319916 0.017428534
000260 b0 8a 4b 3d a3 40 8e 3d 00 a0 8f bd 53 cf fe 3d
       0.04969281 0.06945922 -0.070129395 0.12441888
000270 db 1a 45 bd 62 1a 8b 3c 2d e3 30 3d b7 2a 02 be
       -0.048121314 0.016980354 0.0431854 -0.12711607
000280 d6 6d 96 3d 6e 29 15 3d 99 5b de 3d 0f fd ab 3a
       0.07345168 0.036416464 0.108573146 0.0013121682
000290 b2 34 52 bc 01 bd 8a 3d 25 78 7f bd 04 1d 92 3d
       -0.012829946 0.06774331 -0.062370438 0.071344405
0002a0 f2 72 73 3d 20 ac f5 bb d4 88 ea bd 7f e2 ee bb
       0.059435792 -0.0074973255 -0.11451879 -0.007290184
0002b0 96 70 4f bd 75 4b 2d 3d 2c f8 72 3c be b0 b0 bc
       -0.05064448 0.04230829 0.014829677 -0.021568652
0002c0 70 c3 ac 3d ee 60 7c 3d e2 30 cb 3c 6c aa 17 3b
       0.08435714 0.061615877 0.024803583 0.002314235
0002d0 40 4a e7 3c 75 87 b7 3c bf 4f 61 bc 85 07 22 3d
       0.028233647 0.022403458 -0.013751923 0.039557952
0002e0 7e 2e 81 3d 78 e2 15 3c 0e ab 96 bc ea 77 ba 3d
       0.06307696 0.009148233 -0.018392112 0.09104903
0002f0 de 81 8e 3c e4 95 ae 3d 9e b8 bb 3b 8f bc fd 3c
       0.01739591 0.08524683 0.005728795 0.0309737
000300 f6 8f e1 3d ed ed cc bd d5 2e f5 bc 44 71 23 bd
       0.110137865 -0.10006318 -0.029929558 -0.03990294
000310 2a 80 73 bd a4 c7 8b 3d 8a 26 b1 bd f3 7a bf 3d
       -0.0594484 0.06825188 -0.08649929 0.093496226
000320 82 55 9c 3d a4 1b 6f bd 5d a2 4c bd b6 5e 8e 3d
       0.07633497 -0.05837597 -0.04995953 0.069516584
000330 f0 91 a3 bd b1 bd 26 bd 4b 50 09 3d 34 b6 76 bd
       -0.0798682 -0.040708248 0.03352384 -0.060232356
000340 21 91 65 3d 83 fd c6 bc 4d a7 ac 3c ac f7 10 3e
       0.05604661 -0.024290806 0.021075869 0.1415698
000350 55 c7 6b 3c 25 6c ab bd 93 32 77 bd ca 0f a2 bb
       0.014390786 -0.08370236 -0.060350966 -0.00494573
000360 c2 1d 53 3c 38 b3 34 ba 8a 09 eb bd 43 aa 23 3d
       0.012885513 -0.0006893161 -0.11476429 0.039957296
000370 fd d9 1a 3d 60 e3 9a 3c 98 19 99 3d d8 9d 9a bd
       0.037805546 0.018907249 0.07475585 -0.075496376
000380 c5 90 8d bd 49 ac 32 bd 1d a6 16 be af 46 48 bd
       -0.06912378 -0.043621335 -0.14711805 -0.048895534
000390 d0 2c a7 3b 99 77 3f bd 20 0e 1e 3d a9 c3 89 3d
       0.0051017776 -0.046744917 0.03858769 0.06726772
0003a0 e7 e5 73 3d 6d 36 67 3d a6 3d bd bc f6 2e 9a 3d
       0.059545424 0.05644839 -0.023100685 0.07528488
0003b0 60 76 a6 bd 5b 48 50 bc e2 cd 9d bd f2 1c c6 ba
       -0.08128047 -0.012712563 -0.07705285 -0.0015114828
0003c0 4b 6b d4 3d c6 20 71 3d e1 b7 e6 3c 67 e6 09 3d
       0.10372027 0.058869146 0.028163852 0.033666994
0003d0 b0 1b d6 bd 20 d3 3a 3d f7 fb f7 3d d0 44 ee bd
       -0.104545 0.0456115 0.12108605 -0.11634219
0003e0 ca 27 a4 3d 4e 82 0e 3d 81 b0 84 3c d7 e6 f7 3c
       0.08015402 0.034792237 0.016197445 0.03026144
0003f0 3c 7a f0 bc 31 1a 35 bc f9 f7 43 3d 74 de 30 bd
       -0.02935516 -0.011053608 0.047843907 -0.043180898

actor_fc1.bias f4 [64]
000000 fa 63 a8 3d 5a 25 89 3d 64 a5 87 3d 74 af 8e 3d
       0.08222194 0.06696577 0.06623343 0.06967059
000010 b7 1d 28 bd 40 75 91 bd 2f 3d 5f bc 28 5b 1c bc
       -0.041043963 -0.07102442 -0.013625427 -0.009543218
000020 24 e7 8a 3d 75 60 24 3c 83 0a dc bb 75 00 cb bd
       0.06782368 0.010032763 -0.0067151203 -0.099121965
000030 f6 9d d1 bc d2 4b d1 3d 05 36 cf bc f4 85 99 bd
       -0.025588017 0.1021954 -0.025294313 -0.07496253
000040 de 85 6b 3d 50 ed ce 3c 02 df 17 bc f0 dd 8e 3d
       0.057500713 0.025259644 -0.009269478 0.06975925
000050 04 12 16 bd b8 fc bc bd d4 4c 47 3d 57 5e 93 bd
       -0.036638275 -0.0922789 0.048657253 -0.07195728
000060 78 68 00 bd b3 9b 0c bd 94 99 a6 3d 54 94 88 bc
       -0.03134963 -0.034328174 0.081347615 -0.01667229
000070 79 f8 ac 3d 77 e9 94 3d e4 e0 90 3d 97 70 77 3d
       0.0844583 0.072710924 0.070741445 0.06041011
000080 ff aa c0 3d c9 e7 91 3d df 04 99 bd e2 bd cf 3b
       0.09407615 0.07124288 -0.07471632 0.0063397745
000090 67 a1 b2 bc 35 f9 aa 3d fe 77 54 bc df 80 df 3b
       -0.021805478 0.08348314 -0.0129680615 0.0068207826
0000a0 c5 e8 7b 3c 24 0a 45 3d 58 d0 b4 bc a8 df ca bb
       0.015375321 0.048105374 -0.022072002 -0.0061912127
0000b0 e3 59 4d 3d f9 36 8d 3c 08 78 c5 bd e1 9f 48 bb
       0.05013455 0.017238127 -0.09642035 -0.0030612873
0000c0 87 a3 15 3d 2e 74 7b 3d 0a 75 66 bc 2a 4a b3 bc
       0.036532905 0.061390094 -0.01406599 -0.02188595
0000d0 58 c2 76 bd 1f 43 97 bd 3c 20 b4 bc 63 5c 8f 3d
       -0.060243934 -0.07385849 -0.021988027 0.07000043
0000e0 f1 ae 94 3d 6f f3 df bc e6 a7 d0 3c 78 ad ea 3c
       0.0725993 -0.027337758 0.025470685 0.02864717
0000f0 67 66 82 3d 37 ab 45 bd fd 1a 49 3c 16 d9 8a 3d
       0.06367188 -0.048258986 0.012274501 0.06779687

actor_fc2.weight f4 [2, 64]
000000 d9 9f 08 3e 74 fa b3 bd e0 23 24 be 12 36 d2 3d
       0.13342227 -0.087880045 -0.1602931 0.10264219
000010 f4 99 fb bc cb 4c 23 3e c5 8c 0a 3e 8e 7a ea 3d
       -0.030713059 0.15947263 0.13530262 0.11449157
000020 be c9 94 bc ff b6 2d 3e ba 72 ea bd 48 78 1c bd
       -0.018162604 0.16964339 -0.114476636 -0.038200647
000030 46 09 08 be 66 59 04 bd f9 1c 67 bc ee bb af 3a
       -0.13284788 -0.03231182 -0.014106029 0.0013407448
000040 44 cb cc 3c 99 d4 ea bd e4 6e 02 bd af e6 c6 3d
       0.024999268 -0.11466331 -0.031844035 0.09711968
000050 52 49 9c bd e8 27 a0 bd dd 71 0a be d6 5c bb bd
       -0.07631172 -0.078201115 -0.13519998 -0.091485664
000060 bd 1d a2 3d 29 b7 0a 3e bf a3 06 be 0f 6f e8 bd
       0.079158284 0.13546433 -0.13148402 -0.11349308
000070 71 aa bd bd 96 47 a1 3d 7e 19 27 bc 58 c9 84 3d
       -0.09261025 0.07874982 -0.010198949 0.06483716
000080 85 28 0a be d5 db 72 bd 71 e1 0f 3e f8 dd d5 bd
       -0.1349202 -0.05929168 0.14050843 -0.10442728
000090 12 53 24 3e db fc 25 3d 5e 65 53 bd a0 c5 45 3c
       0.16047314 0.040524345 -0.051610343 0.012071043
0000a0 06 f6 e1 bd d5 70 db 3d b0 53 ef 3d cb 02 83 3a
       -0.11033253 0.107148804 0.11685884 0.0009995339
0000b0 1f b1 35 bd c8 1f a0 bd 00 c4 45 3d 79 3c b3 bc
       -0.04435837 -0.07818562 0.048282623 -0.021879422
0000c0 f1 0f 09 bc 04 f7 f7 bd ac 0e 8e 3d 43 e9 de bd
       -0.008365617 -0.12107661 0.06936392 -0.10884335
0000d0 ec f6 8c 3d a6 5d e6 bd 43 4f 29 3d 6d 9f 33 3c
       0.06883034 -0.11248331 0.041335355 0.010963303
0000e0 f3 50 30 bd 5f 65 3e 3d ff 90 ec bd 48 f2 ed bc
       -0.04304595 0.046483394 -0.11551093 -0.029046193
0000f0 37 57 d6 bd 17 97 b1 bb ef ea d1 3d 1e d8 7b 3b
       -0.10465854 -0.0054196226 0.10249888 0.0038428376
000100 18 53 4f bd 03 f9 c8 3d 94 6f 96 3d a4 89 9e 3c
       -0.050616354 0.0981312 0.073455006 0.019352742
000110 3a 4e 91 3c 53 3d f3 bd 4d f3 34 3d 10 29 e3 bd
       0.017737497 -0.11876931 0.044177342 -0.110918164
000120 71 f6 fe bb 08 ef b5 bd 78 af 1e 3d 95 5f aa bd
       -0.007780843 -0.08883482 0.03874156 -0.08319012
000130 27 d0 ec 3d 15 04 19 3d 63 27 e2 3d 87 dc 13 be
       0.115631394 0.03735741 0.11042669 -0.14439593
000140 0d b9 2f be 46 ff 86 bd 51 d9 ef 3d ed c5 9a bc
       -0.17160435 -0.06591658 0.11711372 -0.018893206
000150 51 49 ba 3d 9f 2d 55 3d a0 b4 3b bc 11 e5 2b bd
       0.09096015 0.05204546 -0.011456639 -0.0419665
000160 c5 aa ee bd 84 41 17 be 3e 92 ef 3c 43 f0 e8 3b
       -0.116536655 -0.14771086 0.029244538 0.0071087196
000170 5f a6 13 3d f9 08 51 bd 0b d2 9b bc 9d e5 d3 bd
       0.036047336 -0.051033948 -0.019021055 -0.1034653
000180 6c 98 b3 3d 32 3c ed 3c 4b 81 3a 3d be 54 31 3e
       0.087693065 0.028959367 0.04553346 0.17317483
000190 21 6a 9c bd 30 20 c4 bd 47 02 d2 3d 20 e6 16 3d
       -0.0763743 -0.09576452 0.102543406 0.036840558
0001a0 e6 62 19 3d e1 11 dc 3d 3a 9f 53 3d f2 55 9d bb
       0.037447833 0.10745598 0.051665522 -0.0048015052
0001b0 ce 55 25 3e fa a2 4e 3d 80 d0 78 bd a0 8e cb 3c
       0.16146013 0.050448395 -0.060745716 0.024848282
0001c0 79 3f e5 bc 91 5d 9b bc 0a 60 f3 3d e9 75 dc bd
       -0.027984368 -0.018965514 0.11883552 -0.10764677
0001d0 ca b2 f3 3d d8 fe 81 3c 3a 8a 8a bc 22 00 de 3c
       0.11899336 0.01586859 -0.016911615 0.027099673
0001e0 a3 c0 e5 3a 95 b1 33 3d 9c dc 0c 3b cc 5f 24 3e
       0.0017528724 0.043870527 0.0021493798 0.16052169
0001f0 39 da f8 3d dd fa 0e be 96 5e a8 bd 47 33 16 3e
       0.12150998 -0.13962884 -0.08221166 0.14667998

actor_fc2.bias f4 [2]
000000 e9 8a 6f bd bd fd ba 3d
       -0.058482084 0.09130428

critic_fc1.weight f4 [64, 128]
000000 fd ff a8 3d 61 bc c4 bc 1c 56 68 bd e0 de 5b bd
       0.08251951 -0.024015607 -0.056722745 -0.053679347
000010 dd 72 ba bd 2b c6 93 bc e0 65 84 bd 8a 1a ca 3c
       -0.0910394 -0.01803883 -0.064647436 0.024670858
000020 a5 ff 28 3d b6 77 a7 3c f1 90 a9 bd 45 21 99 bd
       0.041259427 0.020442825 -0.082795985 -0.07477049
000030 f6 bd 19 bd 9b 6b 9d bd 82 f3 32 bd a4 f5 e6 3b
       -0.037534676 -0.0768654 -0.04368926 0.0070483256
000040 09 74 a8 bc 47 9f a3 bd 9c d5 a6 3d 4f b5 62 bd
       -0.020563142 -0.07989364 0.081462115 -0.05534869
000050 55 a6 22 3d 8c f7 b2 bd 41 17 9c bd 1c 95 33 3d
       0.039709408 -0.08738622 -0.07621623 0.043843374
000060 0c 07 4b bd 8f d6 0a bd f1 0e bb 3c 58 10 97 bd
       -0.049567267 -0.033896025 0.022834273 -0.07376164
000070 aa 3d 6f bd 46 bc 81 bd 38 73 7f bb ad c8 2f bd
       -0.058408417 -0.063347384 -0.0038978588 -0.04291599
000080 72 6b 89 bc 6a c9 5d bd fe 77 9b 3d b9 bb 5c bd
       -0.016774867 -0.05414716 0.07591246 -0.053889964
000090 e0 59 3e 3d f4 f8 af bc 72 f1 8d bc 2f a2 0a bd
       0.04647243 -0.021481015 -0.017327044 -0.033846077
0000a0 cc 24 4e 3d a1 d5 9b 3d dd 5f 52 3d 5c 5e 0e 3d
       0.05032806 0.07609106 0.051360954 0.034757957
0000b0 64 67 98 3c 11 cf b5 bc 04 1b d0 bb 7d c3 7d bc
       0.018603988 -0.022193464 -0.0063508768 -0.015488503
0000c0 60 58 48 3d 80 b0 bb 3c 61 d1 c0 bd 31 fb dc 3c
       0.048912406 0.02291131 -0.09414936 0.026975246
0000d0 f1 67 85 3d b9 0e fa bc de 92 6c bd e0 5f 9a 3c
       0.06513966 -0.030524598 -0.05775725 0.018844545
0000e0 4f d8 42 bc f0 9f 1c bd 65 7b 4d bc e2 94 0c 3d
       -0.011892392 -0.038238466 -0.012541627 0.034321673
0000f0 f0 c6 c2 3c 50 65 29 bc 6b 0f 32 bc 67 f3 b6 bc
       0.023776501 -0.010339096 -0.010867934 -0.02233286
000100 ed 4e 75 bd df 5f 1f 3d 1a 69 66 bc ef 4a 04 3d
       -0.059889723 0.03890979 -0.014063144 0.032298025
000110 9d d4 6a bd 6c f0 bd bd ca a5 80 3d e4 01 ac 3d
       -0.05733167 -0.092743725 0.06281622 0.08398798
000120 d2 55 62 bb c9 4d 3f bd 05 57 52 3d 1a c9 90 3d
       -0.0034536016 -0.04670504 0.05135252 0.07069607
000130 98 ea 9c 3c e1 7e f8 3c 2f b8 77 bd 0e af a1 bc
       0.019154832 0.030333938 -0.060478386 -0.019736793
000140 23 a3 be 3b 62 bd ad bd cf b0 2f 3c 36 10 e0 bc
       0.0058177873 -0.084833875 0.010723307 -0.02735148
000150 c5 68 3c 3c cd 89 0e bd 9a 69 87 bd 02 ce 99 bd
       0.011499588 -0.034799386 -0.06611939 -0.07509996
000160 85 e2 25 bd d9 62 06 bd f5 42 e7 3c 35 3a 48 bd
       -0.04049923 -0.032809112 0.02823017 -0.048883636
000170 41 d7 ac 3c a8 ba 08 bd 49 90 60 bd a0 54 05 3c
       0.021098735 -0.033381134 -0.0548251 0.008137852
000180 bf 42 a9 3d 70 78 f6 3b ec 65 f0 bc 14 97 5d bd
       0.08264684 0.0075216815 -0.029345475 -0.054099157
000190 27 75 ab bd f4 83 a0 3d e7 cf 42 3b 54 c4 90 3c
       -0.083719544 0.07837668 0.002972597 0.017671742
0001a0 79 7b 6a 3d f2 51 e4 3b e4 f3 84 bd b3 3c 87 3d
       0.05724666 0.0069677765 -0.06491831 0.06603374
0001b0 97 27 95 bb ab fb bb 3b 0d 81 6e bd 97 74 2e 3d
       -0.0045518386 0.0057367883 -0.05822854 0.042591657
0001c0 e9 a6 9e 3d ea 3e b8 3c 1e bd 04 3d 98 aa 24 bb
       0.07746679 0.022490937 0.03240692 -0.0025126096
0001d0 3c 16 56 3c de 50 9e bd 78 92 54 3c ea ab 1d 3d
       0.0130668245 -0.07730268 0.012974374 0.03849403
0001e0 90 c7 70 3c 0b 55 bf 3c 72 10 03 3d 64 b8 1c 3d
       0.014696017 0.023355981 0.031998105 0.038261786
0001f0 2a 3c ad 3d 72 b4 8f bd 56 57 a1 3d 12 0d 94 bd
       0.08458741 -0.07016839 0.07877986 -0.072290555
000200 c7 d5 cc 3c 87 01 91 bd b1 35 38 bd 1c 78 02 3d
       0.02500428 -0.070803694 -0.04497308 0.031852826
000210 3a ee 86 bd 1a 00 11 3d 79 c7 a8 bd fc 0c 1d 3c
       -0.06588407 0.035400487 -0.082411714 0.009585615
000220 45 a4 9f 3d 21 09 8a 3b 04 b4 65 bc 99 a4 e8 3b
       0.07795004 0.004212514 -0.01401997 0.0070996997
000230 33 aa 6a bd 43 33 98 bc ea d8 ee 3c 3c 4d 3c 3c
       -0.05729122 -0.018579131 0.029156167 0.0114930235
000240 1b 4c ef bc 78 5c d8 bc 13 9d 9f 3d 53 49 de 3c
       -0.029211095 -0.02641128 0.077936314 0.027134573
000250 e3 73 2f 3d 5d 90 ae bd dd 54 a2 bc 27 4f aa 3d
       0.042835128 -0.08523629 -0.019815857 0.08315878
000260 62 89 47 bd 47 63 03 bd 18 b3 5b bb 09 71 6e bc
       -0.048715003 -0.0320771 -0.0033523496 -0.014553317
000270 47 4e 1e bc 16 06 b3 3d 6d 01 83 bd 4b 1e 66 3d
       -0.009662217 0.08741395 -0.06396756 0.056181233
000280 c0 ed af bd 97 d2 b0 bc ad b4 4a bd 1c 36 cb bc
       -0.08590269 -0.021584792 -0.049488712 -0.024806075
000290 64 cb 87 3d bd d7 49 bd d3 26 76 bd cd 34 09 3d
       0.066305906 -0.04927801 -0.06009562 0.03349762
0002a0 4b 9f ba bc 95 fd 18 3d 40 b4 82 3c e4 8e b1 3d
       -0.022781035 0.03735121 0.01595509 0.08669832
0002b0 53 27 c3 3c 41 9e 1f bd bb 11 16 3c 39 bd a8 3d
       0.023822462 -0.038969282 0.009159501 0.08239216
0002c0 d8 77 52 bd d3 e1 c7 bc e1 9f 51 bd 5f a9 66 3d
       -0.051383823 -0.024399674 -0.051177863 0.05631387
0002d0 65 bc 1d 3b 1f 59 de bc 6f 58 2c bd d7 4e 0b 3c
       0.002406859 -0.027142106 -0.042076524 0.008502684
0002e0 48 a9 7d 3c 0f d5 a4 3c 8d 17 8f 3d 69 44 a7 bd
       0.015482254 0.020121126 0.06986914 -0.08167345
0002f0 4a b4 5d bd 9b 71 90 3d 46 46 8e 3c a6 92 00 bd
       -0.054127015 0.070529185 0.017367493 -0.031389855
000300 a2 31 a8 bc 93 d9 8a 3c 9f 53 62 ba 28 8e 8e 3c
       -0.02053148 0.01694945 -0.00086336763 0.01740177
000310 45 e6 21 bc 2a ff b3 3c 28 85 8d bd b0 40 37 bd
       -0.009881561 0.021972258 -0.06910163 -0.044739425
000320 96 93 e3 3c ec e3 52 3d 96 b1 6d bd f5 a5 d5 3c
       0.027780335 0.051486894 -0.058030687 0.026080111
000330 54 af 70 3d 74 a3 26 bd e0 2b 2a bd c1 45 3a 3d
       0.058760956 -0.040683225 -0.04154575 0.04547668
000340 ad 77 8b 3d 5d 1f 40 3d 2c d5 94 bd c8 02 cf 3c
       0.06809936 0.04690491 -0.07267222 0.02526988
000350 1f e5 07 3d c4 55 ac bd 8b a0 a8 bd 50 14 9c 3d
       0.03317749 -0.08414796 -0.08233746 0.07621062
000360 0b b5 ac 3c b1 a4 1b bd 5f f3 8e 3d f9 a3 8d bd
       0.021082422 -0.03799886 0.06980013 -0.06916041
000370 55 7c 54 3d ee 47 73 bd 15 72 e4 3c 34 21 7c bd
       0.051876385 -0.05939477 0.02788643 -0.061555102
000380 bc da 18 3d 55 3f d2 bc 53 55 4f bd 54 c2 27 bd
       0.037317976 -0.025664965 -0.05061848 -0.04095681
000390 7a 23 a4 3d eb a8 6e bd 01 2e 94 bc d3 36 0f bc
       0.08014579 -0.05826656 -0.018088343 -0.008741098
0003a0 94 73 59 3d dc 36 6f 3d 43 2b a5 3c 2e 39 7e 3d
       0.05308874 0.058401927 0.02016223 0.06206625
0003b0 13 f5 03 3d 83 22 14 bd 44 b7 bf 3c 41 29 ae bd
       0.032216143 -0.036165725 0.023402818 -0.08503962
0003c0 91 d6 ac bd 4f fc 32 bd da c1 62 3d df ae 0e bd
       -0.08439363 -0.04369765 0.055360653 -0.03483474
0003d0 20 d7 9a bc 72 20 ab bb 9b 5a 2d bd 85 09 49 bd
       -0.018901408 -0.0052223736 -0.042322736 -0.049081344
0003e0 a9 c0 3a 3d be ba c6 3b 63 15 c6 3c 28 0b 96 bd
       0.04559389 0.006064742 0.02418012 -0.07326347
0003f0 95 db 54 bd 7e a3 97 bd b4 0a 07 bd 3f ef d2 bc
       -0.051967222 -0.074042305 -0.03296919 -0.025748847

critic_fc1.bias f4 [64]
000000 65 6b 0d 3d 1c 69 3a bd d8 1c 91 bd 35 f0 11 3e
       0.034526248 -0.045510396 -0.0708558 0.14251788
000010 49 f0 92 bd 81 2c 80 3c 62 ac 3c 3e 6a 72 6f 3d
       -0.07174737 0.015646221 0.18425134 0.058458723
000020 d4 d8 fc bc 34 0c 55 3d 20 e7 59 3d dd 88 3e 3c
       -0.03086511 0.05201359 0.053198934 0.01162931
000030 e8 99 8a 3d fa c0 6e bd c4 20 09 bc a9 8b c3 3d
       0.067676365 -0.058289506 -0.008369628 0.095481224
000040 18 70 c0 bd 53 b0 46 bd 1b 56 9d bc ae bf 24 3e
       -0.0939638 -0.048508 -0.019206097 0.16088745
000050 71 c1 78 b9 5c 14 ed bc e1 bf 02 3e 08 60 17 3e
       -0.00023723186 -0.028940372 0.12768508 0.14782727
000060 8b c3 3b 3e 95 59 a8 3d 51 41 1a 3e a0 08 e6 bb
       0.18336312 0.082202114 0.15063979 -0.007020071
000070 39 48 cd 3c c5 b0 92 bb 30 cf 11 3e 21 0c 70 3e
       0.025058853 -0.004476639 0.14239192 0.23442127
000080 ab 24 4c 3e 0c 28 a5 bd ca 28 0f bd 5e f4 95 3d
       0.19935863 -0.08064279 -0.03495101 0.07322
000090 43 ba 3e 3d 74 01 b6 bc f7 55 c2 3c 68 96 36 3d
       0.04656435 -0.02221749 0.023722632 0.044577032
0000a0 26 e8 15 3e ee 55 86 bd 83 69 c0 3d 69 84 fe bc
       0.14639339 -0.065593585 0.09395125 -0.031068997
0000b0 0f e4 bb bd c9 6e 33 bc 28 48 8c bc 2c cb 88 bd
       -0.09174358 -0.010951706 -0.01712425 -0.06679377
0000c0 ae f3 e6 3c 44 4c ea 3d 65 ce c6 bc 87 5f 47 3e
       0.028192367 0.11440328 -0.024268338 0.19470035
0000d0 9d 12 57 3e 5d e5 10 3c 58 63 1b 3e f0 60 63 bc
       0.21003194 0.008843747 0.15174615 -0.013878092
0000e0 aa ab cb bd 18 db a9 3d 0f ca 1b 3e e6 8f be 3d
       -0.09944852 0.08293742 0.15213798 0.0930479
0000f0 2e 18 25 bd 39 f0 8f bb 9a aa 63 bd c1 c3 3e 3e
       -0.040306263 -0.0043926504 -0.05558262 0.18629362

critic_fc2.weight f4 [1, 64]
000000 13 a1 b5 bc a0 8b 72 bd b8 70 53 bc 62 d1 4c 3e
       -0.022171533 -0.059215188 -0.012905292 0.20001748
000010 ac 7a 55 3b a8 14 f0 bd 71 a7 67 3e 7b b0 64 3e
       0.003257434 -0.1172269 0.22622468 0.22332947
000020 48 82 e8 bd ae 40 41 bd 93 8d 77 3e 03 76 28 bd
       -0.11352974 -0.047180824 0.241751 -0.04112817
000030 f9 32 56 3e 88 0a 96 3d 0a b8 7b bd 15 04 17 3e
       0.20917882 0.073262274 -0.06145481 0.14747651
000040 a0 bf a1 3d 40 dc 07 be b5 20 86 bd e3 1a 3d 3e
       0.07897878 -0.13267612 -0.06549207 0.18467288
000050 ad d8 a9 bd 64 2d 30 3c c0 33 38 3e 30 37 32 3e
       -0.08293281 0.0107530095 0.17988491 0.17403865
000060 90 9f 1d 3e e9 1f 06 3e 85 57 88 3e d5 29 30 3d
       0.153929 0.1309811 0.26629272 0.043008644
000070 b4 6c 0f be 71 95 09 bc e1 73 66 3e 5b 02 12 3e
       -0.1400631 -0.008397446 0.22505142 0.14258711
000080 94 75 87 3e f1 08 14 be 28 87 3b be cd 2d 9f bc
       0.26456892 -0.14456536 -0.18313277 -0.01943102
000090 71 a0 cc bd 7c 3f 26 bd 8f dc b0 bd ee 67 65 3e
       -0.09991539 -0.040587887 -0.08635818 0.22402927
0000a0 2c 8d 26 3e eb 63 61 bd 7e f3 32 3e c5 6f 8f bd
       0.1626479 -0.05502693 0.17475697 -0.0700374
0000b0 8b bc bf bc db 9e b5 bd 4d f5 c4 ba 75 62 e1 bd
       -0.023405334 -0.0886819 -0.0015026719 -0.11005107
0000c0 33 e4 a4 bd 0e 6b 3e 3e b6 ef c8 bd bf 48 48 3e
       -0.08051338 0.18595526 -0.09811346 0.19559
0000d0 41 8f 50 3e e4 6b 5d 3d 86 17 73 3e 6c e6 25 be
       0.20367147 0.05405797 0.23739442 -0.1620118
0000e0 1e f3 85 bd 0d 92 d5 bd 12 52 8a 3e 47 04 19 3e
       -0.065405115 -0.104282476 0.2701574 0.14943038
0000f0 d2 ab c0 3d f4 65 e7 bd 5d 93 0e bc 7c db 50 3e
       0.09407772 -0.11298743 -0.008702126 0.20396227
