reinforcement_learning/actor_critic/actor_critic_500.pth (torch, 73334 bytes, 9 tensors)

fc1.weight f4 [128, 4]
0.34960306 -0.08444801 -0.07030311 0.14848384 0.17703214 -0.30114672 0.33922446 -0.49269104
0.09613023 -0.12565616 -0.17662223 0.02201335 -0.29255462 0.04189894 -0.6575977 -0.54855627
0.15258631 -0.2626323 0.17627354 -0.017858133 0.2512626 -0.15565474 -0.057932336 0.36200294
-0.39911345 0.33444285 0.31586033 0.09437674 -0.021269199 -0.17661679 -0.3335108 -0.41165635
-0.5459076 -0.48065832 0.34925926 0.14010009 -0.07899038 -0.23687679 0.2786377 0.2554319
0.08562155 0.21949084 0.6541043 0.40809944 0.51910865 -0.23947005 0.7201186 0.09686738
0.17521198 -0.116688736 0.49460694 -0.25351086 -0.14677228 0.088282205 -0.2517272 0.6013105
0.10060109 0.36448255 0.310646 -0.39491746 0.14155208 0.40870017 0.4956881 0.22349897
-0.070850804 0.32672784 0.4788226 0.50311047 -0.5769483 -0.4918451 -0.57195765 -0.17233054
-0.40364224 0.34973872 -0.39817387 0.11359529 0.4116823 0.006780744 -0.56271607 -0.31478792
0.5586942 0.5398639 -0.20937896 -0.077101156 0.37599838 -0.29474074 0.16753653 0.20744008
0.17850742 0.3666785 -0.35199174 0.3079446 -0.30181164 0.44476977 -0.22058707 -0.38074526
0.5569239 0.052238334 0.4483073 0.4178369 -0.044313863 -0.07093161 -0.009364486 0.26310524
-0.2728609 0.09576189 0.28310645 0.49548998 -0.3564963 0.29406643 0.46471176 0.024376305
-0.15953399 0.50923264 0.14059274 -0.15335788 -0.055800628 0.2926451 -0.105451815 -0.0947403
-0.14264028 0.01881667 -0.13706468 -0.0038120758 0.4707132 0.3130982 0.29423165 0.36045465
-0.0742537 -0.3051355 -0.27507207 -0.15010269 -0.033122394 0.29834533 -0.67305875 -0.38510066
-0.036543522 -0.11086743 0.5033325 -0.19040024 0.2852128 -0.45481497 0.3089083 0.3373736
0.5379054 -0.21860875 -0.0575365 0.020278951 0.036784463 -0.075959094 -0.117358215 0.08551109
-0.09553267 -0.029999955 0.20288068 0.20815253 0.2111514 -0.14145368 0.76189864 0.40616235
-0.2773634 0.34022674 -0.199333 0.20021442 -0.32571054 0.31386608 0.27575156 0.25545216
-0.12834069 -0.08488666 0.14649367 0.04332098 -0.26147634 -0.39224303 0.119588986 -0.12731236
-0.053906314 0.124348745 0.15436745 -0.48362857 -0.27355635 0.46393085 0.33759385 -0.389691
0.12205856 0.41550323 0.2181164 -0.016978722 0.3921535 -0.048202105 0.29709744 0.100558415
-0.37478584 -0.19883358 0.015985223 0.5142893 -0.2844976 0.32030034 -0.37644374 -0.34747574
-0.43841666 -0.02177915 -0.39989746 -0.038357895 -0.42145497 0.5696632 0.10650429 0.41674346
0.31481808 -0.33205038 0.35699552 -0.4573354 0.46424133 -0.3090425 0.09895371 0.11515643
0.20557046 -0.07594691 0.08120463 -0.23368531 -0.37621683 -0.034475897 -0.37994567 -0.2572283
-0.4479543 -0.21160623 -0.39320767 -0.19427887 -0.350556 0.5045847 -0.1171487 0.084565856
-0.10406041 -0.28074446 -0.028809564 -0.05010916 -0.24852844 -0.040427312 0.30839786 -0.049209762
-0.3768824 -0.4986363 0.280579 -0.5971179 0.4168501 0.46136254 -0.1618708 -0.24562244
0.21836141 -0.40221143 -0.06028313 -0.14635947 0.044384226 -0.03764014 0.00925264 0.24084713
00000000: 2cff b23e 14f3 acbd 14fb 8fbd 260c 183e
00000010: ea47 353e e72f 9abe d4ae ad3e 0042 fcbe
00000020: eddf c43d 02ac 00be 75dc 34be 5755 b43c
00000030: b8c9 95be 399e 2b3d 5358 28bf 2f6e 0cbf
00000040: 963f 1c3e be77 86be 0d81 343e 384b 92bc
00000050: 7ea5 803e f563 1fbe 754a 6dbd 7358 b93e
00000060: 9958 ccbe 183c ab3e 72b8 a13e 9848 c13d
00000070: be3c aebc 08db 34be edc1 aabe 9fc4 d2be
00000080: 9ac0 0bbf d918 f6be 1cd2 b23e 6676 0f3e
00000090: b5c5 a1bd d48f 72be 9aa9 8e3e f8c7 823e
000000a0: 5a5a af3d 35c2 603e 6173 273f 69f2 d03e
000000b0: 4ee4 043f a337 75be b159 383f 6862 c63d
000000c0: c56a 333e 81fa eebd 1f3d fd3e 2dcc 81be
000000d0: 794b 16be 4dcd b43d 63e2 80be 7cef 193f
000000e0: f207 ce3d 759d ba3e fe0c 9f3e 9f32 cabe
000000f0: 07f3 103e 2641 d13e d5ca fd3e eadc 643e
00000100: 3a1a 91bd df48 a73e 3c28 f53e d9cb 003f
00000110: e2b2 13bf 1fd3 fbbe d16b 12bf 6b77 30be
00000120: 32aa cebe f410 b33e 72dd cbbe a6a4 e83d
00000130: 06c8 d23e 0131 de3b 290e 10bf e22b a1be
00000140: 9506 0f3f 8534 0a3f 7067 56be 36e7 9dbd
00000150: dc82 c03e 42e8 96be b28e 2b3e 2c6b 543e
00000160: a6ca 363e 49bd bb3e 4338 b4be eaaa 9d3e
00000170: 0e87 9abe ddb8 e33e 94e1 61be 0bf1 c2be
00000180: 9192 0e3f ddf7 553d 8988 e53e b8ee d53e
00000190: 7482 35bd 9844 91bd 806d 19bc bbb5 863e
000001a0: 6db4 8bbe cf1e c43d 54f3 903e ddb0 fd3e
000001b0: af86 b6be e08f 963e b3ee ed3e d1b0 c73c
000001c0: e15c 23be 125d 023f 8bf7 0f3e d909 1dbe
000001d0: 338f 64bd 94d5 953e 1ff7 d7bd 3407 c2bd
000001e0: 4b10 12be 6b25 9a3c af5a 0cbe 05d4 79bb
000001f0: 5201 f13e 684e a03e 88a5 963e 838d b83e
00000200: 5312 98bd b83a 9cbe 3fd6 8cbe 85b4 19be
00000210: 59ab 07bd b8c0 983e 944d 2cbf ea2b c5be
00000220: a9ae 15bd 770e e3bd 66da 003f 48f8 42be
00000230: 6a07 923e 82dd e8be 3b29 9e3e 3cbc ac3e
00000240: 2bb4 093f f9da 5fbe 65ab 6bbd 0b20 a63c
00000250: 4eab 163d 7190 9bbd 8159 f0bd 7020 af3d
00000260: a2a6 c3bd 77c2 f5bc f4bf 4f3e f025 553e
00000270: 1338 583e 3cd9 10be ca0b 433f 83f4 cf3e
00000280: 9302 8ebe 3332 ae3e f31d 4cbe 0205 4d3e
00000290: 88c3 a6be 0eb3 a03e 4f2f 8d3e a0ca 823e
000002a0: be6b 03be 0fd9 adbd 7002 163e 5771 313d
000002b0: 3ae0 85be 14d4 c8be 12eb f43d 2c5e 02be
000002c0: decc 5cbd 8eaa fe3d 8012 1e3e 2a9e f7be
000002d0: 940f 8cbe 5888 ed3e 1ad9 ac3e 9485 c7be
000002e0: d7f9 f93d d7bc d43e e859 5f3e f616 8bbc
000002f0: 58c8 c83e 926f 45bd 281d 983e 92f1 cd3d
00000300: eee3 bfbe 089b 4bbe 71f3 823c 77a8 033f
00000310: aba9 91be 68fe a33e 3cbd c0be 57e8 b1be
00000320: 2678 e0be 306a b2bc 5cbf ccbe 2b1d 1dbd
00000330: f2c8 d7be 73d5 113f ec1e da3d 665f d53e
00000340: d62f a13e 8202 aabe 1ec8 b63e de27 eabe
00000350: 0ab1 ed3e d23a 9ebe 3ea8 ca3d 22d7 eb3d
00000360: 1081 523e 0e8a 9bbd 9d4e a63d 344b 6fbe
00000370: 7e9f c0be 9936 0dbd 3d88 c2be 6eb3 83be
00000380: 445a e5be 4eaf 58be 8452 c9be 0af1 46be
00000390: 137c b3be 772c 013f a8eb efbd dd30 ad3d
000003a0: a01d d5bd bdbd 8fbe 0902 ecbc 433f 4dbd
000003b0: 3d7e 7ebe 1c97 25bd 53e6 9d3e 2d90 49bd
000003c0: bbf6 c0be 424d ffbe 0da8 8f3e b8dc 18bf
000003d0: 606d d53e b637 ec3e 76c1 25be 7384 7bbe
000003e0: 229a 5f3e a8ee cdbe 71eb 76bd 42df 15be
000003f0: 3ccc 353d 8c2c 1abd 6398 173c a1a0 763e

fc1.bias f4 [128]
0.5303046 0.56870526 0.43649444 -0.23526904 0.54527706 0.12112858 0.41978645 0.6281833
-0.25970814 0.5684187 -0.072382644 -0.20330526 0.42131132 -0.32747248 0.5250731 -0.47420624
-0.10908478 -0.24218535 0.05569135 -0.12620318 -0.33700517 0.21396188 0.46611604 -0.03595792
-0.06486008 0.64024806 -0.19641174 -0.24084212 0.027304446 0.27595446 0.45801035 0.587855
0.30652732 -0.32305968 -0.4213693 0.04383782 0.46014437 0.5741059 0.55329967 -0.1910225
0.4725833 0.51318675 0.45110944 0.6389541 -0.15640318 0.25668323 0.4141163 -0.27341732
-0.0963498 0.43702513 -0.36668453 0.47685638 0.41125986 0.697102 0.2867949 0.39584586
-0.14859134 -0.25826004 0.54986423 -0.2543581 -0.28849098 -0.13261591 0.56165594 0.60941714
-0.2978101 0.21451114 -0.3831453 0.44969186 -0.4993355 -0.23393044 0.6312732 -0.029385533
0.6178619 0.5022938 0.24663721 -0.3774591 -0.22342914 -0.0878718 -0.18428148 -0.18958221
-0.114278995 0.20296161 0.3338474 -0.31893015 0.23961492 -0.46696487 -0.29781467 0.07754371
0.37657788 0.16770743 -0.18396282 0.63172287 0.40776998 0.31723028 -0.11025808 -0.18708898
0.33694345 -0.22766498 0.38557443 -0.23761497 0.29613248 0.45032525 -0.06858432 0.42426008
0.2896263 0.35536075 0.37125093 -0.16468138 0.50500345 -0.06557379 0.5654478 0.15437633
0.6550677 0.26031867 0.43061894 -0.19438206 0.30611196 -0.14239372 0.4587889 0.6363035
-0.14848854 -0.19491957 0.43898818 -0.46590388 0.59685767 -0.33646634 -0.40036353 0.29353422
00000000: 0bc2 073f ab96 113f 337c df3e 5eea 70be
00000010: 4797 0b3f 4312 f83d 40ee d63e 9fd0 203f
00000020: 77f8 84be e383 113f 5a3d 94bd 412f 50be
00000030: 1eb6 d73e 79aa a7be 316b 063f 29cb f2be
00000040: d767 dfbd 70ff 77be 9d1c 643d 683b 01be
00000050: f18b acbe d318 5b3e c3a6 ee3e 9d48 13bd
00000060: 5dd5 84bd 4ce7 233f 2920 49be 519f 76be
00000070: 93ad df3c e749 8d3e 5580 ea3e aa7d 163f
00000080: 26f1 9c3e 1468 a5be b8bd d7be 498f 333d
00000090: 0b98 eb3e 9bf8 123f 0ca5 0d3f 679b 43be
000000a0: 70f6 f13e 3560 033f d1f7 e63e 7f92 233f
000000b0: 2828 20be fc6b 833e 0d07 d43e 5bfd 8bbe
000000c0: 0b53 c5bd c2c1 df3e 13be bbbe 8526 f43e
000000d0: a790 d23e 4775 323f c8d6 923e 4fac ca3e
000000e0: 5428 18be a93a 84be e7c3 0c3f 3a3b 82be
000000f0: 17b5 93be 77cc 07be afc8 0f3f c302 1c3f
00000100: 917a 98be cfa8 5b3e 9f2b c4be 033e e63e
00000110: e7a8 ffbe 768b 6fbe 1f9b 213f eeb9 f0bc
00000120: 332c 1e3f 5496 003f 778e 7c3e 5242 c1be
00000130: 9cca 64be 21f6 b3bd 49b4 3cbe d721 42be
00000140: 1b0b eabd 2bd5 4f3e 0cee aa3e d04a a3be
00000150: 9d5d 753e 0516 efbe 2a7b 98be 3dcf 9e3d
00000160: d1ce c03e 7fbb 2b3e c060 3cbe 97b8 213f
00000170: 3ac7 d03e 026c a23e fdce e1bd 4194 3fbe
00000180: da83 ac3e 0221 69be 036a c53e 5751 73be
00000190: ad9e 973e 0891 e63e f075 8cbd 9e38 d93e
000001a0: e649 943e d8f1 b53e 9a14 be3e 3ca2 28be
000001b0: e847 013f 8d4b 86bd 30c1 103f d414 1e3e
000001c0: 84b2 273f 7d48 853e 167a dc3e 170c 47be
000001d0: b5ba 9c3e a9cf 11be 61e6 ea3e c9e4 223f
000001e0: 610d 18be ff98 47be 0fc3 e03e f48a eebe
000001f0: aacb 183f 5145 acbe 73fc ccbe 1e4a 963e

actor_fc1.weight f4 [64, 128]
-0.047559697 0.06382984 0.07967178 0.08627573 0.057325028 -0.0625206 -0.046899065 0.0030288498
0.090149835 0.024699338 -0.10225433 -0.13269658 -0.057125423 -0.03531404 -0.0007300099 0.02637289
-0.069882646 0.12634663 0.07067979 0.15149552 0.09196691 0.03442512 -0.03554153 -0.008250997
-0.09902552 0.06764201 0.022003373 0.029532056 -0.036041148 0.046537206 0.032665245 -0.10267825
0.13007112 0.04022707 0.04310342 -0.04809877 0.09764086 -0.031431377 -0.01724677 -0.0879756
-0.044478755 0.026975103 0.065893345 0.09121352 0.08915677 0.050354585 -0.069674164 -0.095793135
-0.057405125 -0.019901352 -0.013795489 -0.015561732 -0.023371672 -0.058479246 0.09832185 -0.01169107
0.007922036 -0.03679849 -0.005941219 -0.015584692 0.075518325 0.08905001 0.10844377 -0.022602422
-0.020142663 0.059017826 0.040762264 -0.089093976 -0.013908397 -0.03261744 0.04870569 0.050401982
0.06876089 0.035819232 -0.02047697 -0.06991154 0.07215525 -0.15997298 0.20965497 -0.0044716974
0.01258238 -0.055307966 0.06063873 -0.011072774 -0.026600458 -0.06157886 0.020326227 -0.009873701
0.07423423 0.049551666 -0.1805337 0.04791616 0.033881523 -0.032039896 0.020126706 0.037469573
0.010076777 -0.026617149 0.054801844 0.03880143 0.029732825 0.062499642 -0.10185364 -0.05404206
-0.050832216 -0.09668273 0.0850573 -0.051105037 0.06565721 0.03815916 0.0010631887 0.10854787
0.034238536 -0.06002845 0.016759945 0.055946156 0.025888069 -0.045712426 0.11216972 0.07199007
-0.08914862 0.007566603 0.006191593 0.06674358 0.084576875 0.04658658 -0.033570655 0.044500187
-0.09870346 -0.07369355 0.06933902 0.019066475 -0.045410197 -0.045373864 -0.050645113 -0.026362618
0.0633304 0.006938159 0.04919301 0.0046631168 -0.05130778 -0.0072996034 -0.008900989 -0.006158129
-0.07707923 0.035646413 -0.00874732 -0.03724186 -0.053685486 -0.07020929 0.06909767 -0.031951193
-0.065949164 -0.08206866 0.052616492 0.027424164 0.02330966 -0.078175806 -0.08713418 0.037929844
-0.052648343 0.084959425 -0.073405795 -0.0061728894 -0.07400635 0.022826897 -0.08108974 0.020498756
-0.054239992 -0.027557764 -0.08257414 0.018565547 0.027338332 0.002743239 -0.049560864 -0.009280515
-0.022753235 0.058887064 -0.0053265817 -0.05275885 -0.09752593 -0.021440163 0.050181672 -0.074393846
-0.061916087 0.05289787 0.0386489 -0.0757696 0.0037490472 0.082587115 0.071656995 -0.015712572
-0.033300973 0.015327677 -0.047759008 0.05905749 -0.056319695 -0.08112145 0.013515178 -0.04412264
-0.07448046 -0.012271716 0.053104516 -0.046555735 0.033442684 0.024917062 -0.068128 -0.034624446
0.014956519 0.00564283 -0.077992484 -0.027215052 -0.031012096 -0.044491805 -0.017428575 0.07166622
-0.07794098 0.0025130163 0.033344004 -0.006856518 -0.02110667 -0.04495925 -0.06510961 -0.06218839
0.06965655 -0.06879127 -0.041530278 -0.07962203 0.004962944 -0.06513868 -0.09872089 -0.014824826
-0.077949636 0.040426623 0.03858848 0.046402026 -0.040178284 -0.06555477 0.023405474 -0.09182475
-0.033469215 -0.05885683 -0.068673976 0.02014572 -0.0748331 -0.050296158 0.033369567 -0.044867538
-0.02486296 0.015173318 0.05656355 -0.024433224 -0.008798439 -0.040885363 -0.05791861 0.01991386
00000000: f5cd 42bd 38b9 823d f52a a33d 54b1 b03d
00000010: a6cd 6a3d cd0a 80bd 3c19 40bd ab7f 463b
00000020: 7aa0 b83d 4456 ca3c b86a d1bd 9de1 07be
00000030: 59fc 69bd 74a5 10bd 235e 3fba f60b d83c
00000040: a21e 8fbd 0361 013e 91c0 903d a421 1b3e
00000050: 2659 bc3d 5b01 0d3d ff93 11bd 312f 07bc
00000060: e4cd cabd e587 8a3d 6b40 b43c 36ed f13c
00000070: e29f 13bd cc9d 3e3d fecb 053d f948 d2bd
00000080: 5d31 053e 24c5 243d 368d 303d 3703 45bd
00000090: eef7 c73d 30be 00bd 1949 8dbc 8d2c b4bd
000000a0: 5b2f 36bd e4fa dc3c 17f3 863d 27ce ba3d
000000b0: d397 b63d 9c40 4e3d 54b1 8ebd 312f c4bd
000000c0: a321 6bbd 2908 a3bc 7a06 62bc a3f6 7ebc
000000d0: f375 bfbc ef87 6fbd f75c c93d e78b 3fbc
000000e0: 6dcb 013c 03ba 16bd 8fae c2bb f056 7fbc
000000f0: 5aa9 9a3d da5f b63d c417 de3d b728 b9bc
00000100: 3a02 a5bc adbc 713d 55f6 263d e776 b6bd
00000110: 0ce0 63bc dd99 05bd 9e7f 473d 4f72 4e3d
00000120: 82d2 8c3d 30b7 123d 52bf a7bc c82d 8fbd
00000130: 22c6 933d f5cf 23be cbaf 563e 5187 92bb
00000140: 5426 4e3c 9b8a 62bd 5160 783d 956a 35bc
00000150: 34e9 d9bc 1d3a 7cbd 3083 a63c 4ec5 21bc
00000160: 1e08 983d b0f6 4a3d d4dd 38be bc43 443d
00000170: 5ac7 0a3d 443c 03bd c3e0 a43c b279 193d
00000180: 1119 253c 350c dabc e677 603d 40ee 1e3d
00000190: 4192 f33c a0ff 7f3d a498 d0bd 355b 5dbd
000001a0: 7135 50bd 9801 c6bd 8632 ae3d 8453 51bd
000001b0: 4a77 863d c84c 1c3d b15a 8b3a 584e de3d
000001c0: b53d 0c3d 64e0 75bd 274c 893c cc27 653d
000001d0: 3713 d43c f43c 3bbd 3db9 e53d 886f 933d
000001e0: 8d93 b6bd 44f1 f73b d9e2 ca3b dcb0 883d
000001f0: a436 ad3d 92d1 3e3d 6281 09bd d445 363d
00000200: 0a25 cabd a5ec 96bd 9e01 8e3d 4c31 9c3c
00000210: 0b00 3abd f2d9 39bd 4071 4fbd 6bf6 d7bc
00000220: 5eb3 813d 7f59 e33b 9c7e 493d 0fcd 983b
00000230: 1b28 52bd 8331 efbb 74d5 11bc 21ca c9bb
00000240: b7db 9dbd f901 123d eb50 0fbc ec8a 18bd
00000250: 50e5 5bbd e3c9 8fbd 1483 8d3d 41df 02bd
00000260: 5b10 87bd 9d13 a8bd 6484 573d a4a8 e03c
00000270: e6f3 be3c a31a a0bd 6873 b2bd 535c 1b3d
00000280: caa5 57bd 35ff ad3d c755 96bd f345 cabb
00000290: a490 97bd 79ff ba3c 6112 a6bd 02ed a73c
000002a0: c12a 5ebd d2c0 e1bc a11c a9bd c616 983c
000002b0: a3f4 df3c eac7 333b 5500 4bbd 4d0d 18bc
000002c0: fe64 babc 9033 713d 9b8a aebb aa19 58bd
000002d0: adbb c7bd 48a3 afbc 4c8b 4d3d cd5b 98bd
000002e0: b99b 7dbd 70ab 583d 4f4e 1e3d 182d 9bbd
000002f0: 93b2 753b 6f23 a93d e7c0 923d a7b7 80bc
00000300: 9a66 08bd f020 7b3c f39e 43bd 44e6 713d
00000310: 7baf 66bd 0123 a6bd c46e 5d3c f1b9 34bd
00000320: 3689 98bd 4f0f 49bc 1f84 593d 3ab1 3ebd
00000330: 32fb 083d de1e cc3c b186 8bbd 5dd2 0dbd
00000340: 300c 753c 7de7 b83b 86ba 9fbd 1af2 debc
00000350: 140d febc 0a3d 36bd 5fc6 8ebc bdc5 923d
00000360: 859f 9fbd 6bb1 243b b993 083d a4ac e0bb
00000370: e5e7 acbc 3127 38bd 3058 85bd 41b9 7ebd
00000380: 18a8 8e3d 70e2 8cbd a71b 2abd e010 a3bd
00000390: 31a0 a23b 6e67 85bd 2e2e cabd d4e3 72bc
000003a0: 0fa4 9fbd 6396 253d f40e 1e3d 0d10 3e3d
000003b0: fc91 24bd 9441 86bd d6bc bf3c 9d0e bcbd
000003c0: 0417 09bd dc13 71bd f1a4 8cbd a308 a53c
000003d0: 1942 99bd 5803 4ebd 87ae 083d 06c7 37bd
000003e0: 68ad cbbc 8299 783c 2eaf 673d 2f28 c8bc
000003f0: 5427 10bc 6977 27bd 103c 6dbd 6422 a33c

actor_fc1.bias f4 [64]
-0.08042901 0.029371342 -0.08258338 0.052868888 0.029664079 0.072642066 0.036536496 0.06652901
0.038220722 0.044391323 -0.0055169174 -0.04998773 -0.026576916 0.039248478 -0.03793754 0.051751286
-0.08489186 -0.086400054 -0.049523782 -0.0022418115 -0.036338996 -0.011742793 -0.04507431 0.034661267
-0.029768901 0.025459971 -0.07474444 -0.017810488 0.044849187 0.03396874 0.0047601494 -0.040776644
-0.051435012 0.015050509 0.036826953 0.012347476 -0.03745579 0.021229923 0.08075095 0.041691806
-0.040934872 -0.063538805 -0.0127206175 0.0013134157 -0.10870971 0.092267856 -0.095838614 0.022205286
0.031846028 -0.05261512 -0.034187455 -0.08369561 -0.06385634 0.0005732753 -0.01285485 0.015213354
0.04410614 -0.083675794 0.014672904 0.07102869 -0.076598264 0.015030307 -0.009317897 -0.05027036
00000000: f7b7 a4bd 2b9c f03c 7a21 a9bd 0c8d 583d
00000010: 1502 f33c 5dc5 943d 4ba7 153d 5d40 883d
00000020: 558d 1c3d add3 353d 42c7 b4bb efbf 4cbd
00000030: d5b7 d9bc 03c3 203d 6564 1bbd 28f9 533d
00000040: c9db adbd 83f2 b0bd 73d9 4abd 5beb 12bb
00000050: 33d8 14bd d864 40bc d79f 38bd f9f8 0d3d
00000060: e9dd f3bc 6e91 d03c 9d13 99bd 4de7 91bc
00000070: c8b3 373d ce22 0b3d 07fb 9b3b 6905 27bd
00000080: 85ad 52bd 6996 763c dcd7 163d 114d 4a3c
00000090: 3e6b 19bd 60ea ad3c c160 a53d 07c5 2a3d
000000a0: 53ab 27bd a220 82bd 236a 50bc eb26 ac3a
000000b0: 32a3 debd eef6 bc3d 0947 c4bd dce7 b53c
000000c0: fb70 023d f482 57bd 2508 0cbd 9b68 abbd
000000d0: 1dc7 82bd db47 163a 269d 52bc 6e41 793c
000000e0: a4a8 343d 375e abbd 9f66 703c 7d77 913d
000000f0: 8ddf 9cbd ad41 763c 18aa 18bc 4be8 4dbd

actor_fc2.weight f4 [2, 64]
-0.059803244 0.11546111 -0.108509645 -0.0012649451 -0.14088532 -0.076615974 0.08053415 0.10092418
-0.035582732 -0.11577005 0.06652698 -0.092555925 0.08791147 0.08954907 0.19310437 0.09620297
0.0064019687 -0.11041179 -0.062352985 -0.08628592 -0.16501409 -0.06863346 -0.017983617 0.2655404
-0.1489226 -0.05334229 0.070308276 -0.054029725 -0.13122329 0.0032746037 0.051487356 -0.09144124
0.056228966 0.099114776 -0.0029640656 -0.11392097 0.02087941 -0.06811711 -0.12856065 0.08860102
-0.023132175 -0.09733849 -0.0900831 -0.06631635 0.058012158 -0.14871487 0.020003373 -0.12468787
0.07392526 0.021647552 -0.08802749 0.02104146 -0.01810781 0.007172738 0.027326535 0.24758087
-0.07353993 0.022430688 -0.08112522 0.027059572 0.0038698898 0.045595497 0.035417236 -0.12776184
-0.13368595 -0.13675171 0.09205535 0.14255442 0.0047924803 0.017933082 -0.0291789 -0.10330716
-0.03340259 0.088911496 -0.06269005 0.01605891 0.03334608 0.06435956 -0.12621391 -0.036339555
0.076906905 0.012344784 0.14756759 0.1583425 0.20276596 -0.07551588 -0.064545326 -0.063321255
-0.043554958 0.016509455 -0.067113005 -0.027060581 -0.055024892 -0.1184867 -0.015429143 0.1422808
0.037555486 0.096773624 -0.051517554 -0.015995089 0.028247751 -0.07693543 -0.020572867 -0.052173197
0.013995692 -0.12902394 0.054734707 0.13660294 0.08633059 0.07785502 0.03584133 0.17931056
0.12611547 0.0031274308 -0.097000755 -0.07625139 0.05158898 0.046731506 0.052986037 -0.25752425
0.036765717 -0.07813842 -0.06480022 0.148369 0.029614067 -0.052848283 -0.0005088104 0.05882117
00000000: 3ff4 74bd e076 ec3d 4e3a debd 84cc a5ba
00000010: 3e44 10be d6e8 9cbd 17ef a43d 56b1 ce3d
00000020: 33bf 11bd d918 edbd 4c3f 883d f68d bdbd
00000030: ee0a b43d 8165 b73d 27bd 453e 1006 c53d
00000040: 9bc7 d13b 941f e2bd d865 7fbd acb6 b0bd
00000050: 74f9 28be b38f 8cbd 6152 93bc e9f4 873e
00000060: 2b7f 18be 727d 5abd c9fd 8f3d 464e 5dbd
00000070: 665f 06be bc9a 563b 68e4 523d 8b45 bbbd
00000080: 5850 663d b0fc ca3d c540 42bb 664f e9bd
00000090: 4c0b ab3c fc80 8bbd 67a5 03be 7474 b53d
000000a0: b07f bdbc 6759 c7bd 7d7d b8bd ded0 87bd
000000b0: 289e 6d3d b648 18be 1dde a33c 5b5c ffbd
000000c0: 2066 973d 3556 b13c c247 b4bd 245f ac3c
000000d0: d456 94bc 4a09 eb3b e6db df3c d785 7d3e
000000e0: 1a9c 96bd 90c0 b73c fb24 a6bd 09ac dd3c
000000f0: fa9d 7d3b 58c2 3a3d aa11 113d 00d4 02be
00000100: f8e4 08be a408 0cbe 8487 bc3d c9f9 113e
00000110: 3d0a 9d3b 66e8 923c 9708 efbc b492 d3bd
00000120: 27d1 08bd 3b17 b63d a463 80bd fa8d 833c
00000130: e695 083d f2ce 833d 383e 01be c9d8 14bd
00000140: 5e81 9d3d c741 4a3c f51b 173e 8924 223e
00000150: e1a1 4f3e 12a8 9abd 5730 84bd 93ae 81bd
00000160: af66 32bd d63e 873c 8b72 89bd 27ae ddbc
00000170: c861 61bd 28a9 f2bd 84ca 7cbc 0fb2 113e
00000180: c8d3 193d 4031 c63d 1204 53bd 2208 83bc
00000190: d467 e73c 5390 9dbd 6e88 a8bc 90b3 55bd
000001a0: 304e 653c da1e 04be 8031 603d a4e1 0b3e
000001b0: 18ce b03d 7472 9f3d 5cce 123d 309d 373e
000001c0: 6a24 013e 95f5 4c3b 55a8 c6bd b029 9cbd
000001d0: f74e 533d 8969 3f3d e307 593d 38da 83be
000001e0: a697 163d 0907 a0bd fab5 84bd 0bee 173e
000001f0: 3399 f23c 7177 58bd b061 05ba 78ee 703d

actor_fc2.bias f4 [2]
0.110253245 0.09725132
00000000: 74cc e13d b32b c73d

critic_fc1.weight f4 [64, 128]
0.029170098 -0.003142224 0.0068743415 -0.013980057 -0.006224826 -0.011250964 0.07427726 -0.08270455
-0.09453659 0.04214363 -0.059782535 -0.056239285 -0.0037807287 0.017798336 -0.053019777 -0.03830136
0.074502476 -0.0071068313 0.07456428 -0.031492136 -0.052574042 0.051056206 0.047257014 0.02984646
-0.047416665 0.044764515 -0.054086126 -0.056260142 -0.0031508035 -0.08240913 -0.06102128 0.0052594543
-0.012500914 -0.053669795 0.03415181 0.073672466 -0.059998173 0.04005957 -0.06530681 -0.08683966
0.058728084 0.0031797285 0.057201523 0.0010605117 -0.04602164 -0.016517919 -0.069503635 0.015890826
-0.042658716 -0.040465046 -0.0020620662 -0.04292186 -0.008008882 0.0022661036 0.06823534 -0.052633125
-0.010777665 -0.05122787 0.059511546 0.009642345 0.0016355928 -0.033656135 -0.0143154105 -0.022307158
-0.052441668 -0.07100731 -0.014350717 -0.07150384 0.07632593 0.01779477 -0.058586456 -0.010714055
0.0393893 0.0051199584 -0.029620275 -0.07970891 -0.015506269 0.048985515 0.07199086 -0.07304195
-0.05662381 -0.060415573 -0.030351631 0.079086125 -0.04433507 -0.07572154 0.014166925 -0.013027148
-0.07144938 0.06437109 -0.054178454 -0.057102654 -0.00459093 0.06392886 -0.07171075 -0.030897612
0.037348226 0.040656827 -0.06850817 0.024825895 -0.05916864 -0.041002758 0.052726865 -0.07320341
0.07319239 0.0028939417 -0.01714813 0.044217817 -0.03305427 0.031567007 -0.03269259 -0.073743686
-0.057835665 0.07484701 -0.06544683 0.021157052 0.044717964 -0.011430112 -0.0895288 -0.08085725
-0.035113804 -0.03995732 -0.06257027 -0.08077351 -0.054324295 0.042256936 -0.06777047 -0.024365561
0.018164253 0.035970744 0.0024636933 -0.06688115 -0.03186653 -0.02133922 -0.08183515 0.013279137
0.06538122 0.06373789 0.042070884 0.029161718 -0.025237957 0.017129086 0.05755464 0.08761295
-0.045037586 -0.057364862 0.030733028 -0.08761499 0.056529384 0.045700725 -0.07003202 -0.047920093
-0.08949761 0.055059556 -0.048885632 0.0509281 -0.06864342 -0.029210167 -0.060980532 0.02234306
-0.04536804 -0.05316238 0.068904035 -0.061959185 -0.09163441 -0.0079063205 -0.0683726 0.07223177
-0.07062177 -0.0692958 0.03604557 -0.04315104 -0.020156719 0.059505533 -0.017419998 0.042185463
-0.073564716 0.033310402 -0.033583537 0.028623074 -0.052180804 0.04589304 0.014680759 -0.07980383
0.08752778 0.0461758 -0.01192984 0.01468903 0.079271615 0.009924613 -0.06243051 0.06490886
0.0052901143 0.02314237 0.03879375 0.067550875 0.020763181 -0.006401779 -0.035667498 0.06148904
0.009528106 -0.0015972601 0.06712366 -0.0828944 0.062452633 -0.0022924854 -0.009248705 -0.05632764
0.037948765 -0.08166371 -0.07407847 -0.06743388 0.08602946 -0.010461195 0.01450293 -0.016057601
-0.038310073 -0.05651707 0.04692294 -0.06837288 0.06074087 -0.024324141 0.020159386 0.05807711
-0.092627816 0.017407857 -0.06959748 0.035631303 -0.077514775 -0.012681323 0.03359367 -8.736553e-06
-0.012649438 -0.022309419 0.043794863 -0.012223155 -0.010177663 -0.021656008 -0.0012396056 -0.0927446
-0.01583033 0.029717952 -0.06660966 -0.03379404 -0.080722675 -0.08188536 0.0667961 0.022791049
0.0074656447 -0.025513235 -0.02070739 0.07795282 -0.042660374 -0.013978814 -0.012823273 0.07809037
00000000: 21f6 ee3c c5ed 4dbb 2842 e13b 9c0c 65bc
00000010: a0f9 cbbb f755 38bc ad1e 983d 0161 a9bd
00000020: 669c c1bd cd9e 2c3d 88de 74bd 2a5b 66bd
00000030: 1ac6 77bb d1cd 913c 442b 59bd e3e1 1cbd
00000040: c194 983d 6ce0 e8bb 28b5 983d e6fd 00bd
00000050: e157 57bd 5020 513d 9290 413d 9080 f43c
00000060: fa37 42bd ff5a 373d 6a89 5dbd 0971 66bd
00000070: b67d 4ebb 1ec6 a8bd 73f1 79bd 8057 ac3b
00000080: a2d0 4cbc dcd4 5bbd c5e2 0b3d 97e1 963d
00000090: a5c0 75bd 8115 243d 94bf 85bd fed8 b1bd
000000a0: dc8c 703d fe62 503b 254c 6a3d de00 8b3a
000000b0: 3081 3cbd 9650 87bc ec57 8ebd 7a2d 823c
000000c0: e8ba 2ebd adbe 25bd bb23 07bb d5ce 2fbd
000000d0: b037 03bc e982 143b f8be 8b3d d595 57bd
000000e0: ce94 30bc 51d4 51bd 61c2 733d edfa 1d3c
000000f0: 6361 d63a 04db 09bd 2f8b 6abc 80bd b6bc
00000100: 13cd 56bd 486c 91bd 451f 6bbc 9b70 92bd
00000110: c550 9c3d 56c6 913c 5af8 6fbd 018a 2fbc
00000120: ad56 213d 53c5 a73b 38a6 f2bc 6d3e a3bd
00000130: 020e 7ebc 09a5 483d f26f 933d 0597 95bd
00000140: 5eee 67bd 5276 77bd fca3 f8bc e8f7 a13d
00000150: b198 35bd e513 9bbd 641c 683c d26f 55bc
00000160: 0d54 92bd fdd4 833d 3aea 5dbd 79e4 69bd
00000170: 836f 96bb 22ed 823d 16dd 92bd fd1c fdbc
00000180: 74fa 183d c687 263d 034e 8cbd ad5f cb3c
00000190: d15a 72bd 82f2 27bd 20f8 573d abeb 95bd
000001a0: e4e5 953d 49a8 3d3b 3c7a 8cbc be1d 353d
000001b0: ea63 07bd 684c 013d aae8 05bd ee06 97bd
000001c0: 17e5 6cbd 6449 993d fd08 86bd 8e51 ad3c
000001d0: 2f2a 373d 5d45 3bbc e05a b7bd 7c98 a5bd
000001e0: 7ed3 0fbd 49aa 23bd d724 80bd 956c a5bd
000001f0: 2783 5ebd 9c15 2d3d 3fcb 8abd 499a c7bc
00000200: 33cd 943c 0f56 133d ea75 213b fcf8 88bd
00000210: 7b86 02bd 97cf aebc 3099 a7bd bd90 593c
00000220: 97e6 853d 0389 823d 8552 2c3d 8ee4 ee3c
00000230: d5bf cebc 4c52 8c3c 6abe 6b3d 6b6e b33d
00000240: 5579 38bd 6bf7 6abd d5c3 fb3c 7d6f b3bd
00000250: 5b8b 673d af30 3b3d f36c 8fbd dc47 44bd
00000260: 864a b7bd 2186 613d 4d3c 48bd fc99 503d
00000270: ec94 8cbd 294a efbc b9c6 79bd cb08 b73c
00000280: d7d3 39bd ccc0 59bd 8f1d 8d3d eac8 7dbd
00000290: d2aa bbbd 8389 01bc ef06 8cbd 40ee 933d
000002a0: 26a2 90bd f5ea 8dbd 85a4 133d 25bf 30bd
000002b0: b41f a5bc 13bc 733d 62b4 8ebc aaca 2c3d
000002c0: 19a9 96bd 7d70 083d e48e 09bd f07a ea3c
000002d0: 8abb 55bd 57fa 3b3d 9187 703c 3170 a3bd
000002e0: c441 b33d d622 3d3d 6075 43bc 42aa 703c
000002f0: 2859 a23d d89a 223c 22b7 7fbd f0ee 843d
00000300: b258 ad3b 1195 bd3c 32e6 1e3d 1d58 8a3d
00000310: 8c17 aa3c 04c6 d1bb 1518 12bd eedb 7b3d
00000320: c61b 1c3c 285b d1ba 2178 893d 8ac4 a9bd
00000330: 55ce 7f3d 863d 16bb e187 17bc d0b7 66bd
00000340: 2a70 1b3d 4e3f a7bd 74b6 97bd c61a 8abd
00000350: 3730 b03d 6f65 2bbc b39d 6d3c 3b8b 83bc
00000360: 06eb 1cbd 717e 67bd 4532 403d 1507 8cbd
00000370: 6bcb 783d 6c43 c7bc 4c25 a53c 44e2 6d3d
00000380: a7b3 bdbd ec9a 8e3c 2089 8ebd 21f2 113d
00000390: 11c0 9ebd 53c5 4fbc 8499 093d 3693 12b7
000003a0: 973f 4fbc 3ec2 b6bc 3e62 333d a143 48bc
000003b0: 36c0 26bc f167 b1bc 437a a2ba e1f0 bdbd
000003c0: 9cae 81bc 1073 f33c a56a 88bd 9f6b 0abd
000003d0: ee51 a5bd 83b3 a7bd 65cc 883d 4bb4 ba3c
000003e0: 5ea2 f43b 2201 d1bc 8ba2 a9bc baa5 9f3d
000003f0: a5bc 2ebd 6507 65bc b518 52bc d8ed 9f3d

critic_fc1.bias f4 [64]
-0.025005339 -0.055407185 0.112416044 0.037899192 0.08898787 -0.007923113 -0.026334101 -0.073421575
0.17944618 -0.0023719787 0.016221741 0.1381209 0.19498482 0.13729966 -0.07587887 0.07884143
0.19975524 0.14626943 -0.0800141 -0.0860209 -0.030944362 -0.09066093 0.034982197 -0.024647791
0.15575904 0.052330405 0.15868145 0.15497413 0.2060717 0.062222596 0.10366012 0.16121124
0.037047636 0.0782195 0.0771805 -0.025550252 0.15570782 0.0054172166 -0.042382527 0.011956448
0.18576705 0.03647436 0.035030242 0.17239086 0.014542765 0.053372517 0.15636624 -0.07629846
0.031530723 0.04142801 0.21822818 0.18103124 -0.102553666 -0.039163753 0.039646376 0.19516225
-0.0608808 -0.019685572 0.16739212 -0.055035893 0.07928257 0.1901134 0.20002465 0.012775457
00000000: ffd7 ccbc a5f2 62bd 623a e63d 2f3c 1b3d
00000010: 463f b63d f2cf 01bc 9dba d7bc 0d5e 96bd
00000020: bdc0 373e 3373 1bbb 75e3 843c 916f 0d3e
00000030: 1aaa 473e 4898 0c3e 6266 9bbd 9e77 a13d
00000040: a38c 4c3e a7c7 153e 6fde a3bd ba2b b0bd
00000050: 087f fdbc 70ac b9bd 7e49 0f3d 2aea c9bc
00000060: 4c7f 1f3e 6858 563d 647d 223e 8ab1 1e3e
00000070: 7604 533e 1fdd 7e3d c24b d43d 8f14 253e
00000080: 43bf 173d 8c31 a03d cf10 9e3d c34e d1bc
00000090: df71 1f3e e882 b13b 4d99 2dbd fae4 433c
000000a0: b839 3e3e 2366 153d df7b 0f3d 3b87 303e
000000b0: c744 6e3c 249d 5a3d 791e 203e 5e42 9cbd
000000c0: 5c26 013d 6bb0 293d 3577 5f3e 4160 393e
000000d0: a807 d2bd 2c6a 20bd 3d64 223d 9dd8 473e
000000e0: 255e 79bd a343 a1bc d768 2b3e 516d 61bd
000000f0: e65e a23d 16ad 423e 43d3 4c3e 2750 513c

critic_fc2.weight f4 [1, 64]
-0.050256915 -0.028834851 0.20632307 -0.10540653 0.25903937 -0.071099356 0.038410038 -0.07267223
0.2210183 -0.26884532 -0.029266255 0.1541797 0.14622629 0.25503054 -0.095471345 0.1875219
0.17544359 0.23764864 -0.07625235 -0.19947977 -0.013725228 -0.035428997 -0.121522844 -0.095355414
0.18382058 -0.05227047 0.21007976 0.18252379 0.13386787 -0.043019783 0.18912812 0.20723176
-0.015946992 0.1686818 0.17478742 0.06323683 0.16538236 -0.23212458 0.020163087 -0.092446156
0.22069372 -0.075213164 -0.06567297 0.20217164 -0.06282331 0.00019747938 0.24709648 -0.08628952
-0.20052451 -0.067244336 0.13980612 0.1355948 0.002306894 -0.08177052 -0.08620514 0.17337446
-0.2339903 -0.067800045 0.20098682 -0.0024422223 0.250706 0.18583731 0.24878858 -0.091770604
00000000: 32da 4dbd 1137 ecbc 5b46 533e 61df d7bd
00000010: cfa0 843e 8a9c 91bd d853 1d3d 2ed5 94bd
00000020: 9f52 623e 18a6 89be c9bf efbc 49e1 1d3e
00000030: 58bc 153e 5d93 823e 7b86 c3bd be05 403e
00000040: 7ca7 333e 2a5a 733e 312a 9cbd 6d44 4cbe
00000050: c7df 60bc ff1d 11bd f8e0 f8bd b349 c3bd
00000060: 763b 3c3e 8f19 56bd 261f 573e 84e7 3a3e
00000070: a914 093e 8335 30bd cdaa 413e 9034 543e
00000080: 44a3 82bc ecba 2c3e 79fb 323e 5082 813d
00000090: fe59 293e 11b2 6dbe 0f2d a53c 6954 bdbd
000000a0: 89fd 613e 5c09 9abd 8d7f 86bd 1506 4f3e
000000b0: 82a9 80bd 7812 4f39 dc06 7d3e 8fb8 b0bd
000000c0: 4c56 4dbe 66b7 89bd 5629 0f3e 5dd9 0a3e
000000d0: 422f 173b 4d77 a7bd 528c b0bd 1389 313e
000000e0: 279b 6fbe c0da 8abd 7dcf 4d3e b10d 20bb
000000f0: 895c 803e 234c 3e3e 6fc2 7e3e 3af2 bbbd
