reinforcement_learning/actor_critic/actor_critic_250.pth (torch, 4834 bytes, 5 tensors)

fc1.weight f4 [64, 4]
000000 dc 43 72 3e 6a 97 36 3e e3 8c 85 3e 04 8d 91 3e
       0.23658699 0.17831197 0.2608405 0.284279
000010 80 fa a1 be 0c 3e de 3e a4 91 63 3e 48 54 3e 3f
       -0.3163643 0.43406713 0.22223526 0.74347353
000020 27 c2 10 be 4d d2 26 be 75 00 ba be b1 bb 97 be
       -0.14136563 -0.16291161 -0.36328474 -0.29635385
000030 33 44 22 3f dc a0 26 3c 68 64 04 bf 75 4d a8 be
       0.63385314 0.010170188 -0.5171571 -0.32871595
000040 cf 28 70 3d 6e 22 82 3e c2 12 27 3f 3a a8 37 3f
       0.058632668 0.25416893 0.65263 0.7174107
000050 75 80 8a bd 7f f6 0a bf b9 d8 c7 3d fa 1e 0c bf
       -0.067627825 -0.54282373 0.097581334 -0.54734766
000060 0b c6 a4 3e e6 9b 59 be a9 9d 00 3f da 47 74 be
       0.32182345 -0.21250877 0.5024057 -0.23855534
000070 ec 1a 82 3e 5c 13 1c bf dc 4f 0c bf 3c ab e2 be
       0.25411165 -0.6096704 -0.54809356 -0.44271266
000080 1b a8 c8 3c 84 96 f3 be 9b b9 41 bf ab 58 18 bf
       0.024494221 -0.47575772 -0.75673836 -0.59510297
000090 48 22 47 3d 48 87 3a be 65 7b 3e bf e7 e8 eb be
       0.048616678 -0.18215668 -0.74407035 -0.46076128
0000a0 a6 a9 08 bf 1d 5d 50 3e a3 e0 2d 3f 6d fa 85 be
       -0.5338386 0.2034802 0.67920893 -0.26167622
0000b0 fb 1e 0e 3e e2 9e 80 3e 2f d1 28 bd 9f 00 e3 be
       0.13879006 0.25121218 -0.041215118 -0.4433641
0000c0 f4 04 a2 3e b1 97 17 be 01 8e ce 3e b0 0f 89 bd
       0.31644404 -0.1480396 0.40342715 -0.06692445
0000d0 3f 35 84 3e 4b ad 83 3c 24 76 71 bd 6e c8 a4 3e
       0.25821874 0.016073843 -0.05895056 0.32184166
0000e0 a7 63 c3 3e a2 ba be bd 5b 45 85 3e be 10 ea 3e
       0.38161966 -0.09312941 0.26029477 0.45715898
0000f0 46 73 06 3e 20 fd 4c be ba f4 e2 be 5c 53 ca 3c
       0.13129911 -0.20018435 -0.44327337 0.024697952
000100 dc 44 3e bf c2 32 0e be c8 8d fd 3e e3 95 c5 3e
       -0.7432382 -0.1388655 0.49522233 0.38590917
000110 19 53 8c be ce 0d 17 bf a7 fb 2b be 47 4b e9 be
       -0.27407148 -0.5900544 -0.16795217 -0.45565245
000120 3a a7 e6 be 35 97 b3 bd fc 02 ec 3e d8 5c af 3e
       -0.4504946 -0.08769075 0.46096027 0.34250522
000130 20 14 ee 3c 33 b0 df bd 13 98 fa bc 8f 22 cc bc
       0.02906233 -0.10922279 -0.030590093 -0.024918823
000140 22 fb 47 be 17 8c b3 3e 23 99 ed be c5 6c 25 3e
       -0.19529393 0.35067818 -0.46405897 0.16154774
000150 1b ff 97 be f3 7c ba be d0 90 59 3d ad 5e 36 be
       -0.29686818 -0.36423454 0.05311662 -0.17809553
000160 c5 9a 20 3f 7b 1b e9 be 23 c7 91 be 13 87 65 3e
       0.6273616 -0.45528778 -0.28472242 0.22414808
000170 2b 9d 2b 3f 3b 68 12 be cd 55 6c bf 88 b7 1e bf
       0.67036694 -0.14297573 -0.9231842 -0.61998796
000180 73 e1 11 bf 8e 4b 23 bf 88 a2 a3 be 78 1f 0f bf
       -0.56984633 -0.6378716 -0.3195994 -0.5590739
000190 fa e9 c9 3e 61 55 0a 3e f8 9b 17 3d c9 fa b7 bd
       0.39436322 0.13509132 0.037013978 -0.0898338
0001a0 af 51 9b 3e bc a6 80 be f2 1a 3f 3e 31 1c b4 3c
       0.30335757 -0.25127208 0.18662623 0.021986099
0001b0 22 8b c6 be 92 5e 96 be 16 99 a5 3d a5 38 7b 3d
       -0.38778025 -0.29369026 0.080858395 0.061333317
0001c0 5a 5a cf 3e 33 f9 fa 3c 6f 61 db be 19 4d 8e 3e
       0.4049862 0.030636406 -0.42847773 0.27793196
0001d0 85 8e 01 3d f9 a3 8f be 39 cd 82 bf 2c d5 05 bf
       0.031630058 -0.2805479 -1.0218879 -0.522784
0001e0 fd bd bc bd 9a 08 17 3e e9 12 63 bf cf 5a 59 bf
       -0.09215925 0.14749375 -0.8870073 -0.8490419
0001f0 fd 60 dc 3e f1 b1 93 bd 71 db ac 3e 8a 32 fd 3d
       0.43042746 -0.07211674 0.3376117 0.12363155
000200 0a 51 a1 3d ad 95 b4 3e 12 62 e3 3e 82 e7 6e be
       0.07876785 0.35270444 0.4441076 -0.233305
000210 d2 5e 9c 3e d8 51 85 be e1 53 02 be 4a 1e 84 3c
       0.30541092 -0.26039004 -0.1272731 0.016127724
000220 94 28 55 be 4e 89 e2 bd 32 71 e2 3e 34 ed 42 3f
       -0.2081626 -0.11061345 0.44226986 0.76143193
000230 e6 8c 9e be 02 61 8b 3d ac f2 ae 3d e5 63 3f 3f
       -0.30966872 0.06805612 0.0854238 0.747618
000240 b5 b7 bc 3e c6 6f cc bd 94 da c0 be 20 bb dc bc
       0.36858907 -0.099822566 -0.37666762 -0.026944697
000250 fc 9a 84 be ec 2a b1 be 99 31 93 bf 75 af 31 bf
       -0.25899494 -0.3460306 -1.1499511 -0.6940835
000260 eb 29 2e 3e 59 b1 be 3c 47 3b 16 3f f9 a9 5c 3e
       0.17008178 0.023277925 0.586842 0.21549214
000270 fe c4 26 3f d6 2c b8 be db e4 2e bf 18 35 25 bf
       0.65144336 -0.35971707 -0.68317956 -0.6453414
000280 17 31 a9 be f8 80 c6 be ef 06 07 bf c1 36 64 bd
       -0.33045265 -0.3877027 -0.52744955 -0.05571628
000290 39 62 79 be ca 29 9d be 3b 88 8d ba 55 ba 18 be
       -0.24353875 -0.30695945 -0.0010798046 -0.1491483
0002a0 55 f9 b4 3e cf 69 ab be 38 26 81 3d 43 7d 02 3e
       0.35346475 -0.33479163 0.06306118 0.12743096
0002b0 df 5b 0c 3f ba fb 69 be 40 1f 0e bf 5e a2 00 bf
       0.54827684 -0.22849932 -0.55516434 -0.5024775
0002c0 f3 3e 98 3e 4a 24 09 bf 10 a7 d4 be 69 11 7f be
       0.29735526 -0.53571 -0.4153371 -0.24908985
0002d0 10 52 38 3d 76 14 c7 3e 2f 0c 77 3e 94 ac cf be
       0.045000136 0.38882798 0.24125741 -0.40561354
0002e0 cb 69 47 3e b8 f0 a2 be 75 d7 ce 3e 4c a8 2f 3d
       0.1947395 -0.3182428 0.40398756 0.04288511
0002f0 f7 c1 fb 3e 0a 65 75 be 53 7b 2c bf c5 2d a5 be
       0.4917142 -0.23964325 -0.6737568 -0.32261482
000300 b9 2b cc 3e c6 5f 94 3d 59 d0 8c 3f 69 34 2a 3f
       0.39877108 0.0724483 1.1001083 0.6648622
000310 2b ef ee be 9d 19 06 3e 0b f1 bc be 1b 0a 1e 3e
       -0.46666846 0.13095708 -0.3690265 0.15433542
000320 db 0b b2 bb e1 72 dd 3e c8 4c a1 bc 46 35 01 3c
       -0.005433542 0.43251708 -0.019689932 0.0078862365
000330 6a 99 a5 bd 08 31 0a 3f c2 66 99 3f 62 d9 2d 3f
       -0.08085902 0.53981066 1.1984484 0.67909825
000340 d9 c2 72 be d8 0d dc 3e 4f e6 f8 3e 5f 9c f7 be
       -0.23707141 0.42979312 0.48613212 -0.4836149
000350 57 d6 c1 be 2e b2 0b 3e b7 8a b3 bd 3a 0a 0f be
       -0.3785884 0.13642189 -0.08766692 -0.13968745
000360 3d 90 0a 3f 4a cd d9 be a3 7d 00 bf bd ec f8 3d
       0.5412634 -0.42539436 -0.50191706 0.12154529
000370 58 3e 50 be e2 c2 b0 be 3d 0a d1 be 6c 01 0d 3e
       -0.20336282 -0.34523684 -0.40828124 0.13770074
000380 69 a9 d9 3b 9b 16 d4 3e 76 4b 05 3f c0 da 16 3e
       0.0066425097 0.41423497 0.5206827 0.14731884
000390 20 12 3a be fe 9a 68 3e 7a 9d a3 3e b1 0c fb 3e
       -0.18170977 0.22715375 0.31956083 0.4903312
0003a0 f2 6e 30 bf ef b0 bf 3e 20 cc ca 3e 92 53 34 3f
       -0.6891929 0.37439677 0.3960886 0.7044002
0003b0 ab bd 7a 3e 3c 1a 94 3e 80 c1 04 bc 5e 24 49 bc
       0.24486415 0.28926265 -0.008102775 -0.012276737
0003c0 b3 97 5b be e8 d0 b7 3e 82 29 9c be 8e 8f f9 3d
       -0.21444587 0.3590157 -0.30500418 0.12185584
0003d0 e3 1f 32 3f a0 8e d9 bc bc fd 71 bf 88 04 e1 be
       0.69579905 -0.026557267 -0.9452779 -0.4394877
0003e0 1e 67 1c bf 1a d6 19 bf 70 79 a5 3e 2d 4b a0 39
       -0.61094844 -0.6009232 0.32319212 0.00030573588
0003f0 55 9e 15 bd 84 b4 7d be 55 5a 43 3e d2 4f 3b 3f
       -0.03652795 -0.24775892 0.19077428 0.7316867

fc1.bias f4 [64]
000000 38 b2 8b 3f cc 1d 42 3e f0 3e 67 3f 96 6c 2e be
       1.0913763 0.18956679 0.9033041 -0.1703361
000010 bc 5e 72 be 76 9f d1 bd ef fc a3 3f 30 ff a7 bd
       -0.23668951 -0.10235493 1.2811564 -0.0820297
000020 b4 2c c3 bc fe ad 02 3e ef 9a 71 3f 38 07 91 3f
       -0.023825027 0.12761685 0.94377035 1.1330328
000030 ee a6 a4 3f 9f ba a7 3f 24 00 4f 3f cd 84 d3 3e
       1.2863443 1.3103827 0.8085959 0.41312256
000040 6e 1b 93 be ee 3a dd be 11 e3 5e be d4 ee 61 3f
       -0.28731865 -0.43209022 -0.21766306 0.8825505
000050 8d 7a e4 be 23 e8 68 3f 8f c8 73 3f 43 03 6b be
       -0.4462475 0.9097921 0.95227903 -0.22950463
000060 04 b8 35 be 78 fd d5 be 65 2f 02 bf c9 5c 7c bd
       -0.17745978 -0.41794944 -0.5085357 -0.061611924
000070 86 a2 7e 3f c1 1c 93 3d 52 08 b5 3e 93 13 1e be
       0.9946674 0.07183219 0.3535791 -0.15437154
000080 f1 d4 94 3f 17 74 81 3f 2e e9 86 3e d9 84 3d 3e
       1.1627485 1.0113553 0.26349777 0.18507709
000090 89 48 09 be ed 66 2f be 08 90 8f 3f 74 cb 63 bd
       -0.13406576 -0.17129107 1.121583 -0.05561395
0000a0 5b 81 94 be 75 90 a3 3f 27 d5 b0 3f ef b4 0c be
       -0.2900494 1.277846 1.3815049 -0.13740896
0000b0 de c3 78 3f 59 a2 a4 3f b1 a9 98 3f 4d a2 ff bd
       0.9717387 1.2862045 1.1926786 -0.12482128
0000c0 3e 00 31 be 53 f6 8b 3f c2 15 70 3f 2e 71 eb bd
       -0.17285249 1.0934547 0.937832 -0.11496197
0000d0 b2 70 6f 3f af ed 6c 3f f5 bb 9a be 2f c7 b3 3f
       0.93531334 0.92550176 -0.30221525 1.4045161
0000e0 fc 9e 51 3f 1e c8 90 be fd c2 16 be 21 c7 a4 3f
       0.81883216 -0.28277677 -0.1472282 1.2873269
0000f0 d5 65 4d 3f 55 64 76 be 23 81 7f be e9 a9 a7 3e
       0.8023351 -0.24061711 -0.24951605 0.3274682

actor.weight f4 [2, 64]
000000 21 22 97 bc bf 19 27 bf b0 44 5a 3e bc e6 32 3e
       -0.018448891 -0.6527366 0.21315265 0.1747083
000010 61 ad 5d be 10 ba 58 3e 6e bc 8a 3c 80 08 7a 3e
       -0.2164817 0.21164727 0.016935553 0.24417305
000020 cb 7f 13 3f c7 8d 37 3f ed 8c 00 3e 2b ff 51 3e
       0.5761687 0.7170071 0.12553759 0.20507495
000030 72 1b f0 bb 76 5f 07 be 8d e4 51 be 89 49 eb 3b
       -0.0073274905 -0.13220009 -0.20497341 0.007180397
000040 f2 37 0a be 03 7a 49 3e dc 6a 2c be 16 64 d7 3d
       -0.13497904 0.1967545 -0.16837639 0.10517137
000050 ef ac 59 bc 61 07 29 3d bf a6 54 bb 62 92 93 3e
       -0.0132858595 0.041266803 -0.0032448021 0.2882262
000060 88 6b 2c 3e 6a 33 ae 3d 2a 22 21 be 74 56 e3 3d
       0.16837895 0.085059 -0.15735689 0.11100474
000070 3d 79 e2 bd c9 73 c6 3e b2 db af 3e e1 65 81 3d
       -0.110582806 0.38760212 0.34347302 0.0631826
000080 26 73 a3 bc fc ac 6b bc 77 9c 74 be 81 fd a2 be
       -0.019952368 -0.014384504 -0.23887812 -0.31834033
000090 d4 6c 9f 3d 73 76 c7 3e a5 ae 92 bd 9c 57 00 3f
       0.07784429 0.38957557 -0.07162217 0.5013368
0000a0 8f dc 8f 3d 69 a4 44 bd d2 6a d8 bb 98 07 80 3e
       0.0702449 -0.048008356 -0.006604531 0.25005794
0000b0 03 16 06 3e 2f 6d c0 3d 8a c8 bb bc 5b 47 12 3e
       0.13094334 0.09395825 -0.022922773 0.14285032
0000c0 f8 dd 9f be 54 22 a6 3d 2f 8e cb 3b e0 29 bd be
       -0.31224036 0.08112016 0.006212018 -0.3694601
0000d0 3b dc ff 3d 27 7e 6b bc 11 d4 cb bd 06 07 be bc
       0.124931775 -0.014373339 -0.09952558 -0.023196708
0000e0 e7 b7 ce bd 1f 53 83 bd dd ac a6 be 90 65 e8 bd
       -0.1009367 -0.064123385 -0.3255376 -0.113474965
0000f0 90 f7 3f 3d 47 71 b2 3d 0d 40 81 be 14 45 70 be
       0.046866953 0.08713012 -0.2524418 -0.23463851
000100 bc b0 ab 3d 8d 6a 2c 3f f7 1b 04 bd 88 33 2a be
       0.08383319 0.67350084 -0.03225323 -0.1662122
000110 cb 48 43 3e 33 19 b3 be 96 b3 6a 3d 5a 77 94 be
       0.19070737 -0.34980163 0.057300173 -0.28997308
000120 83 f4 f2 be 13 08 21 bf 01 a8 8d bc d2 02 20 be
       -0.47452173 -0.62902945 -0.017292025 -0.15626076
000130 dc 80 8a 3b 48 1f 28 3c 7a 14 54 3e 98 ac ef bd
       0.004226787 0.010261364 0.20710936 -0.117028415
000140 b9 4f 5b 3e 06 95 73 be 4e 0b 34 3e 3f a0 1a be
       0.2141713 -0.23787317 0.17582437 -0.15100192
000150 5b 22 f6 bd 7f 95 ba bd 64 bf bb 3d d3 67 48 be
       -0.120182715 -0.09110545 0.09167364 -0.19570856
000160 d6 c3 38 be b8 e4 c3 bc 1b 29 9f 3d 7b cf 78 bd
       -0.18043455 -0.023912773 0.07771512 -0.060744744
000170 56 b9 de 3d 8c e5 ef be db 30 d5 be 08 6c 6c 3c
       0.10875194 -0.46854818 -0.41638836 0.0144300535
000180 f5 5d 4d 3d d1 16 fe bd ff c3 c1 3e a9 83 7f 3e
       0.050138433 -0.12406696 0.37844846 0.24952568
000190 6f dd 87 3d 3a 4f 97 be ca df 06 3e 76 88 d4 be
       0.06634032 -0.29552633 0.13171306 -0.4151036
0001a0 07 e3 40 3d d3 1a 1a bd 7e fe 93 3d a5 5b 38 be
       0.04709151 -0.037623238 0.07226275 -0.1800371
0001b0 41 75 7c be c0 64 b6 bd 81 25 a7 3d 54 72 55 be
       -0.24654104 -0.08905935 0.0816145 -0.20844394
0001c0 a2 75 85 3e 1b 1c 37 bd d1 e8 d2 3d f6 0f 89 3e
       0.2606631 -0.044704538 0.102983125 0.2676999
0001d0 a4 91 c5 bd b9 5c a3 bd 00 72 b0 3d e2 70 db bd
       -0.09646919 -0.0797667 0.08615494 -0.1071489
0001e0 1b 64 89 3d b0 78 eb bc 6c bf d8 3e 5a 6d 40 3d
       0.06708547 -0.028744072 0.42333543 0.046979286
0001f0 7d fa dc 3d 99 56 3b be 6c d3 17 3e 89 d5 16 3e
       0.10789964 -0.18294753 0.14826745 0.14729895

actor.bias f4 [2]
000000 e4 b4 eb bc d5 8f a9 ba
       -0.028772779 -0.0012936542

critic.weight f4 [1, 64]
000000 13 bd 1e 3f bb 64 25 be b4 31 1a 3f 13 b4 00 bf
       0.62007254 -0.16151707 0.6023209 -0.5027477
000010 c7 58 ff be 9f 32 69 be e9 f3 4c 3f 70 53 e3 be
       -0.4987242 -0.22773217 0.8005968 -0.44399595
000020 84 37 0d bf 9a 2b 13 be 05 a0 cd 3e fe 8d 02 3f
       -0.55162835 -0.14372101 0.40161148 0.5099791
000030 1b 08 3c 3f 91 f7 1c 3f 2e 6d a3 3e 32 93 b5 3e
       0.7344987 0.61315256 0.31919235 0.35463864
000040 d8 8c db be 54 70 07 be 20 55 c8 be 22 1d 25 3f
       -0.42880893 -0.13226444 -0.39127445 0.6449758
000050 cd 8e ec 3c 38 91 3c 3f ce 79 f9 3e 4e c6 05 bf
       0.028876686 0.73659086 0.48725742 -0.52255714
000060 74 11 9b be 53 78 b3 3d d3 4d 66 bc 56 2c 80 3e
       -0.30286753 0.087631844 -0.014056641 0.25033826
000070 c5 17 06 3f 28 27 35 be b9 42 b3 3d cf 16 0e be
       0.5238002 -0.17690718 0.08752961 -0.13875888
000080 35 a6 10 3f 0a d1 24 3f b6 e2 03 3d eb 7b f1 bb
       0.5650361 0.6438147 0.03219863 -0.0073695085
000090 23 c0 40 be a2 2f 13 bf 89 8e 1a 3f 86 07 0b bf
       -0.18823294 -0.57494557 0.6037374 -0.54308355
0000a0 4a b7 28 be 85 a6 4c 3f ff 29 18 3f c8 44 f1 be
       -0.16476169 0.7994159 0.5943908 -0.47122788
0000b0 30 a9 42 3f 75 22 ef 3e bc 91 2f 3f 1e 71 b0 be
       0.7603941 0.46705976 0.6858175 -0.34461302
0000c0 31 a6 e7 be 5c f8 63 3f 12 ea 0f 3f e0 2b 28 bf
       -0.4524398 0.8905084 0.5621654 -0.6569195
0000d0 cb a6 db 3e 3b 4e 2e 3f 58 6b 43 3d 5f 1a 14 3f
       0.4290069 0.6808812 0.047709793 0.5785274
0000e0 4f 51 40 3f b5 f6 2c be 8a 55 02 bf b4 e7 30 3f
       0.7512407 -0.16890986 -0.5091177 0.6910355
0000f0 5d d9 26 3f 7b 20 ff be 38 46 ac be 5e 6a bb 3d
       0.6517542 -0.49829468 -0.33647323 0.09151147
