reinforcement_learning/actor_critic/actor_critic_0.pth (torch, 4814 bytes, 5 tensors)

fc1.weight f4 [64, 4]
000000 df 71 e3 3d 12 ee ae 3d 2a 34 d1 3e 11 da ca 3e
       0.111057036 0.08541502 0.4086011 0.39619496
000010 04 d1 97 be 8c d0 b3 3e 78 e5 9b be 3b 60 c1 3e
       -0.29651654 0.35120046 -0.30448508 0.3776873
000020 d0 0a ed bd 68 0e 32 be 6e 66 e6 be 36 d8 88 be
       -0.11574328 -0.17388308 -0.45000023 -0.26727456
000030 ca 78 8b 3e 80 42 b8 bc f0 0a 08 3d 90 85 0e be
       0.27240592 -0.022492647 0.033213556 -0.13918138
000040 a2 af 4d 3e c9 a9 3f 3d fa 9e d2 bd 3d 90 e0 3e
       0.2008653 0.04679278 -0.102842286 0.43860045
000050 b4 10 04 3e 90 18 79 be 2a 43 d5 3e c8 4c fa be
       0.12896997 -0.24325776 0.41652805 -0.48886704
000060 8b 29 b6 3e e1 58 12 be d2 6c f3 3e 5b 51 9b be
       0.3557857 -0.14291717 0.4754396 -0.30335507
000070 cc 42 d9 3e 10 bc c1 be 10 7b 33 be a8 80 36 be
       0.42433774 -0.37838793 -0.17527413 -0.17822516
000080 20 1a f2 bd d8 5e 86 be e0 ee ea 3c 00 c1 b0 be
       -0.11821389 -0.26244235 0.028678358 -0.34522247
000090 2c de 2c bd cb 42 44 3e 74 ab 26 3d e1 7b 16 be
       -0.042204067 0.19166104 0.040690854 -0.14695694
0000a0 82 6b d6 be 51 94 92 3e 0a bf cd 3e b0 31 bc be
       -0.41878897 0.2862878 0.40184814 -0.3675666
0000b0 af dd 97 3e 19 39 a5 3e cb 9c 04 be ee 61 dd be
       0.2966132 0.32270125 -0.12950437 -0.43238777
0000c0 6c 3d 99 3e 2f 7b d1 bd 36 ca c3 3e 78 9a c7 bd
       0.29929674 -0.102285735 0.38240212 -0.097462595
0000d0 2c 55 08 3e c3 00 83 bd 33 61 45 3d 2d 00 ca 3e
       0.1331374 -0.0639663 0.0481884 0.3945326
0000e0 cc a3 a6 3e 86 9f 34 bd 43 e7 dc 3e ed 30 e4 3e
       0.32546842 -0.044097446 0.4314519 0.44568577
0000f0 53 b3 0d 3c 14 ed 35 be c2 46 b2 be 3a a4 08 3c
       0.008648711 -0.1776622 -0.3481961 0.008339936
000100 49 b4 db be 99 ca 51 be 0b 48 3b 3b 33 4c 78 3e
       -0.42910984 -0.20487441 0.0028576877 0.24247818
000110 6c ba 1a be 06 c6 d2 be c8 9e 91 bd 6a 36 f8 be
       -0.15110177 -0.41166705 -0.07110363 -0.48479015
000120 75 1d d5 bd 0f 7a 2a be 8c 74 65 bd 42 a5 4b 3e
       -0.10406009 -0.16648124 -0.05601935 0.1988726
000130 cb 3b 90 bd 97 cc 25 be 4c c9 c2 3d 26 a1 87 3d
       -0.070426546 -0.16191326 0.095110506 0.066225335
000140 50 d1 68 be f8 30 bd 3e 9c f7 f9 be 78 a6 0e 3e
       -0.22736096 0.36951423 -0.48821723 0.1393069
000150 cc ad eb be b9 53 c4 be 9c f4 a3 bd 0a c7 98 be
       -0.46031034 -0.38345125 -0.0800564 -0.29839355
000160 9d 6e f5 3e 83 be fa be 9d de fc bd 0b 7d 89 3e
       0.47935954 -0.48973474 -0.123471476 0.26853213
000170 30 a3 d5 3e 10 71 3c bd ba 9c bc be 3c 63 f5 be
       0.41726065 -0.046006262 -0.36838323 -0.47927272
000180 0a ef e8 be 96 b3 ca be 80 c6 a2 3b 8e 38 bb be
       -0.45494872 -0.39590138 0.0049675107 -0.36566585
000190 b6 ff e3 3e 78 52 4a 3e 00 3c ee 3b c8 2e bc bd
       0.4453103 0.19758022 0.007270336 -0.0918861
0001a0 08 e2 c6 3e 44 a2 32 be b0 a0 59 3e 00 6d 29 3b
       0.38844323 -0.17444712 0.21252704 0.0025852323
0001b0 f8 30 65 be f8 48 d0 bd 20 11 46 3e 10 ea 0d bd
       -0.22381961 -0.10170168 0.1934247 -0.034647048
0001c0 2a 05 90 3e 07 f7 d3 bc 50 b7 bd be b1 4d a4 3e
       0.2812894 -0.025874628 -0.3705392 0.32090524
0001d0 74 9b 05 3e e8 f5 d0 3d 0e 49 da be 58 13 9c be
       0.13047582 0.10203153 -0.4263386 -0.30483508
0001e0 26 f7 e2 3b 8e 34 c7 3e 24 e6 ee be 18 f7 d8 be
       0.006926435 0.38907284 -0.46659958 -0.42376018
0001f0 7f 51 90 3e 0f 96 58 be be 92 ab 3e 28 26 10 3e
       0.28187177 -0.21150993 0.33510393 0.14077055
000200 22 3b 87 3e f9 fe e4 3e 4e 43 92 3e 28 38 9d be
       0.26412302 0.4472578 0.28566974 -0.30706906
000210 c7 5e 65 3e 5b 0b 8e be 58 ac 2e bd 92 e7 50 3d
       0.22399436 -0.2774304 -0.04264483 0.051002093
000220 86 27 aa be 18 c1 3c be 8c df bd 3d e1 5d b0 3e
       -0.3323328 -0.18433034 0.09271154 0.34446624
000230 0d 0e bb be a0 8b cf bd 8e e8 e0 be 53 60 b2 3e
       -0.36534157 -0.10134053 -0.43927425 0.34839115
000240 04 6e 84 3e f4 25 03 be 54 bf d8 be 20 ae 57 bd
       0.25865185 -0.12807447 -0.42333472 -0.052656293
000250 a4 f7 d9 be 80 44 07 be c0 1e b5 be b4 64 e2 be
       -0.42571747 -0.13209724 -0.35375023 -0.44217455
000260 78 e5 12 3e ad ab aa 3c f3 eb fc 3e 2b 75 45 3e
       0.14345348 0.020833815 0.49398765 0.19282977
000270 44 20 b3 3e 64 7f b8 be 60 63 b5 bc 30 e3 c5 be
       0.34985554 -0.3603469 -0.022142112 -0.38649893
000280 3f f2 ce be 0a 1d be be 1b ef c1 be 96 42 93 3d
       -0.40419194 -0.3713153 -0.37877735 0.07190435
000290 54 75 82 be 03 81 91 be cc e6 42 bd 70 dc 5e be
       -0.2548014 -0.2841874 -0.047583386 -0.21763778
0002a0 32 07 48 3e b1 85 de be c7 47 2d 3e 19 94 5d 3e
       0.19533995 -0.43461373 0.16921912 0.21638526
0002b0 e2 38 a8 3e 20 ca dd bd 10 09 1b 3d 6e c6 b8 be
       0.32855898 -0.10829568 0.03785044 -0.3608889
0002c0 5d 3e 9d 3e 8c 74 f8 be f6 24 d8 be 09 36 91 be
       0.30711642 -0.48526418 -0.422157 -0.28361538
0002d0 a3 2b 35 3e f3 a6 f2 3e c0 f8 ef 3d e6 1d db be
       0.17692427 0.47392997 0.11717367 -0.42796248
0002e0 35 ab 24 3e c2 57 92 be b3 a4 bc 3e 1b 1d 6d 3b
       0.16080935 -0.2858258 0.36844406 0.0036180678
0002f0 a0 28 f4 3e 60 f0 15 bd bc d7 bb be be 46 8d be
       0.47687244 -0.036606193 -0.3668803 -0.27593035
000300 77 8d fe 3e 5a 23 39 be 77 ca b4 3e be 99 d2 3e
       0.49717304 -0.18079892 0.35310718 0.4113292
000310 07 61 f5 be 81 5d 1d 3e 50 8a ca be 4d 78 d9 3d
       -0.47925588 0.153677 -0.3955865 0.10618649
000320 72 cd 3e 3e 72 3d f7 3e f6 1e 33 be 38 c2 89 bc
       0.18633059 0.48289067 -0.1749228 -0.016816244
000330 88 82 c5 3d f6 31 db 3e 72 0a f6 3e 70 80 b1 3e
       0.096440375 0.42811555 0.48054844 0.34668303
000340 09 7e ba bd c8 65 cc 3e 86 61 b1 3e 98 2b d3 be
       -0.091060705 0.39921403 0.34644717 -0.41244197
000350 c4 57 a1 be d8 75 13 3e b1 08 1f be cf 7b 0e be
       -0.31512272 0.14400423 -0.1553066 -0.13914417
000360 40 93 f9 3e 00 0c 8f be e8 6f ff be 80 35 94 bd
       0.48745155 -0.27938843 -0.49890065 -0.07236767
000370 e3 b6 c7 be 42 07 fb be e0 71 80 be ad 22 8a 3e
       -0.3900672 -0.49028975 -0.2508688 0.2697958
000380 68 d8 e0 3d 84 c4 d4 3e 50 40 ee 3e 60 18 34 3e
       0.10978776 0.4155618 0.46533442 0.17587423
000390 c4 ba 97 be dc 27 b4 3d 98 18 1c 3e e9 81 d3 3e
       -0.29634678 0.08796665 0.15243757 0.4131005
0003a0 82 48 ac be 23 39 b4 3e 17 5d 5c be 54 ca e0 3e
       -0.3364907 0.35199842 -0.21519886 0.43904364
0003b0 04 e1 b5 3e 25 70 d9 3e 49 1d 78 bd a0 28 d9 bd
       0.35523236 0.42468372 -0.060574804 -0.10603452
0003c0 6c 98 5d be 38 23 a7 3e 38 96 c9 be 50 f4 16 3e
       -0.21640176 0.32644057 -0.3937242 0.14741635
0003d0 e0 aa e2 3e 40 ed dd 3c 5a 2c d3 be 1a 19 95 be
       0.44270992 0.027090669 -0.41244775 -0.29120713
0003e0 e4 82 83 be 4a 47 ef be ab ed b1 bc e1 b7 b4 bd
       -0.256858 -0.46734077 -0.021719774 -0.088241346
0003f0 e8 bb 72 be fa 3b 87 be 56 85 07 3c 36 cb b1 3e
       -0.23704493 -0.26412946 0.008271536 0.3472535

fc1.bias f4 [64]
000000 75 4f f7 3d 16 f9 3c be c0 2d ae bc 66 35 95 be
       0.12075702 -0.18454394 -0.02126205 -0.29142302
000010 2a 58 f7 be b0 71 91 be bc 46 e6 3e 10 49 53 be
       -0.4830945 -0.2840705 0.4497584 -0.2063334
000020 e8 05 d6 bd 4b 75 84 3d b6 4c 81 3e c2 94 68 3e
       -0.10450345 0.06467684 0.25253838 0.22712997
000030 c6 73 eb 3e 40 9d 91 3e fa 3d b3 bd 66 c8 32 be
       0.45986766 0.28440285 -0.087520555 -0.17459258
000040 8e 5a c5 be 7e 63 d0 be 4f 9b 95 be ce 46 58 bc
       -0.3854565 -0.40700907 -0.29220054 -0.013200475
000050 b2 94 d2 be 6f 85 a7 bc 3c e1 92 3d b4 4f a6 be
       -0.4112907 -0.020449368 0.07171866 -0.32482684
000060 d4 05 7d be ca 05 bb be a2 44 d9 be e0 ab b8 be
       -0.24709255 -0.36527854 -0.42435175 -0.3606863
000070 e9 49 88 3d b8 6b 60 be 52 81 fe 3d 76 6c 88 be
       0.06654722 -0.21916091 0.1242701 -0.2664525
000080 54 56 62 3e 2a a7 80 3d b6 3a 94 be 23 78 93 be
       0.22103244 0.06281884 -0.28951043 -0.28802595
000090 30 d8 58 be 36 68 a7 be 84 66 e6 3e 6c 74 9f be
       -0.21176219 -0.32696694 0.45000088 -0.3114351
0000a0 40 6e b3 be c3 1e d1 3e 77 a9 b4 3e a4 2c 3b be
       -0.35045052 0.40843782 0.3528554 -0.18278748
0000b0 72 a1 12 3e 17 ca a7 3e 26 6c bb 3e 8c cb ac be
       0.14319399 0.3277137 0.36605948 -0.33749044
0000c0 61 c5 bd be c1 23 8e 3e 10 6e ca 3c 20 d5 72 be
       -0.3706465 0.27761653 0.024710685 -0.23714113
0000d0 fd 7b a0 3d b5 c8 3c 3d d8 c1 75 be 02 b1 ba 3e
       0.07836149 0.046089847 -0.23999727 0.3646317
0000e0 e0 2d 8d bc 47 2f e1 be f7 b7 c9 be a7 3e c3 3e
       -0.017233789 -0.43981382 -0.39398167 0.38133737
0000f0 40 ec e7 bc e0 4f a0 be f2 32 9b be aa e9 49 be
       -0.028310895 -0.3131094 -0.30312306 -0.19718042

actor.weight f4 [2, 64]
000000 1c 9f c0 3d 74 69 89 bd 34 d0 67 3d d4 77 d3 bd
       0.09405348 -0.06709567 0.056595042 -0.1032559
000010 5b b2 84 3d f0 63 28 bd 57 92 bc bc 40 d2 f8 bc
       0.06479331 -0.041110933 -0.023018999 -0.030373693
000020 dc fc b9 3d d7 84 c9 3d f2 9f cd 3d 64 c6 e9 3d
       0.09081432 0.0983979 0.10040273 0.11414793
000030 6a ba db 3b 8b da 6b bd 6c 6c 4a 3d 11 2c 5d bd
       0.006705572 -0.057581466 0.049419805 -0.053997103
000040 56 e2 4d 3d 50 a1 1d bc 17 4d 8c 3d 17 b9 80 3d
       0.05026468 -0.009620979 0.06850641 0.06285303
000050 40 7b ed bc 3a c1 87 bd 68 65 93 3d b2 d6 98 3d
       -0.028989434 -0.06628652 0.07197076 0.07462825
000060 ec 24 37 bd 78 14 fd 3d 08 a3 ae bd e0 46 10 3c
       -0.044712946 0.1235742 -0.085271895 0.00880596
000070 33 c8 61 bd cc d4 3f bd a0 c7 9a bc 77 52 df 3d
       -0.055122565 -0.0468338 -0.018894017 0.10904401
000080 ba cc f5 bc c3 39 2e bd 8f d7 3a 3d 78 ff 8e bc
       -0.030004848 -0.042535555 0.04561573 -0.017455801
000090 10 e4 a8 3c f2 a5 97 3d fd cf 44 3d 22 e7 ad 3d
       0.020616561 0.074046984 0.048049916 0.08491351
0000a0 2d 1f 97 3c 2f a2 d2 bd 11 63 31 3b f0 4e 16 bd
       0.018447483 -0.1028484 0.0027067105 -0.036696374
0000b0 3a 11 6a bb ed a5 2c 3d b4 56 39 3c 96 07 81 bd
       -0.0035715834 0.042150427 0.011312176 -0.06300275
0000c0 05 19 2a bd 81 46 ee 3d 48 4c 10 3d f8 6c 88 3c
       -0.041527767 0.11634541 0.035228997 0.016653523
0000d0 99 bb 41 3d bd 6d 8c bd 38 43 d4 bd 47 06 08 bd
       0.047298048 -0.068568684 -0.103643835 -0.03320911
0000e0 84 d7 55 3d 5d 44 87 39 86 fa 82 3d 84 7d c3 bd
       0.052207485 0.0002580014 0.0639544 -0.095454246
0000f0 34 10 f7 3d 86 af db bd a0 80 cb bd 55 6c f0 bb
       0.120636374 -0.10726838 -0.09936643 -0.007337133
000100 7d db ea bc 84 ef b3 3d 66 93 fe 3d 3c de e4 3d
       -0.028669113 0.08785918 0.12430458 0.111752
000110 9d 7b b9 bd 42 bf c6 bd 62 2d c7 3d 90 bf 7c bc
       -0.090567805 -0.09704448 0.09725453 -0.015426531
000120 f0 7f 31 3c 0c bb 2a bc 5e 7f 00 3c 94 cd 85 bd
       0.010833725 -0.010420572 0.007842867 -0.065333515
000130 76 aa 20 bc ce cd 83 bd ac ac 41 bd 3b c4 64 bd
       -0.009806266 -0.064357385 -0.047283813 -0.055851202
000140 7c fa ec 3c a4 03 01 bd 5c 18 7a bd 9c 95 de bd
       0.028928034 -0.031497613 -0.061058387 -0.108683795
000150 2e f9 d5 bd 1b bd 86 3c 81 d3 86 3c 40 8e 92 3c
       -0.10447918 0.016447594 0.016458275 0.017890096
000160 98 c3 05 3d ac b4 7f bd 60 7d b8 3b a8 cb 29 3d
       0.032657236 -0.06242816 0.0056301802 0.041453987
000170 7c 48 5a 3d 90 b8 0b bd 79 45 5d bd 58 be 00 bd
       0.053291783 -0.03411156 -0.054021332 -0.031431526
000180 ee 8a 76 3d 8b 6f c4 bd 5b 6b c0 3d e8 5d 52 bd
       0.060191087 -0.09591588 0.093954764 -0.051359087
000190 34 11 fd 3d b0 dd a3 3c ca 48 45 3c 00 03 ad 3a
       0.12356797 0.02000317 0.01204128 0.0013199747
0001a0 f2 85 ca 3d ae 0a 8d 3c bd ec 80 3d b8 8e da 3d
       0.09888829 0.017217007 0.06295154 0.10671753
0001b0 f5 6d e5 bd 0d 95 18 bd 4b 11 42 3d c0 cb 29 bb
       -0.11202613 -0.03725152 0.047379773 -0.0025908798
0001c0 61 a7 24 bc 3b b2 a3 bd a7 7b 97 3d 00 83 f2 bd
       -0.010049672 -0.07992979 0.07396632 -0.118413925
0001d0 a7 4c 9a bc a7 7a d1 bc 50 e1 b8 3d b4 ef c6 bd
       -0.018835379 -0.02557118 0.0902735 -0.097136885
0001e0 78 3f b0 bd a8 b8 be bd 68 9f 0a 3d b7 3a ed 3c
       -0.08605856 -0.09312564 0.033843428 0.028958661
0001f0 f4 cb 0b 3d 70 9c 3b 3c 90 97 9d bb 70 d8 a3 bd
       0.03413005 0.011450872 -0.0048093274 -0.080002666

actor.bias f4 [2]
000000 0e db 13 bd cd a1 c5 3b
       -0.03609758 0.006031251

critic.weight f4 [1, 64]
000000 d8 59 d5 3d 69 b4 53 3d 60 58 9e 3c dc 11 61 bd
       0.10417527 0.051685724 0.01932925 -0.054948673
000010 35 9f 8a bd 96 0a d3 3d 9d 86 69 3d ea 55 a9 bd
       -0.067686476 0.103047535 0.057013143 -0.0826834
000020 c6 9d a5 bd 6b e6 c2 bd bc 15 ad bd a9 ed 89 3d
       -0.080867335 -0.09516605 -0.08451411 0.06734783
000030 9e 75 9a bc aa 82 bc 3c e7 21 d7 3d d8 95 b8 3d
       -0.018854912 0.023011524 0.10504513 0.090129554
000040 75 6e c6 bd da 74 bc 3d 88 c9 84 bd 3d 3b ea 3d
       -0.09689037 0.09201975 -0.064837515 0.1143708
000050 58 71 4b 3d a5 18 85 3b d4 8c fd 3d fc 8a fb bd
       0.04966864 0.0040617757 0.123803765 -0.122823685
000060 68 37 f5 3c a2 3e ad 3d cc 15 d8 bd f0 7c b3 3d
       0.029933646 0.08459212 -0.105510324 0.08764064
000070 24 e1 2a bc 58 13 84 bc 41 04 c2 bd a1 e9 a3 3d
       -0.010429654 -0.016122505 -0.094734676 0.080035456
000080 20 e1 bc 3d 16 60 24 3d d9 7d 40 3d be c4 2c 3c
       0.09222627 0.040130697 0.046995018 0.010544954
000090 70 47 f6 bd 2c 67 65 bd 16 5a 91 bd d4 ee 2e bd
       -0.12025344 -0.056006595 -0.07097261 -0.042708233
0000a0 38 3f 82 3d 7d 0c 32 3d 5d 0d e9 3b 80 e3 ba bd
       0.06359714 0.04346894 0.0071121887 -0.091254234
0000b0 0a 65 e1 37 d9 a7 3d bb 39 b7 88 bc 98 77 d7 3d
       2.686914e-05 -0.0028939156 -0.01668893 0.105208576
0000c0 46 71 94 bd 30 c0 05 3e b7 98 fd 3d 38 38 53 bd
       -0.07248168 0.13061595 0.12382644 -0.051567286
0000d0 ed e1 5d 3d 17 4d 8c 3d 7a 13 a0 3d d0 1d 30 3d
       0.054170538 0.06850641 0.07816215 0.04299718
0000e0 78 90 d6 3d a0 8c f6 3d 56 3b 76 3b 3d 52 18 3d
       0.10476774 0.12038541 0.0037571988 0.037187804
0000f0 e0 2b 4f bc 9c b6 8c bd 00 43 4e bd 02 c2 2f 3c
       -0.012644738 -0.068707675 -0.050356865 0.010727407
