reinforcement_learning/actor_critic/actor_critic_999.pth (torch, 4834 bytes, 5 tensors)

fc1.weight f4 [64, 4]
0	0x3eb8bac9	0.36080006
1	0x3ec2d85d	0.38055697
2	0x3f3cf96e	0.738181
3	0x3edbe348	0.4294684
4	0xbeccdad6	-0.4001071
5	0x3ea6051b	0.3242577
6	0x3e2bd99d	0.16782232
7	0x3e9e1219	0.30873182
8	0x3e8dab20	0.2766962
9	0xbeac0ca4	-0.33603394
10	0x3fd67299	1.6753722
11	0x3fc0b200	1.5054321
12	0x3ebd21d1	0.36939862
13	0xbf1729bf	-0.59048074
14	0xbefcba6f	-0.49360988
15	0x3f94b317	1.1617154
16	0x3eac1e57	0.33616897
17	0xbf5536bc	-0.83286643
18	0xbf89fc32	-1.0780089
19	0x3e8383e3	0.2568656
20	0xbcd76870	-0.026294917
21	0xbea08fac	-0.31359613
22	0xbdf8c81e	-0.12147544
23	0xbed3c50a	-0.41361266
24	0x3d8cb513	0.06870475
25	0x3e3c8378	0.18409526
26	0xbeff7695	-0.49895158
27	0xbebf4b8a	-0.3736232
28	0xbf89383f	-1.072029
29	0x3e535ea0	0.20641565
30	0x3f85efc3	1.0463794
31	0x3eb5c415	0.3550116
32	0xbedc221d	-0.42994776
33	0x3e8e040d	0.27737466
34	0xbf0f2da5	-0.55929023
35	0xbef96445	-0.48709312
36	0xbefd9f6c	-0.49535692
37	0xbeceb44f	-0.4037194
38	0xbffa0a6c	-1.953443
39	0xbf5ff493	-0.87482566
40	0xbea7d1fd	-0.32777396
41	0x3e8d09f9	0.2754667
42	0xbe2ca351	-0.16859175
43	0xbe60368e	-0.21895811
44	0xbd4169e5	-0.04722013
45	0x3e90f1bd	0.28309432
46	0x3da6eb44	0.08150342
47	0x3e49e679	0.19716825
48	0x3e0a164c	0.13485068
49	0xbe438cfb	-0.19096749
50	0xbf38d032	-0.7219268
51	0xbf17634e	-0.591359
52	0x3f462728	0.774035
53	0xbf08bd09	-0.53413445
54	0xc008429e	-2.129066
55	0xbf74e434	-0.9566071
56	0xbdbf4e9f	-0.09341168
57	0xbca028b4	-0.019550659
58	0x3e073e93	0.13207464
59	0xbe841ea7	-0.25804636
60	0x3ea3347e	0.31875986
61	0xbefaf49a	-0.4901474
62	0xbebc0e7e	-0.36729807
63	0xbed21af8	-0.410362
64	0x3e6d3983	0.2316647
65	0xbea4e73a	-0.32207662
66	0xbd2a907d	-0.0416417
67	0xbe8158dd	-0.2526311
68	0x3ef4d7ae	0.478208
69	0xbe53d8f5	-0.20688231
70	0xbdc73817	-0.09727495
71	0x3d63dfc0	0.055633307
72	0x3ec8d6b6	0.3922631
73	0xbd8a76e5	-0.067609586
74	0xbf5a187b	-0.85193604
75	0xbe457b56	-0.1928533
76	0xbcefef41	-0.02928889
77	0xbe51e7ec	-0.20498627
78	0xbeccf83c	-0.40033138
79	0xbf71d7b2	-0.9446975
80	0x3c47e6f7	0.012201062
81	0xbe75cc4a	-0.24003711
82	0x3db0277e	0.086012825
83	0x3e140787	0.14455996
84	0xbe700ccd	-0.23442383
85	0xbe19d421	-0.15022327
86	0xc02dd1e1	-2.715935
87	0xbf85cfe0	-1.0454063
88	0xbd416f2a	-0.047225155
89	0xbe0ff1ae	-0.14057037
90	0xbe8cf0c3	-0.27527437
91	0xbee33c66	-0.44382018
92	0xbe8b4cf6	-0.27207154
93	0x3e3e39c5	0.18576725
94	0x400401d2	2.062611
95	0x3fc036a9	1.5016681
96	0x3c3a732c	0.011379998
97	0xbe67e001	-0.22644044
98	0xbe849b7c	-0.25899875
99	0x3dc2360f	0.09482967
100	0x3f30cb95	0.6906064
101	0x3d41d6ce	0.047323994
102	0x3f99637e	1.1983488
103	0xbd8b441e	-0.06800102
104	0x3e8f2d14	0.2796408
105	0x3f8d27ce	1.1027772
106	0x3f19ca0c	0.60073924
107	0x3f3c4ba1	0.735529
108	0xbe751c62	-0.23936608
109	0x3deb78cd	0.1149765
110	0xbd974fb0	-0.07388246
111	0xbf13afc0	-0.5769005
112	0x3ec3211d	0.381112
113	0xbf183958	-0.594625
114	0xbf3c22cf	-0.73490614
115	0xbed5f382	-0.41787344
116	0x3e9345f9	0.28764322
117	0xbf3d2558	-0.7388511
118	0xbfb8420f	-1.439516
119	0xbf025cde	-0.50922954
120	0xbe9160be	-0.2839412
121	0xbf03a3f7	-0.51422065
122	0xbfedad3f	-1.8568496
123	0xbf0f8a05	-0.56069976
124	0xbf950e6d	-1.1645027
125	0xbe050c88	-0.12993062
126	0x3f6c250b	0.92244023
127	0x3dd9a7bd	0.10627697
128	0x3b590b30	0.003311824
129	0xbe34636c	-0.17616051
130	0xbf11bcc8	-0.5692868
131	0xbf40fc47	-0.75384945
132	0x3ec96b91	0.3933988
133	0x3ef31f21	0.47484687
134	0x3fe01e68	1.7509279
135	0x3eb88243	0.36036882
136	0x3ea53c88	0.32272744
137	0x3d951b1d	0.07280562
138	0xbe8a324d	-0.269915
139	0x3ede8db0	0.43467474
140	0xbe97c25b	-0.2964047
141	0x3e8183b7	0.25295803
142	0xbec0280b	-0.3753055
143	0x3db2afb5	0.0872492
144	0xbe3e6d65	-0.18596418
145	0xbc55fb06	-0.013060337
146	0xbf04a039	-0.5180698
147	0x3d9a6fe1	0.075408705
148	0xbd920d86	-0.07131486
149	0xbe8d23f5	-0.27566496
150	0x3dbd9d81	0.09258557
151	0xbe183ed0	-0.14867711
152	0xbd9fb611	-0.07798398
153	0x3e7b2cdf	0.24528836
154	0xbf6663e8	-0.89996195
155	0xbfa14285	-1.2598425
156	0xbdcd773e	-0.10032509
157	0xbe511fcd	-0.20422287
158	0x3e441441	0.19148351
159	0xbe9b371a	-0.30315477
160	0xbe057713	-0.13033704
161	0xbe150458	-0.14552438
162	0x3e7e0fad	0.24810667
163	0x3c6e00a7	0.014526523
164	0xbe12ed92	-0.14348438
165	0xbde590c4	-0.112092525
166	0xbe64e7f5	-0.2235411
167	0xbe9aca6f	-0.3023257
168	0x3e2f8180	0.17139244
169	0x3c859ef2	0.016311143
170	0x3cc45d7c	0.023970358
171	0x3cf29a19	0.029614495
172	0x3eab0345	0.33400932
173	0x3e2c0ba3	0.16801314
174	0x3f93fc94	1.1561456
175	0x3eb1c64d	0.34721604
176	0xbf8024c0	-1.0011215
177	0xbf7b28e9	-0.981093
178	0xbfa399c2	-1.2781298
179	0xbf6c0edf	-0.9221019
180	0xbe5cb4d1	-0.21553351
181	0xbe8f4c87	-0.27988073
182	0xbfb3f788	-1.4059916
183	0xbe95c294	-0.29250014
184	0xbec66756	-0.38750714
185	0x3efe0f1e	0.49620908
186	0x3edfb396	0.436917
187	0x3f033b82	0.51262677
188	0xbe174c5e	-0.14775226
189	0x3e2fdf31	0.17174985
190	0x3ee7d0e1	0.4527655
191	0x3e2078e6	0.15671119
192	0xbcfac817	-0.030612988
193	0x3e6da9c6	0.23209295
194	0xbe6be9fe	-0.2303848
195	0x3eaaa882	0.33331686
196	0xbee16923	-0.44025525
197	0x3f184941	0.59486777
198	0x3fa4a92e	1.286413
199	0x3f048a7f	0.5177383
200	0x3e9e392c	0.30902994
201	0xbf5478aa	-0.8299662
202	0xbff9c319	-1.9512664
203	0xbe8c0e0e	-0.27354473
204	0xbf8838ed	-1.0642372
205	0xbf25528b	-0.64579076
206	0x3f31d0ee	0.69459426
207	0xbeacb12e	-0.33728927
208	0x3ecc3f7e	0.3989219
209	0x3f1b9929	0.6078058
210	0x3f03f77d	0.5154951
211	0x3ed1868e	0.4092297
212	0x3e49f1d5	0.19721158
213	0x3d99d0b7	0.07510512
214	0x3f3544c7	0.7080807
215	0x3e1d4caa	0.15361276
216	0xbe777d75	-0.24168952
217	0xbda8feb0	-0.08251703
218	0x3f08d447	0.5344891
219	0xbd8209d5	-0.063495316
220	0x3e12a3a4	0.14320236
221	0xbbc4a6fa	-0.0060013505
222	0xbf1ec8dd	-0.62025243
223	0x3e26ae89	0.16277517
224	0x3d7115a8	0.058858544
225	0xbe4cdb7e	-0.20005605
226	0x3fce9fab	1.6142477
227	0x3fbc9833	1.4733948
228	0xbf4f0403	-0.80865496
229	0xbe87b015	-0.26501527
230	0x3f5a29e0	0.85220146
231	0x3bf752c5	0.0075477087
232	0xbf454ff8	-0.7707515
233	0xbe89c600	-0.26908875
234	0xbfccdb44	-1.6004415
235	0xbeb02a98	-0.34407496
236	0x3e70173e	0.23446366
237	0xbe98aa1a	-0.29817277
238	0x3e344cf3	0.17607479
239	0xbe801a6f	-0.25020167
240	0xbdc56fc9	-0.09640462
241	0x3dcfcd60	0.10146594
242	0xbe9a1291	-0.3009229
243	0x3e5e766a	0.21724859
244	0x3f3524a0	0.7075901
245	0xbcdf54fb	-0.027262202
246	0x3f8f12d1	1.1177617
247	0x3de1e55e	0.110300764
248	0xbf2717f0	-0.652709
249	0xbe3d3a80	-0.18479347
250	0xc0070be3	-2.1101005
251	0xbf811d31	-1.0087034
252	0x3f04c17b	0.5185773
253	0x3d3d87e0	0.04627216
254	0x3f956953	1.1672767
255	0x3d5679fb	0.052362423

fc1.bias f4 [64]
0	0x3f8fe686	1.1242225
1	0x3f67d8dd	0.9056528
2	0x3f85a748	1.0441675
3	0xbc2d125a	-0.010563457
4	0xbdbc72d7	-0.092015915
5	0x3f7bc916	0.9835371
6	0x3fa82ac1	1.3138047
7	0x3e511229	0.20417084
8	0x3f9a0252	1.2031958
9	0x3c47653c	0.012170132
10	0x3f9de902	1.2336733
11	0x3f8258ae	1.0183313
12	0x3f9bafaf	1.2162989
13	0x3e6d740a	0.23188797
14	0x3f8543cd	1.0411316
15	0x3f18571e	0.5950793
16	0x3f85ace4	1.0443387
17	0x3fb98476	1.4493549
18	0x3ee37448	0.44424653
19	0x3f522833	0.8209259
20	0x3f3c6a1d	0.73599416
21	0x3ee7da83	0.452839
22	0x3f81cee8	1.0141268
23	0x3ee0576b	0.43816695
24	0x3fb7c035	1.4355532
25	0xbf50dc78	-0.8158641
26	0x3e0d4cc0	0.13798809
27	0x3f88648c	1.0655684
28	0x3f3a1857	0.7269339
29	0x3e5605cf	0.20900653
30	0xbf222aad	-0.6334637
31	0xbe42016d	-0.18945856
32	0x3f4433ae	0.76641357
33	0xbf24e346	-0.6440929
34	0x3db4ed39	0.08834309
35	0x3f88efea	1.0698216
36	0x3f395469	0.72394425
37	0x3f68b25e	0.90897167
38	0x3ee4567e	0.44597238
39	0x3f863c75	1.04872
40	0x3f97f33e	1.1871107
41	0x3f4ad190	0.79226017
42	0x3f7972d8	0.9744086
43	0xbf18969e	-0.59604824
44	0xbf44a0c6	-0.7680782
45	0xbf4dc6f6	-0.80381715
46	0x3f472903	0.77796954
47	0x3f7f5f35	0.9975465
48	0x3f8050ef	1.0024699
49	0x3f764ff4	0.9621575
50	0x3e1f1377	0.15534769
51	0xbfbfd43c	-1.4986644
52	0x3fa0fd70	1.2577343
53	0x3fa17e87	1.2616738
54	0x3f817cca	1.0116208
55	0x3f9da248	1.2315149
56	0x3ea32a2b	0.3186811
57	0xbfad9709	-1.3561717
58	0xbfa98b7c	-1.3245692
59	0x3f875c93	1.0575126
60	0x3f8f41ba	1.1191933
61	0x3f9d5458	1.2291365
62	0x3eeaa40e	0.4582829
63	0x3f7efb79	0.99602467

actor.weight f4 [2, 64]
0	0x3e5ad524	0.21370369
1	0xbed05417	-0.40689155
2	0xbf0f7764	-0.5604155
3	0x3e430e05	0.19048317
4	0x3f5d2a51	0.86392695
5	0xbe7cf5fa	-0.24703208
6	0x3e660f20	0.22466707
7	0xbf500223	-0.8125326
8	0xbd783f62	-0.06060732
9	0x3f2d877d	0.67784864
10	0xbe223fba	-0.15844622
11	0xbe42ee5f	-0.19036244
12	0x3e49a2bf	0.19690989
13	0x403768b0	2.8657646
14	0xbdda9f0a	-0.106748655
15	0xbcb49300	-0.022042751
16	0x3d8e6c71	0.06954277
17	0x3e0c195d	0.1368155
18	0x3fbdd6a5	1.4831129
19	0x3eb06efc	0.34459674
20	0xbe89d9d7	-0.2692401
21	0x3f3c0ee1	0.73460203
22	0xbda814e1	-0.08207107
23	0xbf873f66	-1.0566223
24	0xbe3f9367	-0.18708573
25	0xbe784ae4	-0.24247319
26	0xbfb447b2	-1.408438
27	0xbd84ab58	-0.06477994
28	0x3edd18d0	0.43182993
29	0x3f08d7cf	0.534543
30	0x3f600a50	0.87515736
31	0xbecfaeaa	-0.40562946
32	0x3e7f776e	0.24947903
33	0xbf01cfbd	-0.5070761
34	0xbe661509	-0.22468962
35	0xbe54427c	-0.20728487
36	0xbe654922	-0.22391179
37	0xbe90196d	-0.28144398
38	0x3e891aac	0.26778162
39	0xbe4fdfdf	-0.20300244
40	0xbea50533	-0.3223053
41	0xbdfdcf32	-0.12393035
42	0xbbe38397	-0.006943177
43	0x3e79757c	0.24361223
44	0x3eceea8c	0.4041332
45	0x3f2ca6c2	0.6744195
46	0xbf80a804	-1.0051274
47	0xbea26d8f	-0.31724212
48	0xbe830a4f	-0.25593802
49	0xbf92607c	-1.1435695
50	0x3f541cb2	0.82856286
51	0xbdf26918	-0.11836451
52	0x3ee65b3a	0.44991475
53	0xbe42c11c	-0.19018978
54	0xbee380cb	-0.444342
55	0x3c6ba64e	0.014382912
56	0xbf4c9d1f	-0.7992725
57	0xbde3e3c9	-0.11127431
58	0x3e8bb914	0.2728964
59	0x3ded5607	0.11588674
60	0xbea99680	-0.33122635
61	0xbd88ff08	-0.06689268
62	0x3f66ba9c	0.90128493
63	0x3e9c8907	0.30573294
64	0xbe2eb7c2	-0.17062286
65	0x3efbe638	0.4919908
66	0x3f1d2e57	0.61398834
67	0xbe106092	-0.14099339
68	0xbf2c2a27	-0.6725182
69	0x3db2ccb4	0.0873045
70	0xbe7ab278	-0.24482143
71	0x3f4210f9	0.7580715
72	0xbcf0df9c	-0.0294035
73	0xbf336de6	-0.70089567
74	0x3dfee4aa	0.12445958
75	0x3e42cc89	0.19023336
76	0xbe601ee4	-0.21886784
77	0xc03406aa	-2.8129067
78	0x3e6b10eb	0.22955672
79	0xbe21130b	-0.1572992
80	0x3dbefe5a	0.093258575
81	0xbe0dad16	-0.13835558
82	0xbfc64ecb	-1.5492796
83	0xbead70a7	-0.3387501
84	0x3e06dcdd	0.1317019
85	0xbf433c45	-0.7626384
86	0x3d5db054	0.054123238
87	0x3f7dd307	0.9915013
88	0x3e43bef3	0.1911581
89	0x3e4cf057	0.20013557
90	0x3fad936e	1.3560617
91	0xbc7ca307	-0.015419728
92	0xbe87b9c8	-0.26508927
93	0xbeca17fe	-0.3947143
94	0xbf5e65cb	-0.86874074
95	0x3ecb20da	0.396735
96	0xbe9913b7	-0.29897854
97	0x3edcb724	0.43108475
98	0x3e09b279	0.13446988
99	0x3e948dd5	0.2901446
100	0x3e229c8d	0.15880032
101	0x3e9fc144	0.31202137
102	0xbe917f89	-0.28417614
103	0x3e9d1dbc	0.30686748
104	0x3e5d436a	0.21607748
105	0x3e153b5a	0.14573422
106	0xbbfff814	-0.0078115556
107	0xbd98cab7	-0.0746054
108	0xbec263ad	-0.37966672
109	0xbf2e731e	-0.68144405
110	0x3f6ed499	0.9329315
111	0x3ecee14e	0.4040627
112	0x3e9be555	0.30448404
113	0x3f86eed7	1.0541638
114	0xbf53d41f	-0.82745546
115	0x3dc05764	0.093916684
116	0xbe77737a	-0.24165145
117	0x3e5f7bba	0.21824542
118	0x3e8f86d3	0.2803255
119	0x3d8bbf4e	0.06823598
120	0x3f523f49	0.82127815
121	0x3e421b3d	0.18955703
122	0xbed2928c	-0.4112743
123	0xbd1020c8	-0.035187513
124	0x3e3080c0	0.17236614
125	0xbde32779	-0.11091513
126	0xbf837c74	-1.0272355
127	0xbe882483	-0.26590356

actor.bias f4 [2]
0	0xbdddf0a2	-0.10836913
1	0x3e939e23	0.28831586

critic.weight f4 [1, 64]
0	0xbfb25ec7	-1.3935174
1	0x3f3b59b7	0.7318377
2	0x3e86d47b	0.26333985
3	0x3d9df943	0.077135585
4	0xbd149ced	-0.03628247
5	0x3f1542b8	0.5830493
6	0x3f521c1b	0.82074136
7	0xbfbdfe20	-1.4843178
8	0x3f0667e3	0.5250227
9	0xbf4b8eaf	-0.7951459
10	0x3f07a043	0.52978915
11	0x3faf5805	1.3698736
12	0x3f157395	0.5837949
13	0xbf2dbe8c	-0.67868876
14	0x3f19f897	0.60144943
15	0x3e63895d	0.22220369
16	0x3f2bd080	0.6711502
17	0x3fbaed86	1.4603736
18	0xbf361235	-0.7112153
19	0x3ea2d0d1	0.3179994
20	0x3e868bf3	0.26278648
21	0x3c7cf03f	0.0154381385
22	0x3eb9cf92	0.36291176
23	0xbe2dc61e	-0.16970107
24	0x3f4e7aaf	0.8065595
25	0xbf76aacf	-0.96354383
26	0x3e972dab	0.2952703
27	0x3ef775ed	0.48332158
28	0x3f3d22cf	0.7388124
29	0xbd8f8488	-0.070077
30	0xbfaa4600	-1.3302612
31	0xbfaf81b6	-1.371146
32	0x3e88c90a	0.2671588
33	0xbf88acf4	-1.0677781
34	0x3ef83181	0.48475268
35	0x3f29c695	0.6631864
36	0x3f08593b	0.53261155
37	0x3f597a11	0.84951884
38	0x3e47773b	0.19479077
39	0x3f05d1cf	0.5227327
40	0x3f567c57	0.8378348
41	0x3ef27d61	0.47361282
42	0x3fbc7703	1.472382
43	0xbf98e0bf	-1.1943587
44	0xbf88e558	-1.069499
45	0xbfc14706	-1.50998
46	0x3f40585b	0.7513482
47	0x3f70f2ba	0.9412037
48	0x3f812253	1.00886
49	0x3f3d6e21	0.7399617
50	0xbdf0fd02	-0.117670074
51	0xbfa6a104	-1.3017888
52	0xbfb08ed1	-1.3793584
53	0x3f6d34fd	0.9265898
54	0x3f1bb14a	0.60817397
55	0x3f8a38e9	1.0798618
56	0x3d2f3830	0.042778194
57	0xbfd287aa	-1.6447651
58	0xbfebe442	-1.8429034
59	0x3f6779cc	0.9042022
60	0x3f767175	0.9626687
61	0xbfa275cb	-1.2692198
62	0xbf2ebcc3	-0.6825678
63	0xbfa63433	-1.298468
