reinforcement_learning/actor_critic/actor_critic_750.pth (torch, 73334 bytes, 9 tensors)

fc1.weight f4 [128, 4]
0.31422532 -0.11707924 -0.07340015 0.15098572 0.18021342 -0.31465283 0.34222227 -0.49087262
0.100013606 -0.13903563 -0.17254815 0.024079656 -0.33700794 0.022154426 -0.74793416 -0.5449676
0.15668905 -0.27547356 0.18018354 -0.015904674 0.20067537 -0.17165035 -0.06497542 0.3640533
-0.40060547 0.31688586 0.3208715 0.09822717 -0.017402954 -0.18930864 -0.33136865 -0.4099849
-0.53525263 -0.44336292 0.30662733 0.13264206 -0.0722683 -0.25139153 0.28363234 0.25830007
0.084734365 0.22126527 0.71792734 0.41183674 0.53317755 -0.25997007 0.8285848 0.12283508
0.17792751 -0.13007313 0.49771914 -0.25139448 -0.261114 0.04134981 -0.2675648 0.6016603
0.08135103 0.34173876 0.307238 -0.39571136 0.14990179 0.41895086 0.56177026 0.23550692
-0.065791674 0.3440217 0.522298 0.5025391 -0.5826597 -0.43951485 -0.65042925 -0.2052689
-0.43109566 0.3520169 -0.43511665 0.11868331 0.40929356 -0.01604569 -0.55473727 -0.30704954
0.5434409 0.52896136 -0.15508766 -0.067853175 0.33805946 -0.31892443 0.15441705 0.20941375
0.18754797 0.36129096 -0.3607104 0.311355 -0.3363512 0.4407385 -0.23650527 -0.37972924
0.5600373 0.037380617 0.5153004 0.42626783 -0.040550947 -0.08379808 -0.0059396164 0.26499572
-0.28539428 0.09593418 0.2649526 0.490049 -0.32384562 0.29353762 0.47465608 0.031751238
-0.14768882 0.50167644 0.13603428 -0.15365948 -0.060443446 0.27359495 -0.10496387 -0.09285013
-0.13864164 0.0063006277 -0.13447112 -0.0020685012 0.48236597 0.3071935 0.27939272 0.36325714
-0.063621975 -0.3170725 -0.2671722 -0.1471706 -0.06671764 0.29232404 -0.69590366 -0.38695866
-0.03654308 -0.11086701 0.50333273 -0.19039984 0.2736291 -0.45308954 0.30638567 0.3367543
0.51672715 -0.24030697 -0.0691194 0.020997016 0.040999793 -0.08892187 -0.112921834 0.08759483
-0.091814145 -0.042519882 0.20604974 0.20998421 0.2400953 -0.1359377 0.80677426 0.40943605
-0.27369982 0.3275649 -0.19666009 0.20205873 -0.32374427 0.3012484 0.28016132 0.2575735
-0.1227814 -0.096562676 0.14983888 0.04506573 -0.25664324 -0.4050687 0.12624396 -0.12510766
-0.07241887 0.12462236 0.13234328 -0.48288864 -0.26266304 0.45493373 0.34264323 -0.39063802
0.11573148 0.41102254 0.21414009 -0.017262373 0.39301574 -0.057723522 0.4029376 0.14289987
-0.35991117 -0.17464001 -0.0012157895 0.511723 -0.27796826 0.3022279 -0.37231398 -0.3408422
-0.44444093 -0.01449317 -0.5378636 -0.0587663 -0.41893712 0.5523138 0.11099847 0.42073062
0.30482543 -0.34861052 0.35814622 -0.4559323 0.44772562 -0.3262197 0.099445514 0.11466343
0.17536983 -0.10934953 0.07888698 -0.22967069 -0.3742025 -0.046982087 -0.36966467 -0.25445586
-0.45981255 -0.15712981 -0.4761691 -0.23267846 -0.314567 0.50377125 -0.09859711 0.09115368
-0.09421465 -0.2906364 -0.026651945 -0.048641264 -0.24363062 -0.053730447 0.20819665 -0.03707617
-0.37535506 -0.4543528 0.20740162 -0.6229374 0.3983256 0.45502153 -0.14347164 -0.24529332
0.22036092 -0.4141436 -0.05623747 -0.14512223 0.048544005 -0.050362304 0.012989663 0.2429524
00000000: 24e2 a03e 3ec7 efbd d152 96bd 009c 1a3e
00000010: de89 383e 2d1a a1be c237 af3e a853 fbbe
00000020: efd3 cc3d 5b5f 0ebe 76b0 30be b342 c53c
00000030: 4e8c acbe 337d b53c 9d78 3fbf ff82 0bbf
00000040: 1873 203e df0a 8dbe 0982 383e 854a 82bc
00000050: d87d 4d3e 1cc5 2fbe d511 85bd 3265 ba3e
00000060: 291c cdbe dd3e a23e 4549 a43e 542b c93d
00000070: a490 8ebc 20da 41be 27a9 a9be 8ae9 d1be
00000080: 5106 09bf 7700 e3be 42fe 9c3e 52d3 073e
00000090: 6701 94bd 64b6 80be 4238 913e e83f 843e
000000a0: 3689 ad3d 5d93 623e 16ca 373f 44dc d23e
000000b0: 537e 083f cc1a 85be 221e 543f f590 fb3d
000000c0: a132 363e e431 05be 0bd5 fe3e c7b6 80be
000000d0: bcb0 85be 6b5e 293d 41fe 88be 6906 1a3f
000000e0: 5e9b a63d 62f8 ae3e 4d4e 9d3e ae9a cabe
000000f0: db7f 193e ba80 d63e 2dd0 0f3f ba28 713e
00000100: c9bd 86bd 9d23 b03e 52b5 053f 67a6 003f
00000110: 3029 15bf 1708 e1be 8882 26bf 0332 52be
00000120: 92b8 dcbe 8f3b b43e 9cc7 debe 3c10 f33d
00000130: ed8e d13e 4072 83bc 4303 0ebf 9935 9dbe
00000140: f11e 0b3f 036a 073f 4dcf 1ebe 9bf6 8abd
00000150: 2116 ad3e 104a a3be 811f 1e3e 8f70 563e
00000160: 930c 403e 21fb b83e 09af b8be ec69 9f3e
00000170: 3936 acbe 7aa8 e13e 702e 72be df6b c2be
00000180: 9b5e 0f3f 6b1c 193d baea 033f c73f da3e
00000190: c018 26bd 549e abbd 1da1 c2bb 85ad 873e
000001a0: 331f 92be 2479 c43d dea7 873e b4e7 fa3e
000001b0: 18cf a5be 904a 963e 1f06 f33e 960d 023d
000001c0: bd3b 17be de6d 003f 924c 0b3e e958 1dbe
000001d0: 8c93 77bd a314 8c3e 4cf7 d6bd 3528 bebd
000001e0: 13f8 0dbe 7f75 ce3b ccb2 09be b18f 07bb
000001f0: acf8 f63e 7748 9d3e 900c 8f3e d7fc b93e
00000200: 3d4c 82bd 5457 a2be cbca 88be e4b3 16be
00000210: 42a3 88bd 7fab 953e be26 32bf 721f c6be
00000220: 32ae 15bd 3e0e e3bd 6ada 003f 2df8 42be
00000230: 1d19 8c3e 5afb e7be 95de 9c3e 0f6b ac3e
00000240: 3b48 043f 0813 76be 798e 8dbd ef01 ac3c
00000250: 66ef 273d ab1c b6bd 9043 e7bd eb64 b33d
00000260: 0e09 bcbd 5429 2ebd b4fe 523e 1a06 573e
00000270: 8bdb 753e 4133 0bbe c288 4e3f 9aa1 d13e
00000280: 6222 8cbe 96b6 a73e 4361 49be 7ce8 4e3e
00000290: cfc1 a5be 3b3d 9a3e 4e71 8f3e ace0 833e
000002a0: d174 fbbd a7c2 c5bd 5d6f 193e d896 383d
000002b0: be66 83be 2a65 cfbe 1946 013e 391c 00be
000002c0: 5850 94bd 023a ff3d ff84 073e 2e3d f7be
000002d0: c57b 86be 13ed e83e ef6e af3e b501 c8be
000002e0: a004 ed3d 8c71 d23e 8a47 5b3e d269 8dbc
000002f0: 5c39 c93e 806f 6cbd d64d ce3e 5854 123e
00000300: 4746 b8be d5d4 32be 205b 9fba 4700 033f
00000310: db51 8ebe 9ebd 9a3e f09f bebe de82 aebe
00000320: c38d e3be c374 6dbc 6eb1 09bf efb4 70bd
00000330: ed7e d6be 7064 0d3f 2a53 e33d 016a d73e
00000340: 1412 9c3e 147d b2be f15e b73e f56f e9be
00000350: 4b3c e53e 4506 a7be 17aa cb3d a9d4 ea3d
00000360: 2694 333e a5f2 dfbd 7f8f a13d cb2e 6bbe
00000370: 7897 bfbe 4a70 40bd b044 bdbe 0a48 82be
00000380: 8d6c ebbe a3e6 20be 70cc f3be 4343 6ebe
00000390: ed0e a1be 27f7 003f 48ed c9bd c8ae ba3d
000003a0: 9cf3 c0bd 4bce 94be 2e55 dabc 103c 47bd
000003b0: 4e7a 79be 7514 5cbd 8131 553e 2fdd 17bd
000003c0: 8a2e c0be eea0 e8be 1761 543e d378 1fbf
000003d0: 55f1 cb3e 95f8 e83e 3bea 12be 2c2e 7bbe
000003e0: 4ba6 613e a10a d4be 4359 66bd ec9a 14be
000003f0: 14d6 463d b448 4ebd 98d2 543c 84c8 783e

fc1.bias f4 [128]
0.5350675 0.5648974 0.43297094 -0.21965112 0.5417546 0.12008432 0.41588458 0.62449276
-0.29706395 0.56458724 -0.060830783 -0.15084384 0.4177729 -0.3069601 0.5218494 -0.46521613
-0.096357 -0.2639823 0.044999257 -0.115832895 -0.346441 0.21564747 0.4501232 -0.035987884
-0.05253532 0.636344 -0.20296817 -0.26531437 0.013729671 0.270907 0.45448512 0.5726801
0.30300567 -0.32130525 -0.42136967 0.040038686 0.45936993 0.5707704 0.549478 -0.1690352
0.46879706 0.5087953 0.4479576 0.634193 -0.15699287 0.24764448 0.40065947 -0.25492987
-0.11604454 0.43655014 -0.39413616 0.47508004 0.4105502 0.6985241 0.28893107 0.3929499
-0.15971999 -0.28359094 0.5471828 -0.2965641 -0.31683934 -0.13333088 0.5589058 0.60571396
-0.31671807 0.21145315 -0.40972623 0.44700447 -0.5081466 -0.24915738 0.627502 -0.023869526
0.6144412 0.5024351 0.2404086 -0.36715898 -0.2505686 -0.09440498 -0.16875865 -0.18342106
-0.13520764 0.19627492 0.3332307 -0.3543252 0.22325078 -0.48997223 -0.3111723 0.06263141
0.3808715 0.16982041 -0.17084837 0.6286085 0.39679798 0.324817 -0.11110912 -0.18979867
0.33853522 -0.23569334 0.3784533 -0.2506195 0.28742385 0.44792113 -0.08255744 0.419658
0.28083754 0.34893706 0.36524537 -0.17052495 0.4863738 -0.068246394 0.5575267 0.15668826
0.6512171 0.24389 0.42491016 -0.17457275 0.30875072 -0.16484112 0.45465487 0.63656753
-0.16715625 -0.19375077 0.43521348 -0.46590388 0.58096135 -0.32857457 -0.4121074 0.29231396
00000000: 2ffa 083f 1e9d 103f 5eae dd3e 39ec 60be
00000010: 6eb0 0a3f c5ee f53d d3ee d43e c2de 1f3f
00000020: c418 98be ca88 103f b329 79bd cf76 1abe
00000030: 54e6 d53e e029 9dbe ec97 053f cf30 eebe
00000040: d256 c5bd b028 87be 2451 383d cc39 edbd
00000050: b760 b1be b1d2 5c3e 8c76 e63e 0868 13bd
00000060: 472f 57bd 71e7 223f e3d6 4fbe 49d7 87be
00000070: 6af2 603c 53b4 8a3e 46b2 e83e 2a9b 123f
00000080: 8f23 9b3e 1f82 a4be c4bd d7be 9bff 233d
00000090: 8932 eb3e 021e 123f 97aa 0c3f 9017 2dbe
000000a0: 2b06 f03e 6940 023f b35a e53e 795a 223f
000000b0: bdc2 20be 8496 7d3e 3d23 cd3e 2b86 82be
000000c0: c3a8 edbd 8083 df3e 37cc c9be b13d f33e
000000d0: a333 d23e 7ad2 323f c6ee 933e bb30 c93e
000000e0: a38d 23be d532 91be 2c14 0c3f 40d7 97be
000000f0: c438 a2be e487 08be 7314 0f3f 1210 1b3f
00000100: df28 a2be 2d87 583e a3c7 d1be c5dd e43e
00000110: e515 02bf 1d23 7fbe f9a3 203f 068a c3bc
00000120: 054c 1d3f 969f 003f ac2d 763e 43fc bbbe
00000130: 874a 80be 6657 c1bd 11cf 2cbe bbd2 3bbe
00000140: df73 0abe 4bfc 483e 379d aa3e 1d6a b5be
00000150: da9b 643e a4dd fabe fa51 9fbe e644 803d
00000160: 9701 c33e 67e5 2d3e e0f2 2ebe 7dec 203f
00000170: 1b29 cb3e 6a4e a63e 2e8d e3bd 955a 42be
00000180: 7d54 ad3e 9859 71be a2c4 c13e 3351 80be
00000190: 3829 933e eb55 e53e e013 a9bd 6add d63e
000001a0: f0c9 8f3e e1a7 b23e 7101 bb3e 189e 2ebe
000001b0: fd05 f93e c4c4 8bbd 12ba 0e3f e372 203e
000001c0: 2ab6 263f 4dbe 793e d38d d93e 33c3 32be
000001d0: 9314 9e3e 1ccc 28be 86c8 e83e 17f6 223f
000001e0: 022b 2bbe 9a66 46be 4dd4 de3e f48a eebe
000001f0: e2b9 143f ed3a a8be beff d2be 2daa 953e

actor_fc1.weight f4 [64, 128]
-0.05641898 0.07380909 0.08308174 0.11613296 0.05440365 -0.09170792 -0.049640533 0.019389834
0.09165151 0.011353895 -0.13490301 -0.160703 -0.057166327 -0.022571364 0.004322507 0.020804336
-0.11608922 0.14515837 0.08449428 0.16081625 0.09019134 0.012525164 -0.03920612 -0.0014031791
-0.12154352 0.060144264 -0.013714154 0.0429996 -0.03151188 0.052740607 0.040373735 -0.11493635
0.15394768 0.049531996 0.043103024 -0.08063649 0.09199293 -0.031274073 -0.027246056 -0.1214166
-0.0433558 0.017660756 0.06529179 0.0997928 0.09428514 0.054370653 -0.07038397 -0.11171102
-0.06917351 -0.0063711107 0.032034542 -0.02753586 -0.016220728 -0.06741662 0.104330234 0.008342646
0.037472695 -0.0038799436 0.0014252072 0.024919685 0.10362778 0.09030785 0.11479026 -0.031707596
-0.018724462 0.079961516 0.075852655 -0.094663285 -0.016387114 -0.04679542 0.04647224 0.054234106
0.06755484 0.025922222 -0.009069572 -0.082256295 0.06679988 -0.18657395 0.21575542 0.0020113045
0.01943769 -0.076982886 0.07850726 0.019303078 -0.018419625 -0.068013914 0.021162527 -0.0018032375
0.07963206 0.059910413 -0.2048722 0.060073327 0.031624336 -0.044031844 0.03992417 0.04424144
0.011143413 -0.04868788 0.062327527 0.043842204 0.042672742 0.07264511 -0.11955989 -0.06410617
-0.040934455 -0.12118819 0.09260929 -0.047837604 0.0648032 0.061729837 0.005053488 0.115803964
0.028892737 -0.075930595 0.013015343 0.0298717 0.03232018 -0.041246712 0.12541935 0.06859803
-0.09518535 0.010878652 0.0194806 0.06674358 0.09160668 0.055654738 -0.03221884 0.048506342
-0.09870346 -0.07369355 0.06933902 0.019066475 -0.045410197 -0.045373864 -0.050645113 -0.026362618
0.0633304 0.006938159 0.04919301 0.0046631168 -0.05130778 -0.0072996034 -0.008900989 -0.006158129
-0.07707923 0.035646413 -0.00874732 -0.03724186 -0.053685486 -0.07020929 0.06909767 -0.031951193
-0.065949164 -0.08206866 0.052616492 0.027424164 0.02330966 -0.078175806 -0.08713418 0.037929844
-0.052648343 0.084959425 -0.073405795 -0.0061728894 -0.07400635 0.022826897 -0.08108974 0.020498756
-0.054239992 -0.027557764 -0.08257414 0.018565547 0.027338332 0.002743239 -0.049560864 -0.009280515
-0.022753235 0.058887064 -0.0053265817 -0.05275885 -0.09752593 -0.021440163 0.050181672 -0.074393846
-0.061916087 0.05289787 0.0386489 -0.0757696 0.0037490472 0.082587115 0.071656995 -0.015712572
-0.033300973 0.015327677 -0.047759008 0.05905749 -0.056319695 -0.08112145 0.013515178 -0.04412264
-0.07448046 -0.012271716 0.053104516 -0.046555735 0.033442684 0.024917062 -0.068128 -0.034624446
0.014956519 0.00564283 -0.077992484 -0.027215052 -0.031012096 -0.044491805 -0.017428575 0.07166622
-0.07794098 0.0025130163 0.033344004 -0.006856518 -0.02110667 -0.04495925 -0.06510961 -0.06218839
0.06965655 -0.06879127 -0.041530278 -0.07962203 0.004962944 -0.06513868 -0.09872089 -0.014824826
-0.077949636 0.040426623 0.03858848 0.046402026 -0.040178284 -0.06555477 0.023405474 -0.09182475
-0.033469215 -0.05885683 -0.068673976 0.02014572 -0.0748331 -0.050296158 0.033369567 -0.044867538
-0.02486296 0.015173318 0.05656355 -0.024433224 -0.008798439 -0.040885363 -0.05791861 0.01991386
00000000: 9717 67bd 3829 973d c226 aa3d 1ed7 ed3d
00000010: 5dd6 5e3d 5dd1 bbbd df53 4bbd 6ed7 9e3c
00000020: c9b3 bb3d b005 3a3c 0424 0abe 548f 24be
00000030: 3d27 6abd 95e7 b8bc d1a3 8d3b db6d aa3c
00000040: 2fc0 edbd 65a4 143e 560b ad3d 04ad 243e
00000050: 3db6 b83d 5836 4d3c 9996 20bd e1ea b7ba
00000060: cfeb f8bd d559 763d 55b1 60bc 5920 303d
00000070: 9a12 01bd 8906 583d ee5e 253d c063 ebbd
00000080: 76a4 1d3e 10e2 4a3d cc8c 303d be24 a5bd
00000090: ca66 bc3d 3e19 00bd 1f33 dfbc 44a9 f8bd
000000a0: da95 31bd 4aad 903c b4b7 853d 2b60 cc3d
000000b0: 9118 c13d c3b3 5e3d 7925 90bd bfc8 e4bd
000000c0: d7aa 8dbd c0c4 d0bb a736 033d e292 e1bc
000000d0: 55e1 84bc ba11 8abd 17ab d53d 98af 083c
000000e0: f87c 193d a746 7ebb 05ce ba3a 5e24 cc3c
000000f0: cd3a d43d 52f3 b83d 2817 eb3d d3df 01bd
00000100: 0b64 99bc ddc2 a33d a358 9b3d d3de c1bd
00000110: 453e 86bc 8eac 3fbd ad59 3e3d 9524 5e3d
00000120: 315a 8a3d d75a d43c 8b98 14bc fd75 a8bd
00000130: 60ce 883d 3e0d 3fbe fdee 5c3e 17d0 033b
00000140: ca3b 9f3c 34a9 9dbd 6ac8 a03d 7d21 9e3c
00000150: c1e4 96bc e14a 8bbd 095d ad3c 9c5a ecba
00000160: 2216 a33d 9f64 753d 05ca 51be 730f 763d
00000170: 8588 013d bc5a 34bd 8787 233d 8336 353d
00000180: dd92 363c f16c 47bd 264b 7f3d e293 333d
00000190: 9dc9 2e3d f6c6 943d d1db f4bd 184a 83bd
000001a0: e3aa 27bd 8431 f8bd f0a9 bd3d 5df1 43bd
000001b0: 8ab7 843d 6dd8 7c3d bb97 a53b a12a ed3d
000001c0: 76b0 ec3c 8081 9bbd 4e3e 553c 7fb5 f43c
000001d0: 2a62 043d 50f2 28bd ee6d 003e 207d 8c3d
000001e0: 89f0 c2bd 603c 323c c795 9f3c dcb0 883d
000001f0: 489c bb3d 39f6 633d e7f7 03bd 96ae 463d
00000200: 0a25 cabd a5ec 96bd 9e01 8e3d 4c31 9c3c
00000210: 0b00 3abd f2d9 39bd 4071 4fbd 6bf6 d7bc
00000220: 5eb3 813d 7f59 e33b 9c7e 493d 0fcd 983b
00000230: 1b28 52bd 8331 efbb 74d5 11bc 21ca c9bb
00000240: b7db 9dbd f901 123d eb50 0fbc ec8a 18bd
00000250: 50e5 5bbd e3c9 8fbd 1483 8d3d 41df 02bd
00000260: 5b10 87bd 9d13 a8bd 6484 573d a4a8 e03c
00000270: e6f3 be3c a31a a0bd 6873 b2bd 535c 1b3d
00000280: caa5 57bd 35ff ad3d c755 96bd f345 cabb
00000290: a490 97bd 79ff ba3c 6112 a6bd 02ed a73c
000002a0: c12a 5ebd d2c0 e1bc a11c a9bd c616 983c
000002b0: a3f4 df3c eac7 333b 5500 4bbd 4d0d 18bc
000002c0: fe64 babc 9033 713d 9b8a aebb aa19 58bd
000002d0: adbb c7bd 48a3 afbc 4c8b 4d3d cd5b 98bd
000002e0: b99b 7dbd 70ab 583d 4f4e 1e3d 182d 9bbd
000002f0: 93b2 753b 6f23 a93d e7c0 923d a7b7 80bc
00000300: 9a66 08bd f020 7b3c f39e 43bd 44e6 713d
00000310: 7baf 66bd 0123 a6bd c46e 5d3c f1b9 34bd
00000320: 3689 98bd 4f0f 49bc 1f84 593d 3ab1 3ebd
00000330: 32fb 083d de1e cc3c b186 8bbd 5dd2 0dbd
00000340: 300c 753c 7de7 b83b 86ba 9fbd 1af2 debc
00000350: 140d febc 0a3d 36bd 5fc6 8ebc bdc5 923d
00000360: 859f 9fbd 6bb1 243b b993 083d a4ac e0bb
00000370: e5e7 acbc 3127 38bd 3058 85bd 41b9 7ebd
00000380: 18a8 8e3d 70e2 8cbd a71b 2abd e010 a3bd
00000390: 31a0 a23b 6e67 85bd 2e2e cabd d4e3 72bc
000003a0: 0fa4 9fbd 6396 253d f40e 1e3d 0d10 3e3d
000003b0: fc91 24bd 9441 86bd d6bc bf3c 9d0e bcbd
000003c0: 0417 09bd dc13 71bd f1a4 8cbd a308 a53c
000003d0: 1942 99bd 5803 4ebd 87ae 083d 06c7 37bd
000003e0: 68ad cbbc 8299 783c 2eaf 673d 2f28 c8bc
000003f0: 5427 10bc 6977 27bd 103c 6dbd 6422 a33c

actor_fc1.bias f4 [64]
-0.078502424 0.029371342 -0.08258338 0.054484032 0.031323712 0.072642066 0.036536496 0.06652901
0.038220722 0.04835868 -0.0055169174 -0.046889957 -0.026576916 0.039248478 -0.035070654 0.051751286
-0.08489186 -0.086400054 -0.047297277 -0.0005347172 -0.034183457 -0.011743341 -0.04507431 0.037489124
-0.02853816 0.025459971 -0.074744634 -0.023629857 0.044196945 0.03396874 0.0047601494 -0.038545586
-0.051435012 0.015050509 0.036826953 0.014590719 -0.037455797 0.021229923 0.08251342 0.041687343
-0.040934872 -0.06354083 -0.0127206175 0.0019333316 -0.10870971 0.09358071 -0.095838614 0.028331315
0.031846028 -0.053764872 -0.034187455 -0.08369561 -0.06385634 0.0021688475 -0.01285485 0.014437876
0.04679984 -0.083675794 0.014355417 0.07291085 -0.076598264 0.015030307 -0.009317897 -0.050270863
00000000: e1c5 a0bd 2b9c f03c 7a21 a9bd a62a 5f3d
00000010: 4b4d 003d 5dc5 943d 4ba7 153d 5d40 883d
00000020: 558d 1c3d c013 463d 42c7 b4bb af0f 40bd
00000030: d5b7 d9bc 03c3 203d 3fa6 0fbd 28f9 533d
00000040: c9db adbd 83f2 b0bd caba 41bd 442c 0cba
00000050: f403 0cbd 2467 40bc d79f 38bd 328e 193d
00000060: dcc8 e9bc 6e91 d03c b713 99bd 6793 c1bc
00000070: db07 353d ce22 0b3d 07fb 9b3b fae1 1dbd
00000080: 85ad 52bd 6996 763c dcd7 163d e90d 6f3c
00000090: 406b 19bd 60ea ad3c ccfc a83d 59c0 2a3d
000000a0: 53ab 27bd b221 82bd 236a 50bc d867 fd3a
000000b0: 32a3 debd 3ea7 bf3d 0947 c4bd 1317 e83c
000000c0: fb70 023d 8e38 5cbd 2508 0cbd 9b68 abbd
000000d0: 1dc7 82bd 3923 0e3b 269d 52bc d78c 6c3c
000000e0: 30b1 3f3d 375e abbd fc32 6b3c 4952 953d
000000f0: 8ddf 9cbd ad41 763c 18aa 18bc d2e8 4dbd

actor_fc2.weight f4 [2, 64]
-0.044382997 0.11546111 -0.108509645 -0.01624699 -0.15926938 -0.076615974 0.08053415 0.10092418
-0.035582732 -0.14391723 0.06652698 -0.11454572 0.08791147 0.08954907 0.23182361 0.09620297
0.0064019687 -0.11041179 -0.083272025 -0.09962399 -0.18750966 -0.06863293 -0.017983617 0.3027587
-0.16522121 -0.05334229 0.070308276 -0.033103485 -0.13117175 0.0032746037 0.051487356 -0.10957578
0.056228966 0.099114776 -0.0029640656 -0.12982307 0.02087935 -0.06811711 -0.1470863 0.08860055
-0.023132175 -0.09733527 -0.0900831 -0.08387652 0.058012158 -0.1675638 0.020003373 -0.16413899
0.07392526 0.028610878 -0.08802749 0.02104146 -0.01810781 0.005053026 0.027326535 0.26520628
-0.091943316 0.022430688 -0.08104683 0.0065608057 0.0038698884 0.045595497 0.035417236 -0.12776175
-0.1491061 -0.13675171 0.09205535 0.15753645 0.023176497 0.017933082 -0.0291789 -0.10330716
-0.03340259 0.11705861 -0.06269005 0.038048625 0.03334608 0.06435956 -0.16493316 -0.036339555
0.076906905 0.012344784 0.16848643 0.17168054 0.22526152 -0.07551641 -0.064545326 -0.100539386
-0.027256414 0.016509455 -0.067113005 -0.04798681 -0.05507645 -0.1184867 -0.015429143 0.1604153
0.037555486 0.096773624 -0.051517554 -9.293863e-05 0.02824781 -0.07693543 -0.0020472128 -0.052172713
0.013995692 -0.12902711 0.054734707 0.15416315 0.08633059 0.09670396 0.03584133 0.21876164
0.12611547 -0.003835894 -0.097000755 -0.07625139 0.05158898 0.04885121 0.052986037 -0.27514967
0.055169154 -0.07813842 -0.06487861 0.1688677 0.029614067 -0.052848283 -0.0005088104 0.05882106
00000000: f2ca 35bd e076 ec3d 4e3a debd 6818 85bc
00000010: 8317 23be d6e8 9cbd 17ef a43d 56b1 ce3d
00000020: 33bf 11bd 0a5f 13be 4c3f 883d f296 eabd
00000030: ee0a b43d 8165 b73d 2b63 6d3e 1006 c53d
00000040: 9bc7 d13b 941f e2bd 868a aabd aa07 ccbd
00000050: 8802 40be 6c8f 8cbd 6152 93bc 3003 9b3e
00000060: c02f 29be 727d 5abd c9fd 8f3d 8597 07bd
00000070: e351 06be bc9a 563b 68e4 523d 4469 e0bd
00000080: 5850 663d b0fc ca3d c540 42bb 57f0 04be
00000090: 2c0b ab3c fc80 8bbd cb9d 16be 3574 b53d
000000a0: b07f bdbc b757 c7bd 7d7d b8bd 74c7 abbd
000000b0: 289e 6d3d d895 2bbe 1dde a33c 0d14 28be
000000c0: 2066 973d 5c61 ea3c c247 b4bd 245f ac3c
000000d0: d456 94bc db93 a53b e6db df3c 1ec9 873e
000000e0: c74c bcbd 90c0 b73c e1fb a5bd 07fc d63b
000000f0: f49d 7d3b 58c2 3a3d aa11 113d fad3 02be
00000100: 45af 18be a408 0cbe 8487 bc3d 3c51 213e
00000110: a3dc bd3c 66e8 923c 9708 efbc b492 d3bd
00000120: 27d1 08bd 6dbc ef3d a463 80bd e0d8 1b3d
00000130: e695 083d f2ce 833d 3de4 28be c9d8 14bd
00000140: 5e81 9d3d c741 4a3c b587 2c3e 06cd 2f3e
00000150: f5aa 663e 59a8 9abd 5730 84bd 98e7 cdbd
00000160: d848 dfbc d63e 873c 8b72 89bd d18d 44bd
00000170: d897 61bd 28a9 f2bd 84ca 7cbc e943 243e
00000180: c8d3 193d 4031 c63d 1204 53bd 0ce8 c2b8
00000190: f467 e73c 5390 9dbd 882a 06bb 0eb3 55bd
000001a0: 304e 653c af1f 04be 8031 603d f2dc 1d3e
000001b0: 18ce b03d ba0c c63d 5cce 123d 0d03 603e
000001c0: 6a24 013e 9f63 7bbb 55a8 c6bd b029 9cbd
000001d0: f74e 533d 3518 483d e307 593d 6be0 8cbe
000001e0: 0df9 613d 0907 a0bd 14df 84bd a8eb 2c3e
000001f0: 3399 f23c 7177 58bd b061 05ba 5aee 703d

actor_fc2.bias f4 [2]
0.10990428 0.09760029
00000000: 7f15 e13d a9e2 c73d

critic_fc1.weight f4 [64, 128]
0.029170098 -0.003142224 0.0068743415 -0.013980057 -0.006224826 -0.011250964 0.07427726 -0.08270455
-0.09453659 0.04214363 -0.059782535 -0.056239285 -0.0037807287 0.017798336 -0.053019777 -0.03830136
0.074502476 -0.0071068313 0.07456428 -0.031492136 -0.052574042 0.051056206 0.047257014 0.02984646
-0.047416665 0.044764515 -0.054086126 -0.056260142 -0.0031508035 -0.08240913 -0.06102128 0.0052594543
-0.012500914 -0.053669795 0.03415181 0.073672466 -0.059998173 0.04005957 -0.06530681 -0.08683966
0.058728084 0.0031797285 0.057201523 0.0010605117 -0.04602164 -0.016517919 -0.069503635 0.015890826
-0.042658716 -0.040465046 -0.0020620662 -0.04292186 -0.008008882 0.0022661036 0.06823534 -0.052633125
-0.010777665 -0.05122787 0.059511546 0.009642345 0.0016355928 -0.033656135 -0.0143154105 -0.022307158
-0.052441668 -0.07100731 -0.014350717 -0.07150384 0.07632593 0.01779477 -0.058586456 -0.010714055
0.0393893 0.0051199584 -0.029620275 -0.07970891 -0.015506269 0.048985515 0.07199086 -0.07304195
-0.05662381 -0.060415573 -0.030351631 0.079086125 -0.04433507 -0.07572154 0.014166925 -0.013027148
-0.07144938 0.06437109 -0.054178454 -0.057102654 -0.00459093 0.06392886 -0.07171075 -0.030897612
0.037348226 0.040656827 -0.06850817 0.024825895 -0.05916864 -0.041002758 0.052726865 -0.07320341
0.07319239 0.0028939417 -0.01714813 0.044217817 -0.03305427 0.031567007 -0.03269259 -0.073743686
-0.057835665 0.07484701 -0.06544683 0.021157052 0.044717964 -0.011430112 -0.0895288 -0.08085725
-0.035113804 -0.03995732 -0.06257027 -0.08077351 -0.054324295 0.042256936 -0.06777047 -0.024365561
0.018164253 0.035970744 0.0024636933 -0.06688115 -0.03186653 -0.02133922 -0.08183515 0.013279137
0.06538122 0.06373789 0.042070884 0.029161718 -0.025237957 0.017129086 0.05755464 0.08761295
-0.045037586 -0.057364862 0.030733028 -0.08761499 0.056529384 0.045700725 -0.07003202 -0.047920093
-0.08949761 0.055059556 -0.048885632 0.0509281 -0.06864342 -0.029210167 -0.060980532 0.02234306
-0.04536804 -0.05316238 0.068904035 -0.061959185 -0.09163441 -0.0079063205 -0.0683726 0.07223177
-0.07062177 -0.0692958 0.03604557 -0.04315104 -0.020156719 0.059505533 -0.017419998 0.042185463
-0.073564716 0.033310402 -0.033583537 0.028623074 -0.052180804 0.04589304 0.014680759 -0.07980383
0.08752778 0.0461758 -0.01192984 0.01468903 0.079271615 0.009924613 -0.06243051 0.06490886
0.0052901143 0.02314237 0.03879375 0.067550875 0.020763181 -0.006401779 -0.035667498 0.06148904
0.009528106 -0.0015972601 0.06712366 -0.0828944 0.062452633 -0.0022924854 -0.009248705 -0.05632764
0.037948765 -0.08166371 -0.07407847 -0.06743388 0.08602946 -0.010461195 0.01450293 -0.016057601
-0.038310073 -0.05651707 0.04692294 -0.06837288 0.06074087 -0.024324141 0.020159386 0.05807711
-0.092627816 0.017407857 -0.06959748 0.035631303 -0.077514775 -0.012681323 0.03359367 -8.736553e-06
-0.012649438 -0.022309419 0.043794863 -0.012223155 -0.010177663 -0.021656008 -0.0012396056 -0.0927446
-0.01583033 0.029717952 -0.06660966 -0.03379404 -0.080722675 -0.08188536 0.0667961 0.022791049
0.0074656447 -0.025513235 -0.02070739 0.07795282 -0.042660374 -0.013978814 -0.012823273 0.07809037
00000000: 21f6 ee3c c5ed 4dbb 2842 e13b 9c0c 65bc
00000010: a0f9 cbbb f755 38bc ad1e 983d 0161 a9bd
00000020: 669c c1bd cd9e 2c3d 88de 74bd 2a5b 66bd
00000030: 1ac6 77bb d1cd 913c 442b 59bd e3e1 1cbd
00000040: c194 983d 6ce0 e8bb 28b5 983d e6fd 00bd
00000050: e157 57bd 5020 513d 9290 413d 9080 f43c
00000060: fa37 42bd ff5a 373d 6a89 5dbd 0971 66bd
00000070: b67d 4ebb 1ec6 a8bd 73f1 79bd 8057 ac3b
00000080: a2d0 4cbc dcd4 5bbd c5e2 0b3d 97e1 963d
00000090: a5c0 75bd 8115 243d 94bf 85bd fed8 b1bd
000000a0: dc8c 703d fe62 503b 254c 6a3d de00 8b3a
000000b0: 3081 3cbd 9650 87bc ec57 8ebd 7a2d 823c
000000c0: e8ba 2ebd adbe 25bd bb23 07bb d5ce 2fbd
000000d0: b037 03bc e982 143b f8be 8b3d d595 57bd
000000e0: ce94 30bc 51d4 51bd 61c2 733d edfa 1d3c
000000f0: 6361 d63a 04db 09bd 2f8b 6abc 80bd b6bc
00000100: 13cd 56bd 486c 91bd 451f 6bbc 9b70 92bd
00000110: c550 9c3d 56c6 913c 5af8 6fbd 018a 2fbc
00000120: ad56 213d 53c5 a73b 38a6 f2bc 6d3e a3bd
00000130: 020e 7ebc 09a5 483d f26f 933d 0597 95bd
00000140: 5eee 67bd 5276 77bd fca3 f8bc e8f7 a13d
00000150: b198 35bd e513 9bbd 641c 683c d26f 55bc
00000160: 0d54 92bd fdd4 833d 3aea 5dbd 79e4 69bd
00000170: 836f 96bb 22ed 823d 16dd 92bd fd1c fdbc
00000180: 74fa 183d c687 263d 034e 8cbd ad5f cb3c
00000190: d15a 72bd 82f2 27bd 20f8 573d abeb 95bd
000001a0: e4e5 953d 49a8 3d3b 3c7a 8cbc be1d 353d
000001b0: ea63 07bd 684c 013d aae8 05bd ee06 97bd
000001c0: 17e5 6cbd 6449 993d fd08 86bd 8e51 ad3c
000001d0: 2f2a 373d 5d45 3bbc e05a b7bd 7c98 a5bd
000001e0: 7ed3 0fbd 49aa 23bd d724 80bd 956c a5bd
000001f0: 2783 5ebd 9c15 2d3d 3fcb 8abd 499a c7bc
00000200: 33cd 943c 0f56 133d ea75 213b fcf8 88bd
00000210: 7b86 02bd 97cf aebc 3099 a7bd bd90 593c
00000220: 97e6 853d 0389 823d 8552 2c3d 8ee4 ee3c
00000230: d5bf cebc 4c52 8c3c 6abe 6b3d 6b6e b33d
00000240: 5579 38bd 6bf7 6abd d5c3 fb3c 7d6f b3bd
00000250: 5b8b 673d af30 3b3d f36c 8fbd dc47 44bd
00000260: 864a b7bd 2186 613d 4d3c 48bd fc99 503d
00000270: ec94 8cbd 294a efbc b9c6 79bd cb08 b73c
00000280: d7d3 39bd ccc0 59bd 8f1d 8d3d eac8 7dbd
00000290: d2aa bbbd 8389 01bc ef06 8cbd 40ee 933d
000002a0: 26a2 90bd f5ea 8dbd 85a4 133d 25bf 30bd
000002b0: b41f a5bc 13bc 733d 62b4 8ebc aaca 2c3d
000002c0: 19a9 96bd 7d70 083d e48e 09bd f07a ea3c
000002d0: 8abb 55bd 57fa 3b3d 9187 703c 3170 a3bd
000002e0: c441 b33d d622 3d3d 6075 43bc 42aa 703c
000002f0: 2859 a23d d89a 223c 22b7 7fbd f0ee 843d
00000300: b258 ad3b 1195 bd3c 32e6 1e3d 1d58 8a3d
00000310: 8c17 aa3c 04c6 d1bb 1518 12bd eedb 7b3d
00000320: c61b 1c3c 285b d1ba 2178 893d 8ac4 a9bd
00000330: 55ce 7f3d 863d 16bb e187 17bc d0b7 66bd
00000340: 2a70 1b3d 4e3f a7bd 74b6 97bd c61a 8abd
00000350: 3730 b03d 6f65 2bbc b39d 6d3c 3b8b 83bc
00000360: 06eb 1cbd 717e 67bd 4532 403d 1507 8cbd
00000370: 6bcb 783d 6c43 c7bc 4c25 a53c 44e2 6d3d
00000380: a7b3 bdbd ec9a 8e3c 2089 8ebd 21f2 113d
00000390: 11c0 9ebd 53c5 4fbc 8499 093d 3693 12b7
000003a0: 973f 4fbc 3ec2 b6bc 3e62 333d a143 48bc
000003b0: 36c0 26bc f167 b1bc 437a a2ba e1f0 bdbd
000003c0: 9cae 81bc 1073 f33c a56a 88bd 9f6b 0abd
000003d0: ee51 a5bd 83b3 a7bd 65cc 883d 4bb4 ba3c
000003e0: 5ea2 f43b 2201 d1bc 8ba2 a9bc baa5 9f3d
000003f0: a5bc 2ebd 6507 65bc b518 52bc d8ed 9f3d

critic_fc1.bias f4 [64]
-0.025005339 -0.055407185 0.11027727 0.037899192 0.086988814 -0.007923113 -0.026334101 -0.073421575
0.17736457 0.014073825 0.016221741 0.13566302 0.19243482 0.13543221 -0.07587887 0.07655691
0.19753005 0.14425598 -0.0800141 -0.06775516 -0.030944362 -0.09066093 0.03827603 -0.04034067
0.15352124 0.04625739 0.15659598 0.15265305 0.2033951 0.062222596 0.10143507 0.15912661
0.037047636 0.075781 0.074895136 -0.025550252 0.15332691 0.008169452 -0.042382527 0.011956448
0.18378179 0.03647436 0.02138448 0.1702907 0.014542765 0.053372517 0.15446167 -0.07629846
0.03234413 0.04142801 0.2156165 0.17837138 -0.102553666 -0.039163753 0.039646376 0.19284765
-0.0878298 -0.019685572 0.16526723 -0.055035893 0.07716065 0.18779406 0.1980912 0.012775457
00000000: ffd7 ccbc a5f2 62bd 0dd9 e13d 2f3c 1b3d
00000010: 3127 b23d f2cf 01bc 9dba d7bc 0d5e 96bd
00000020: 0f9f 353e e795 663c 75e3 843c 3feb 0a3e
00000030: a20d 453e beae 0a3e 6266 9bbd dfc9 9c3d
00000040: 5145 4a3e d7b7 133e 6fde a3bd 38c3 8abd
00000050: 087f fdbc 70ac b9bd 54c7 1c3d 423c 25bd
00000060: ac34 1d3e 6478 3d3d b25a 203e 1551 1c3e
00000070: ce46 503e 1fdd 7e3d 31bd cf3d 16f2 223e
00000080: 43bf 173d 1233 9b3d 9f62 993d c34e d1bc
00000090: bb01 1d3e 2ad9 053c 4d99 2dbd fae4 433c
000000a0: 4b31 3c3e 2366 153d 812e af3c af60 2e3e
000000b0: c744 6e3c 249d 5a3d 332b 1e3e 5e42 9cbd
000000c0: 477b 043d 6bb0 293d 92ca 5c3e fda6 363e
000000d0: a807 d2bd 2c6a 20bd 3d64 223d db79 453e
000000e0: 1ce0 b3bd a343 a1bc d03b 293e 516d 61bd
000000f0: 6706 9e3d 164d 403e 6bd8 4a3e 2750 513c

critic_fc2.weight f4 [1, 64]
-0.050256915 -0.028834851 0.20209697 -0.10540653 0.25474906 -0.071099356 0.038410038 -0.07267223
0.2162603 -0.26023728 -0.029266255 0.15038572 0.14180753 0.2501688 -0.095471345 0.1835785
0.17086515 0.23373817 -0.07625235 -0.19766459 -0.013725228 -0.035428997 -0.106021486 -0.10049383
0.17957595 -0.042689353 0.20629859 0.17837791 0.1295015 -0.043019783 0.18488526 0.20285547
-0.015946992 0.16439183 0.16969453 0.06323683 0.16100764 -0.22422183 0.020163087 -0.092446156
0.21667883 -0.075213164 -0.07808432 0.19805054 -0.06282331 0.00019747938 0.24224041 -0.08628952
-0.18413119 -0.067244336 0.13566142 0.13150486 0.0023068932 -0.08177052 -0.08620514 0.1684544
-0.2190819 -0.067800045 0.19638686 -0.0024422223 0.2462552 0.18101804 0.24465226 -0.091770604
00000000: 32da 4dbd 1137 ecbc 82f2 4e3e 61df d7bd
00000010: 786e 823e 8a9c 91bd d853 1d3d 2ed5 94bd
00000020: 5773 5d3e d23d 85be c9bf efbc b7fe 193e
00000030: fe35 113e 2016 803e 7b86 c3bd 01fc 3b3e
00000040: 46f7 2e3e 0f59 6f3e 312a 9cbd 9668 4abe
00000050: c7df 60bc ff1d 11bd cb21 d9bd b6cf cdbd
00000060: c2e2 373e 08db 2ebd f03f 533e b3a8 363e
00000070: 0b9c 043e 8335 30bd 9052 3d3e 58b9 4f3e
00000080: 44a3 82bc 5556 283e 67c4 2d3e 5082 813d
00000090: 30df 243e 689a 65be 0f2d a53c 6954 bdbd
000000a0: 0ee1 5d3e 5c09 9abd acea 9fbd c3cd 4a3e
000000b0: 82a9 80bd 7812 4f39 df0d 783e 8fb8 b0bd
000000c0: e38c 3cbe 66b7 89bd d4ea 0a3e 36a9 063e
000000d0: 3f2f 173b 4d77 a7bd 528c b0bd 4f7f 2c3e
000000e0: 0157 60be c0da 8abd a319 493e b10d 20bb
000000f0: 532a 7c3e cb5c 393e 1f86 7a3e 3af2 bbbd
