reinforcement_learning/actor_critic/actor_critic_999.pth (torch, 73334 bytes, 9 tensors)

fc1.weight f4 [128, 4]
0	0x3e97d9b6	0.29658288
1	0xbe0076e8	-0.12545359
2	0xbd9d12a5	-0.07669572
3	0x3e1e26f0	0.15444541
4	0x3e386d2b	0.18010394
5	0xbe9d8552	-0.30765778
6	0x3eb0a4d0	0.34500742
7	0xbef8a5b6	-0.48563927
8	0x3dcaed4f	0.09908544
9	0xbe07c562	-0.1325889
10	0xbe2d9eaa	-0.16955057
11	0x3cedd604	0.029032715
12	0xbead16e8	-0.3380654
13	0x38b1a2fe	8.470377e-05
14	0xbf4fab4c	-0.81120753
15	0xbf076a75	-0.52896816
16	0x3e1f7bc8	0.15574563
17	0xbe89cb44	-0.26912892
18	0x3e3b4f67	0.18292008
19	0xbc37c741	-0.011216939
20	0x3e4a1c4b	0.19737355
21	0xbe330119	-0.17480887
22	0xbd895eff	-0.06707572
23	0x3ebceb2f	0.3689818
24	0xbed2c9e2	-0.4116965
25	0x3ea563a5	0.32302585
26	0x3ea7d7d2	0.32781845
27	0x3dd27f61	0.10278202
28	0xbc907565	-0.017634103
29	0xbe3b22d3	-0.18275003
30	0xbea913ab	-0.33022818
31	0xbecf182c	-0.4044813
32	0xbf0618ff	-0.5238189
33	0xbee111e0	-0.4395895
34	0x3e899a7a	0.2687567
35	0x3e172dbd	0.14763542
36	0xbd93a6e7	-0.072095685
37	0xbe79529d	-0.2434792
38	0x3e936ae6	0.28792495
39	0x3e866fac	0.26257074
40	0x3dc32526	0.0952857
41	0x3e71a2e1	0.2359729
42	0x3f455ad7	0.77091736
43	0x3ec128e1	0.377265
44	0x3f0b11ec	0.5432422
45	0xbe7d104f	-0.24713252
46	0x3f6d4960	0.92690086
47	0x3db21c93	0.08696856
48	0x3e3519cf	0.17685626
49	0xbdfd8bc4	-0.12380174
50	0x3f001643	0.5003397
51	0xbe7bec5d	-0.24601884
52	0xbea85829	-0.3287976
53	0xbc201af7	-0.009772054
54	0xbeb7c7a0	-0.3589449
55	0x3f136362	0.5757352
56	0x3d3e9d29	0.0465366
57	0x3ea7b686	0.32756442
58	0x3e992365	0.29909816
59	0xbec865cc	-0.39140165
60	0x3e334447	0.17506514
61	0x3edd5512	0.43228966
62	0x3f1d8c9c	0.6154268
63	0x3e65c10f	0.22436927
64	0xbcff8650	-0.031191975
65	0x3ebb1137	0.3653657
66	0x3f0c1201	0.5471497
67	0x3ef2da8f	0.47432372
68	0xbf12e6fb	-0.573837
69	0xbee2df96	-0.44311208
70	0xbf35fb34	-0.7108643
71	0xbe3c0dca	-0.18364635
72	0xbee1cf22	-0.44103342
73	0x3ea16f0e	0.3153004
74	0xbefe4afe	-0.4966659
75	0x3e0bc91b	0.13650934
76	0x3ecf9754	0.40545142
77	0xbcce5d50	-0.02519098
78	0xbf07a46a	-0.5298525
79	0xbe9f62ac	-0.31129968
80	0x3f090ec9	0.53538185
81	0x3f067881	0.52527624
82	0xbdcb2dab	-0.0992082
83	0xbd89bf63	-0.06725957
84	0x3eaa871e	0.3330621
85	0xbea77074	-0.32702982
86	0x3e172085	0.14758499
87	0x3e60e420	0.21962023
88	0x3e431cb7	0.19053923
89	0x3ebe7c7f	0.37204358
90	0xbebdd91a	-0.37079698
91	0x3ea4c84d	0.32184067
92	0xbea5145e	-0.322421
93	0x3edfbdbd	0.43699446
94	0xbe79f667	-0.24410401
95	0xbec0bbe6	-0.37643355
96	0x3f0fe1cb	0.5620391
97	0x3d2110bd	0.039322603
98	0x3f13b870	0.57703304
99	0x3eccc203	0.3999177
100	0xbd27836f	-0.04089683
101	0xbd9e560c	-0.07731256
102	0xbb8496ff	-0.0040463204
103	0x3e8a46ab	0.2700704
104	0xbe9b66d6	-0.30351895
105	0x3d8476b2	0.06467952
106	0x3e5cd97c	0.21567339
107	0x3ef49124	0.47766984
108	0xbea71936	-0.32636422
109	0x3e986e30	0.29771566
110	0x3ef4e8ec	0.47833955
111	0x3cce7a2b	0.025204739
112	0xbe3f685a	-0.1869215
113	0x3efc8011	0.49316457
114	0x3e01af6d	0.12664576
115	0xbe1f1520	-0.15535402
116	0xbda3daca	-0.08000715
117	0x3e8b3b88	0.27193856
118	0xbddda599	-0.10822601
119	0xbdb16324	-0.08661488
120	0xbe0e0edd	-0.13872857
121	0x3c519abf	0.012793242
122	0xbe085923	-0.13315253
123	0x3b4604fa	0.0030215369
124	0x3efb3562	0.49064165
125	0x3ea1d985	0.31611267
126	0x3e89483f	0.26812932
127	0x3ec006b8	0.37505126
128	0xbd6702e6	-0.05639925
129	0xbe9c0f46	-0.30480403
130	0xbe8636ea	-0.2621377
131	0xbe131f6c	-0.14367455
132	0xbd8f58fc	-0.06999394
133	0x3e8f5bc3	0.27999696
134	0xbf33e5a0	-0.70272255
135	0xbec27b67	-0.37984774
136	0xbd15ae32	-0.03654308
137	0xbde30e3e	-0.11086701
138	0x3f00da6a	0.50333273
139	0xbe42f82d	-0.19039984
140	0x3e924f30	0.2857604
141	0xbee43930	-0.4457488
142	0x3e9d5737	0.30730602
143	0x3ead47d3	0.3384386
144	0x3efd9f7b	0.49535736
145	0xbe87b7be	-0.26507372
146	0xbda7c6f5	-0.08192245
147	0x3d0c319b	0.034226995
148	0x3d23c95d	0.039986957
149	0xbda9417f	-0.082644455
150	0xbde1134b	-0.10990008
151	0x3dbd29b5	0.092364706
152	0xbdbcc816	-0.09217851
153	0xbd14020a	-0.036134757
154	0x3e546384	0.20741087
155	0x3e5c3d23	0.21507697
156	0x3e836db7	0.25669643
157	0xbde286fc	-0.110609025
158	0x3f5af295	0.855264
159	0x3ec7910d	0.38977852
160	0xbe8c17a3	-0.27361783
161	0x3eaaefdb	0.3338612
162	0xbe488909	-0.19583525
163	0x3e54bc24	0.20774895
164	0xbea7025c	-0.32618988
165	0x3e9dcda3	0.3082095
166	0x3e90e775	0.28301588
167	0x3e86667a	0.26250058
168	0xbdfbf5bd	-0.1230273
169	0xbdb8687f	-0.09004306
170	0x3e1b824f	0.15186428
171	0x3d4bd902	0.0497675
172	0xbe82a078	-0.25513053
173	0xbecbd1ee	-0.398086
174	0x3e06df49	0.13171114
175	0xbdf62c5b	-0.12020179
176	0xbd3131e2	-0.043260463
177	0x3dfbdc58	0.122978866
178	0x3e01ee96	0.1268867
179	0xbef35387	-0.47524664
180	0xbe8f7c8c	-0.2802471
181	0x3eeab572	0.45841557
182	0x3eb1b64a	0.34709388
183	0xbec6d454	-0.38833869
184	0x3dcc92a7	0.09988909
185	0x3ed51d6b	0.41624007
186	0x3e53725d	0.20649095
187	0xbc2d4e2f	-0.010577722
188	0x3ec8868f	0.3916516
189	0xbd3968fe	-0.045266144
190	0x3ef9fc3a	0.48825246
191	0x3dfe0732	0.12403716
192	0xbeb36b03	-0.3504258
193	0xbe2d2a7c	-0.16910738
194	0xbcd8784d	-0.026424551
195	0x3f02e44e	0.51129615
196	0xbe8f0faa	-0.27941638
197	0x3e9ef5fc	0.31047046
198	0xbebc7fed	-0.3681635
199	0xbeabc3fb	-0.3354796
200	0xbedf5dac	-0.43626153
201	0xbd0b870a	-0.03406433
202	0xbf1e12d2	-0.6174747
203	0x3cb1fcab	0.021726927
204	0xbed99d85	-0.4250299
205	0x3f0f2220	0.55911446
206	0x3decacb0	0.11556375
207	0x3eda8985	0.42683044
208	0x3e9cc00e	0.30615276
209	0xbeaf701f	-0.3426523
210	0x3eb7e373	0.35915717
211	0xbee616d1	-0.44939283
212	0x3ee4391b	0.44574818
213	0xbea58832	-0.3233047
214	0x3dccc357	0.099981956
215	0x3df4cfea	0.11953719
216	0x3e2bb06e	0.16766521
217	0xbdded15b	-0.10879775
218	0x3da41d09	0.080133505
219	0xbe62653f	-0.22108935
220	0xbec15bd3	-0.3776537
221	0xbd1814a0	-0.037129045
222	0xbeb649e7	-0.35603258
223	0xbe7fee6b	-0.24993293
224	0xbee766bb	-0.45195565
225	0xbe1dc1f1	-0.15406014
226	0xbf0ae0c8	-0.5424924
227	0xbe693f38	-0.22778022
228	0xbea9bbe1	-0.33151153
229	0x3f016d10	0.5055704
230	0xbdc59ad0	-0.09648669
231	0x3d91d576	0.071207926
232	0xbdc095c7	-0.09403568
233	0xbe910b06	-0.28328723
234	0xbcd387f5	-0.025821665
235	0xbd32c0d6	-0.043640934
236	0xbe7f8828	-0.24954283
237	0xbdba0936	-0.09083788
238	0x3dda72e8	0.10666448
239	0x3d1cd634	0.038290218
240	0xbeba50f1	-0.36389878
241	0xbee68115	-0.45020357
242	0x3e1c59c0	0.15268612
243	0xbf1b26f1	-0.60606295
244	0x3ec5c94e	0.38630146
245	0x3ee5490f	0.44782302
246	0xbe083e3e	-0.13304994
247	0xbe7970bb	-0.2435941
248	0x3e624856	0.22097906
249	0xbed0c8e9	-0.40778282
250	0xbd5b3c35	-0.053524215
251	0xbe0f61be	-0.1400213
252	0x3d43e6a6	0.047827385
253	0xbd3448f9	-0.044014905
254	0x3c7347e3	0.014848682
255	0x3e7e26a7	0.24819432

fc1.bias f4 [128]
0	0x3f0b0a79	0.54312855
1	0x3f119f60	0.5688381
2	0x3edfc61f	0.43705842
3	0xbe6cc426	-0.231217
4	0x3f0bc0f9	0.5459133
5	0x3df06b09	0.11739165
6	0x3ed49d15	0.41526094
7	0x3f20ec97	0.6286101
8	0xbea75227	-0.32679865
9	0x3f1184fc	0.56843543
10	0xbd7a8a65	-0.06116714
11	0xbdf76a11	-0.120807774
12	0x3ed80004	0.42187512
13	0xbea4bb6a	-0.32174236
14	0x3f078674	0.52939534
15	0xbee4d82a	-0.4469617
16	0xbdc74768	-0.097304165
17	0xbe905299	-0.28188017
18	0x3c79ad17	0.015239022
19	0xbde21398	-0.110388935
20	0xbeb61da2	-0.35569483
21	0x3e599cd6	0.21251234
22	0x3ee13631	0.43986657
23	0xbd31a889	-0.04337362
24	0xbd6fbe21	-0.05853093
25	0x3f23fbc9	0.6405607
26	0xbe66fc7d	-0.22557254
27	0xbe847cfd	-0.25876608
28	0x3c6b66f5	0.014367809
29	0x3e8c86f0	0.274467
30	0x3eeae75e	0.45879644
31	0x3f0f93c4	0.5608485
32	0x3e9dd9ad	0.30830136
33	0xbea934e9	-0.3304818
34	0xbed7bdc4	-0.42136967
35	0x3d0759ac	0.033044502
36	0x3eec7887	0.46185705
37	0x3f132c8a	0.57489836
38	0x3f0dc93f	0.553852
39	0xbe2adac9	-0.16685022
40	0x3ef240df	0.47315118
41	0x3f030a1f	0.5118732
42	0x3ee77adf	0.4521093
43	0x3f231647	0.6370587
44	0xbe2b3d6a	-0.16722646
45	0x3e7ada1d	0.24497266
46	0x3ecb3fa1	0.39696983
47	0xbe7f7504	-0.24946982
48	0xbe11c4b8	-0.14235198
49	0x3ee0bdad	0.4389471
50	0xbee46457	-0.44607803
51	0x3ef3f2de	0.4764623
52	0x3ed40fd4	0.41418326
53	0x3f33dffb	0.7026364
54	0x3e9689f8	0.29402137
55	0x3eca5fc6	0.39526194
56	0xbe32990e	-0.17441198
57	0xbe89992f	-0.26874682
58	0x3f0d200b	0.5512702
59	0xbeadffb8	-0.3398416
60	0xbeb1de3d	-0.34739867
61	0xbe1155c5	-0.14192875
62	0x3f100c8e	0.56269157
63	0x3f1c2b03	0.6100313
64	0xbea5f2ef	-0.32411906
65	0x3e5e2e35	0.21697314
66	0xbeedc042	-0.46435744
67	0x3ee7cca8	0.45273328
68	0xbeffeba2	-0.4998446
69	0xbe85875e	-0.2607984
70	0x3f21c3e5	0.63189536
71	0xbc9c30fd	-0.019066328
72	0x3f1e69c0	0.6188011
73	0x3f0164fd	0.5054472
74	0x3e7612fa	0.24030676
75	0xbeb95426	-0.36197013
76	0xbe8f2952	-0.27961212
77	0xbdf161da	-0.11786242
78	0xbe1e4767	-0.15456925
79	0xbe368712	-0.17824963
80	0xbe244957	-0.16043602
81	0x3e49b6ef	0.1969869
82	0x3eac4b13	0.33651027
83	0xbec6dd6e	-0.38840812
84	0x3e605172	0.21906069
85	0xbf0012ee	-0.50028884
86	0xbea22dab	-0.31675467
87	0x3d80c61b	0.062877856
88	0x3ec86362	0.39138323
89	0x3e2397ac	0.15975827
90	0xbe33a102	-0.17541888
91	0x3f21f0e3	0.6325819
92	0x3ecb3735	0.39690557
93	0x3ea9fcd2	0.332007
94	0xbdf2b151	-0.11850227
95	0xbe499828	-0.19686949
96	0x3eaf678d	0.3425869
97	0xbe7ce5da	-0.24697056
98	0x3ec4e7d8	0.38458133
99	0xbe84980f	-0.25897262
100	0x3e91420e	0.28370708
101	0x3ee686fb	0.45024857
102	0xbdda817e	-0.1066923
103	0x3ed6c44d	0.4194664
104	0x3e90e5fe	0.2830047
105	0x3eb1cb1c	0.34725273
106	0x3eb8fbde	0.3612966
107	0xbe31ecda	-0.17375508
108	0x3ef428eb	0.47687468
109	0xbd9c3b87	-0.076285414
110	0x3f0ec172	0.55763924
111	0x3e1cb275	0.15302451
112	0x3f27d201	0.65554816
113	0x3e7690ca	0.2407867
114	0x3ed81c23	0.42208967
115	0xbe36c50b	-0.17848603
116	0x3e9de741	0.30840495
117	0xbe443e50	-0.19164395
118	0x3eeaba8a	0.45845443
119	0x3f23c5df	0.639738
120	0xbe47f848	-0.19528306
121	0xbe51b8db	-0.20480673
122	0x3ee045b8	0.4380319
123	0xbeee8af4	-0.46590388
124	0x3f126f61	0.572012
125	0xbeb3080e	-0.34967083
126	0xbed71eef	-0.42015788
127	0x3e98a797	0.2981536

actor_fc1.weight f4 [64, 128]
0	0xbd4d3d15	-0.05010708
1	0x3daab322	0.08334948
2	0x3dbc8528	0.09205085
3	0x3de18770	0.11012161
4	0x3d7eb8bd	0.0621879
5	0xbdb6ba39	-0.08922238
6	0xbd75f9f4	-0.060052827
7	0x3ce906e6	0.028445672
8	0x3d9941f0	0.0748328
9	0x3c437a8f	0.011931076
10	0xbe18c909	-0.14920439
11	0xbe344cd8	-0.17607439
12	0xbd554cd1	-0.05207521
13	0xbd8da990	-0.06917107
14	0x3b6b2e82	0.0035885875
15	0x3cd7373a	0.026271451
16	0xbe0005ac	-0.12502164
17	0x3e06954a	0.13142887
18	0x3d8895a8	0.0666917
19	0x3e202bc8	0.15641701
20	0x3da675ec	0.081279606
21	0x3c985e79	0.018599736
22	0xbd2dbe0f	-0.042417582
23	0xbb8fbcfd	-0.004386543
24	0xbe0e0ab5	-0.13871272
25	0x3d7b720a	0.061388053
26	0xbd4425f8	-0.047887772
27	0x3ceaaf4e	0.028648045
28	0xbd18324d	-0.037157346
29	0x3d4e4b58	0.050364822
30	0x3d2e24a9	0.04251543
31	0xbdfd4441	-0.12366534
32	0x3e2a3c04	0.16624457
33	0x3d50318d	0.050828505
34	0x3d308ccc	0.043103024
35	0xbd99280a	-0.0747834
36	0x3dca8959	0.09889478
37	0xbcd94069	-0.026519971
38	0xbceb7ce8	-0.028746083
39	0xbe05e669	-0.13076176
40	0xbd4b1635	-0.049581725
41	0x3bf5c947	0.007500801
42	0x3d871ec0	0.06597662
43	0x3dd60c19	0.10451526
44	0x3dc0a13f	0.09405755
45	0x3d43f09a	0.047836877
46	0xbd9e3fb0	-0.07726991
47	0xbdf92a9e	-0.12166332
48	0xbdb2fd2e	-0.087396964
49	0xbbb101da	-0.005401832
50	0x3bed134d	0.007234967
51	0xbd32d9ab	-0.043664616
52	0xbb6601dc	-0.0035096323
53	0xbd730796	-0.059333406
54	0x3de8848f	0.113534085
55	0x3c472f78	0.0121573135
56	0x3cbaa548	0.02278389
57	0xbc49b62e	-0.012311501
58	0x3bedc87f	0.007256567
59	0x3c11ea11	0.008905903
60	0x3dbd3dff	0.092403404
61	0x3daa3fd1	0.08312953
62	0x3e02d75f	0.1277747
63	0xbcf57b7d	-0.02996611
64	0xbcbf5941	-0.02335799
65	0x3db52eff	0.088468544
66	0x3d725efc	0.059172615
67	0xbdcb4836	-0.099258825
68	0xbc4465bf	-0.011987149
69	0xbd4a0551	-0.049321476
70	0x3d3f5004	0.04670717
71	0x3d514265	0.05108871
72	0x3d86f8a6	0.06590395
73	0x3d0f493a	0.034981944
74	0xbc251820	-0.010076553
75	0xbdb936bf	-0.09043645
76	0x3d62026f	0.055178102
77	0xbe606844	-0.21914774
78	0x3e5762d7	0.21033798
79	0xba3f6ba1	-0.000730211
80	0xbb835bf4	-0.0040087644
81	0xbd9fa1b1	-0.07794512
82	0x3dc5f8d6	0.09666602
83	0x3c1c1307	0.009526021
84	0xbcb29f9f	-0.021804629
85	0xbd8c3ad1	-0.06847156
86	0x3c8927b2	0.016742561
87	0xbbb53d94	-0.0055310223
88	0x3dabb76f	0.083845966
89	0x3d9a88b7	0.075456075
90	0xbe5f872a	-0.21828905
91	0x3d831509	0.064004965
92	0x3cffd0de	0.031227525
93	0xbd2f0a27	-0.04273429
94	0x3d86b4e4	0.06577471
95	0x3d1f8624	0.038946286
96	0x3ca9bdc9	0.02072038
97	0xbd64bfab	-0.05584685
98	0x3d829590	0.06376183
99	0x3d2a168f	0.04152542
100	0x3d37f2d2	0.044909306
101	0x3d93ee2d	0.07223163
102	0xbe140b80	-0.14457512
103	0xbd9cb8f9	-0.07652468
104	0xbd21dde2	-0.039518245
105	0xbdfa3bb1	-0.122184165
106	0x3db85ee5	0.09002475
107	0xbd5285f8	-0.051397294
108	0x3d6783c8	0.05652216
109	0x3d802643	0.06257298
110	0x3bd40054	0.0064697657
111	0x3e0d62d3	0.1380723
112	0x3cbea572	0.02327225
113	0xbdc00c96	-0.093774006
114	0x3b5d7557	0.0033791864
115	0x3c8af8b3	0.016964292
116	0x3d467abf	0.048456904
117	0xbd83d038	-0.06436199
118	0x3e0538c5	0.13009937
119	0x3da41329	0.08011467
120	0xbdf740fd	-0.120729424
121	0x3c5b6e5a	0.013393009
122	0x3caec8d9	0.021336006
123	0x3d88b0dc	0.06674358
124	0x3dbcc036	0.09216349
125	0x3d4b50a3	0.049637448
126	0xbd19f94c	-0.037591264
127	0x3d70a70d	0.058753062
128	0xbdca250a	-0.09870346
129	0xbd96eca5	-0.07369355
130	0x3d8e019e	0.06933902
131	0x3c9c314c	0.019066475
132	0xbd3a000b	-0.045410197
133	0xbd39d9f2	-0.045373864
134	0xbd4f7140	-0.050645113
135	0xbcd7f66b	-0.026362618
136	0x3d81b35e	0.0633304
137	0x3be3597f	0.006938159
138	0x3d497e9c	0.04919301
139	0x3b98cd0f	0.0046631168
140	0xbd52281b	-0.05130778
141	0xbbef3183	-0.0072996034
142	0xbc11d574	-0.008900989
143	0xbbc9ca21	-0.006158129
144	0xbd9ddbb7	-0.07707923
145	0x3d1201f9	0.035646413
146	0xbc0f50eb	-0.00874732
147	0xbd188aec	-0.03724186
148	0xbd5be550	-0.053685486
149	0xbd8fc9e3	-0.07020929
150	0x3d8d8314	0.06909767
151	0xbd02df41	-0.031951193
152	0xbd87105b	-0.065949164
153	0xbda8139d	-0.08206866
154	0x3d578464	0.052616492
155	0x3ce0a8a4	0.027424164
156	0x3cbef3e6	0.02330966
157	0xbda01aa3	-0.078175806
158	0xbdb27368	-0.08713418
159	0x3d1b5c53	0.037929844
160	0xbd57a5ca	-0.052648343
161	0x3dadff35	0.084959425
162	0xbd9655c7	-0.073405795
163	0xbbca45f3	-0.0061728894
164	0xbd9790a4	-0.07400635
165	0x3cbaff79	0.022826897
166	0xbda61261	-0.08108974
167	0x3ca7ed02	0.020498756
168	0xbd5e2ac1	-0.054239992
169	0xbce1c0d2	-0.027557764
170	0xbda91ca1	-0.08257414
171	0x3c9816c6	0.018565547
172	0x3cdff4a3	0.027338332
173	0x3b33c7ea	0.002743239
174	0xbd4b0055	-0.049560864
175	0xbc180d4d	-0.009280515
176	0xbcba64fe	-0.022753235
177	0x3d713390	0.058887064
178	0xbbae8a9b	-0.0053265817
179	0xbd5819aa	-0.05275885
180	0xbdc7bbad	-0.09752593
181	0xbcafa348	-0.021440163
182	0x3d4d8b4c	0.050181672
183	0xbd985bcd	-0.074393846
184	0xbd7d9bb9	-0.061916087
185	0x3d58ab70	0.05289787
186	0x3d1e4e4f	0.0386489
187	0xbd9b2d18	-0.0757696
188	0x3b75b293	0.0037490472
189	0x3da9236f	0.082587115
190	0x3d92c0e7	0.071656995
191	0xbc80b7a7	-0.015712572
192	0xbd08669a	-0.033300973
193	0x3c7b20f0	0.015327677
194	0xbd439ef3	-0.047759008
195	0x3d71e644	0.05905749
196	0xbd66af7b	-0.056319695
197	0xbda62301	-0.08112145
198	0x3c5d6ec4	0.013515178
199	0xbd34b9f1	-0.04412264
200	0xbd988936	-0.07448046
201	0xbc490f4f	-0.012271716
202	0x3d59841f	0.053104516
203	0xbd3eb13a	-0.046555735
204	0x3d08fb32	0.033442684
205	0x3ccc1ede	0.024917062
206	0xbd8b86b1	-0.068128
207	0xbd0dd25d	-0.034624446
208	0x3c750c30	0.014956519
209	0x3bb8e77d	0.00564283
210	0xbd9fba86	-0.077992484
211	0xbcdef21a	-0.027215052
212	0xbcfe0d14	-0.031012096
213	0xbd363d0a	-0.044491805
214	0xbc8ec65f	-0.017428575
215	0x3d92c5bd	0.07166622
216	0xbd9f9f85	-0.07794098
217	0x3b24b16b	0.0025130163
218	0x3d0893b9	0.033344004
219	0xbbe0aca4	-0.006856518
220	0xbcace7e5	-0.02110667
221	0xbd382731	-0.04495925
222	0xbd855830	-0.06510961
223	0xbd7eb941	-0.06218839
224	0x3d8ea818	0.06965655
225	0xbd8ce270	-0.06879127
226	0xbd2a1ba7	-0.041530278
227	0xbda310e0	-0.07962203
228	0x3ba2a031	0.004962944
229	0xbd85676e	-0.06513868
230	0xbdca2e2e	-0.09872089
231	0xbc72e3d4	-0.014824826
232	0xbd9fa40f	-0.077949636
233	0x3d259663	0.040426623
234	0x3d1e0ef4	0.03858848
235	0x3d3e100d	0.046402026
236	0xbd2491fc	-0.040178284
237	0xbd864194	-0.06555477
238	0x3cbfbcd6	0.023405474
239	0xbdbc0e9d	-0.09182475
240	0xbd091704	-0.033469215
241	0xbd7113dc	-0.05885683
242	0xbd8ca4f1	-0.068673976
243	0x3ca508a3	0.02014572
244	0xbd994219	-0.0748331
245	0xbd4e0358	-0.050296158
246	0x3d08ae87	0.033369567
247	0xbd37c706	-0.044867538
248	0xbccbad68	-0.02486296
249	0x3c789982	0.015173318
250	0x3d67af2e	0.05656355
251	0xbcc8282f	-0.024433224
252	0xbc102754	-0.008798439
253	0xbd277769	-0.040885363
254	0xbd6d3c10	-0.05791861
255	0x3ca32264	0.01991386

actor_fc1.bias f4 [64]
0	0xbd9b5b32	-0.075857535
1	0x3cf09c2b	0.029371342
2	0xbda9217a	-0.08258338
3	0x3d54d004	0.05195619
4	0x3ce94a63	0.028477853
5	0x3d94c55d	0.072642066
6	0x3d15a74b	0.036536496
7	0x3d88405d	0.06652901
8	0x3d1c8d55	0.038220722
9	0x3d2f00b5	0.042725284
10	0xbbb4c742	-0.0055169174
11	0xbd503d52	-0.05083973
12	0xbcd9b7d5	-0.026576916
13	0x3d20c303	0.039248478
14	0xbcf72fc1	-0.030174138
15	0x3d53f928	0.051751286
16	0xbdaddbc9	-0.08489186
17	0xbdb0f283	-0.086400054
18	0xbd4e50af	-0.050369915
19	0xbb6e98db	-0.0036407027
20	0xbd1c30bf	-0.038132425
21	0xbc406724	-0.011743341
22	0xbd389fd7	-0.04507431
23	0x3d2ded5d	0.042462695
24	0xbd09694f	-0.033547696
25	0x3cd0916e	0.025459971
26	0xbd9913b7	-0.074744634
27	0xbcc19429	-0.023630219
28	0x3d34edca	0.044172086
29	0x3d0b22ce	0.03396874
30	0x3b9bfb07	0.0047601494
31	0xbd264191	-0.040589873
32	0xbd52ad85	-0.051435012
33	0x3c769669	0.015050509
34	0x3d16d7dc	0.036826953
35	0x3c3939c6	0.011305278
36	0xbd196b40	-0.037455797
37	0x3cadea60	0.021229923
38	0x3da4329b	0.08017465
39	0x3d2ac059	0.041687343
40	0xbd27ab53	-0.040934872
41	0xbd8221b2	-0.06354083
42	0xbc506a23	-0.0127206175
43	0xbad4d584	-0.0016237949
44	0xbddea332	-0.10870971
45	0x3db82c6a	0.08992846
46	0xbdc44709	-0.095838614
47	0x3cc98589	0.024599807
48	0x3d0270fb	0.031846028
49	0xbd56112d	-0.052262474
50	0xbd0c0825	-0.034187455
51	0xbdab689b	-0.08369561
52	0xbd82c71d	-0.06385634
53	0xbaa511a9	-0.0012593764
54	0xbc529d26	-0.01285485
55	0x3c998acb	0.01874294
56	0x3d2f7aa8	0.042841583
57	0xbdab5e37	-0.083675794
58	0x3c64e071	0.013969527
59	0x3d8d340e	0.06894694
60	0xbd9cdf8d	-0.076598264
61	0x3c7641ad	0.015030307
62	0xbc18aa18	-0.009317897
63	0xbd4de8d2	-0.050270863

actor_fc2.weight f4 [2, 64]
0	0xbd231112	-0.0398112
1	0x3dec76e0	0.11546111
2	0xbdde3a4e	-0.108509645
3	0xbca2dadc	-0.01987975
4	0xbe26c9b8	-0.16287887
5	0xbd9ce8d6	-0.076615974
6	0x3da4ef17	0.08053415
7	0x3dceb156	0.10092418
8	0xbd11bf33	-0.035582732
9	0xbe188028	-0.14892638
10	0x3d883f4c	0.06652698
11	0xbdf1f918	-0.11815089
12	0x3db40aee	0.08791147
13	0x3db76581	0.08954907
14	0x3e769202	0.24079135
15	0x3dc50610	0.09620297
16	0x3bd1c79b	0.0064019687
17	0xbde21f94	-0.11041179
18	0xbdb93883	-0.09043982
19	0xbdd69c15	-0.10478989
20	0xbe4883e8	-0.19581568
21	0xbd8c8f6c	-0.06863293
22	0xbc935261	-0.017983617
23	0x3ea12d83	0.31480035
24	0xbe2a1a8f	-0.16611694
25	0xbd5a7d72	-0.05334229
26	0x3d8ffdc9	0.070308276
27	0xbd079785	-0.033103485
28	0xbe0651d7	-0.13117157
29	0x3b569abc	0.0032746037
30	0x3d52e468	0.051487356
31	0xbdeafa30	-0.11473501
32	0x3d665058	0.056228966
33	0x3dcafcb0	0.099114776
34	0xbb4240c5	-0.0029640656
35	0xbe0989e7	-0.13431512
36	0x3cab0b2c	0.02087935
37	0xbd8b80fc	-0.06811711
38	0xbe1d1e5b	-0.15343611
39	0x3db57435	0.08860055
40	0xbcbd7fb0	-0.023132175
41	0xbdc757b7	-0.09733527
42	0xbdb87d7d	-0.0900831
43	0xbdb3f7f3	-0.08787527
44	0x3d6d9e28	0.058012158
45	0xbe317ea7	-0.1733347
46	0x3ca3de1d	0.020003373
47	0xbe33c64f	-0.17556117
48	0x3d976620	0.07392526
49	0x3ce80bcd	0.02832594
50	0xbdb447c2	-0.08802749
51	0x3cac5f24	0.02104146
52	0xbc9456d4	-0.01810781
53	0x3baa9789	0.0052060527
54	0x3cdfdbe6	0.027326535
55	0x3e8af2b1	0.27138284
56	0xbdc6491e	-0.09681915
57	0x3cb7c090	0.022430688
58	0xbda577bd	-0.08079479
59	0x3bb3262c	0.005467197
60	0x3b7d9df4	0.0038698884
61	0x3d3ac258	0.045595497
62	0x3d1111aa	0.035417236
63	0xbe02d3fa	-0.12776175
64	0xbe1d5db7	-0.1536778
65	0xbe0c08a4	-0.13675171
66	0x3dbc8784	0.09205535
67	0x3e250992	0.16116932
68	0x3cdb6e8e	0.026786115
69	0x3c92e866	0.017933082
70	0xbcef0897	-0.0291789
71	0xbdd392b4	-0.10330716
72	0xbd08d127	-0.03340259
73	0x3df9feac	0.12206778
74	0xbd8063a4	-0.06269005
75	0x3d2a9d25	0.04165377
76	0x3d0895e6	0.03334608
77	0x3d83cef2	0.06435956
78	0xbe321314	-0.1739009
79	0xbd14d8c9	-0.036339555
80	0x3d9d815e	0.076906905
81	0x3c4a41c7	0.012344784
82	0x3e33deb2	0.1756542
83	0x3e35173c	0.17684644
84	0x3e6f2c56	0.23356757
85	0xbd9aa859	-0.07551641
86	0xbd843057	-0.064545326
87	0xbde690ef	-0.11258113
88	0xbcd7f28c	-0.026360773
89	0x3c873ed6	0.016509455
90	0xbd89728b	-0.067113005
91	0xbd448dd1	-0.04798681
92	0xbd61980d	-0.055076648
93	0xbdf2a928	-0.1184867
94	0xbc7cca84	-0.015429143
95	0x3e298c53	0.16557436
96	0x3d19d3c8	0.037555486
97	0x3dc63140	0.096773624
98	0xbd530412	-0.051517554
99	0x3b902690	0.0043991283
100	0x3ce767f4	0.02824781
101	0xbd9d9053	-0.07693543
102	0x3b8cfd24	0.0043026377
103	0xbd55b30e	-0.052172713
104	0x3c654e30	0.013995692
105	0xbe041faf	-0.12902711
106	0x3d603180	0.054734707
107	0x3e21f52f	0.15816186
108	0x3db0ce18	0.08633059
109	0x3dd1de4b	0.10247477
110	0x3d12ce5c	0.03584133
111	0x3e6bb54e	0.23018381
112	0x3e01246a	0.12611547
113	0xbb68b748	-0.0035509635
114	0xbdc6a855	-0.097000755
115	0xbd9c29b0	-0.07625139
116	0x3d534ef7	0.05158898
117	0x3d4777c7	0.048698213
118	0x3d5907e3	0.052986037
119	0xbe9009fe	-0.28132623
120	0x3d75f1b4	0.06004496
121	0xbda00709	-0.07813842
122	0xbd856338	-0.06513065
123	0x3e2e0a5c	0.1699614
124	0x3cf29933	0.029614067
125	0xbd587771	-0.052848283
126	0xba0561b0	-0.0005088104
127	0x3d70ee5a	0.05882106

actor_fc2.bias f4 [2]
0	0x3de713c7	0.11283069
1	0x3dc1e460	0.09467387

critic_fc1.weight f4 [64, 128]
0	0x3ceef621	0.029170098
1	0xbb4dedc5	-0.003142224
2	0x3be14228	0.0068743415
3	0xbc650c9c	-0.013980057
4	0xbbcbf9a0	-0.006224826
5	0xbc3855f7	-0.011250964
6	0x3d981ead	0.07427726
7	0xbda96101	-0.08270455
8	0xbdc19c66	-0.09453659
9	0x3d2c9ecd	0.04214363
10	0xbd74de88	-0.059782535
11	0xbd665b2a	-0.056239285
12	0xbb77c61a	-0.0037807287
13	0x3c91cdd1	0.017798336
14	0xbd592b44	-0.053019777
15	0xbd1ce1e3	-0.03830136
16	0x3d9894c1	0.074502476
17	0xbbe8e06c	-0.0071068313
18	0x3d98b528	0.07456428
19	0xbd00fde6	-0.031492136
20	0xbd5757e1	-0.052574042
21	0x3d512050	0.051056206
22	0x3d419092	0.047257014
23	0x3cf48090	0.02984646
24	0xbd4237fa	-0.047416665
25	0x3d375aff	0.044764515
26	0xbd5d896a	-0.054086126
27	0xbd667109	-0.056260142
28	0xbb4e7db6	-0.0031508035
29	0xbda8c61e	-0.08240913
30	0xbd79f173	-0.06102128
31	0x3bac5780	0.0052594543
32	0xbc4cd0a2	-0.012500914
33	0xbd5bd4dc	-0.053669795
34	0x3d0be2c5	0.03415181
35	0x3d96e197	0.073672466
36	0xbd75c0a5	-0.059998173
37	0x3d241581	0.04005957
38	0xbd85bf94	-0.06530681
39	0xbdb1d8fe	-0.08683966
40	0x3d708cdc	0.058728084
41	0x3b5062fe	0.0031797285
42	0x3d6a4c25	0.057201523
43	0x3a8b00de	0.0010605117
44	0xbd3c8130	-0.04602164
45	0xbc875096	-0.016517919
46	0xbd8e57ec	-0.069503635
47	0x3c822d7a	0.015890826
48	0xbd2ebae8	-0.042658716
49	0xbd25bead	-0.040465046
50	0xbb0723bb	-0.0020620662
51	0xbd2fced5	-0.04292186
52	0xbc0337b0	-0.008008882
53	0x3b1482e9	0.0022661036
54	0x3d8bbef8	0.06823534
55	0xbd5795d5	-0.052633125
56	0xbc3094ce	-0.010777665
57	0xbd51d451	-0.05122787
58	0x3d73c261	0.059511546
59	0x3c1dfaed	0.009642345
60	0x3ad66163	0.0016355928
61	0xbd09db04	-0.033656135
62	0xbc6a8b2f	-0.0143154105
63	0xbcb6bd80	-0.022307158
64	0xbd56cd13	-0.052441668
65	0xbd916c48	-0.07100731
66	0xbc6b1f45	-0.014350717
67	0xbd92709b	-0.07150384
68	0x3d9c50c5	0.07632593
69	0x3c91c656	0.01779477
70	0xbd6ff85a	-0.058586456
71	0xbc2f8a01	-0.010714055
72	0x3d2156ad	0.0393893
73	0x3ba7c553	0.0051199584
74	0xbcf2a638	-0.029620275
75	0xbda33e6d	-0.07970891
76	0xbc7e0e02	-0.015506269
77	0x3d48a509	0.048985515
78	0x3d936ff2	0.07199086
79	0xbd959705	-0.07304195
80	0xbd67ee5e	-0.05662381
81	0xbd777652	-0.060415573
82	0xbcf8a3fc	-0.030351631
83	0x3da1f7e8	0.079086125
84	0xbd3598b1	-0.04433507
85	0xbd9b13e5	-0.07572154
86	0x3c681c64	0.014166925
87	0xbc556fd2	-0.013027148
88	0xbd92540d	-0.07144938
89	0x3d83d4fd	0.06437109
90	0xbd5dea3a	-0.054178454
91	0xbd69e479	-0.057102654
92	0xbb966f83	-0.00459093
93	0x3d82ed22	0.06392886
94	0xbd92dd16	-0.07171075
95	0xbcfd1cfd	-0.030897612
96	0x3d18fa74	0.037348226
97	0x3d2687c6	0.040656827
98	0xbd8c4e03	-0.06850817
99	0x3ccb5fad	0.024825895
100	0xbd725ad1	-0.05916864
101	0xbd27f282	-0.041002758
102	0x3d57f820	0.052726865
103	0xbd95ebab	-0.07320341
104	0x3d95e5e4	0.07319239
105	0x3b3da849	0.0028939417
106	0xbc8c7a3c	-0.01714813
107	0x3d351dbe	0.044217817
108	0xbd0763ea	-0.03305427
109	0x3d014c68	0.031567007
110	0xbd05e8aa	-0.03269259
111	0xbd9706ee	-0.073743686
112	0xbd6ce517	-0.057835665
113	0x3d994964	0.07484701
114	0xbd8608fd	-0.06544683
115	0x3cad518e	0.021157052
116	0x3d372a2f	0.044717964
117	0xbc3b455d	-0.011430112
118	0xbdb75ae0	-0.0895288
119	0xbda5987c	-0.08085725
120	0xbd0fd37e	-0.035113804
121	0xbd23aa49	-0.03995732
122	0xbd8024d7	-0.06257027
123	0xbda56c95	-0.08077351
124	0xbd5e8327	-0.054324295
125	0x3d2d159c	0.042256936
126	0xbd8acb3f	-0.06777047
127	0xbcc79a49	-0.024365561
128	0x3c94cd33	0.018164253
129	0x3d13560f	0.035970744
130	0x3b2175ea	0.0024636933
131	0xbd88f8fc	-0.06688115
132	0xbd02867b	-0.03186653
133	0xbcaecf97	-0.02133922
134	0xbda79930	-0.08183515
135	0x3c5990bd	0.013279137
136	0x3d85e697	0.06538122
137	0x3d828903	0.06373789
138	0x3d2c5285	0.042070884
139	0x3ceee48e	0.029161718
140	0xbccebfd5	-0.025237957
141	0x3c8c524c	0.017129086
142	0x3d6bbe6a	0.05755464
143	0x3db36e6b	0.08761295
144	0xbd387955	-0.045037586
145	0xbd6af76b	-0.057364862
146	0x3cfbc3d5	0.030733028
147	0xbdb36f7d	-0.08761499
148	0x3d678b5b	0.056529384
149	0x3d3b30af	0.045700725
150	0xbd8f6cf3	-0.07003202
151	0xbd4447dc	-0.047920093
152	0xbdb74a86	-0.08949761
153	0x3d618621	0.055059556
154	0xbd483c4d	-0.048885632
155	0x3d5099fc	0.0509281
156	0xbd8c94ec	-0.06864342
157	0xbcef4a29	-0.029210167
158	0xbd79c6b9	-0.060980532
159	0x3cb708cb	0.02234306
160	0xbd39d3d7	-0.04536804
161	0xbd59c0cc	-0.05316238
162	0x3d8d1d8f	0.068904035
163	0xbd7dc8ea	-0.061959185
164	0xbdbbaad2	-0.09163441
165	0xbc018983	-0.0079063205
166	0xbd8c06ef	-0.0683726
167	0x3d93ee40	0.07223177
168	0xbd90a226	-0.07062177
169	0xbd8deaf5	-0.0692958
170	0x3d13a485	0.03604557
171	0xbd30bf25	-0.04315104
172	0xbca51fb4	-0.020156719
173	0x3d73bc13	0.059505533
174	0xbc8eb462	-0.017419998
175	0x3d2ccaaa	0.042185463
176	0xbd96a919	-0.073564716
177	0x3d08707d	0.033310402
178	0xbd098ee4	-0.033583537
179	0x3cea7af0	0.028623074
180	0xbd55bb8a	-0.052180804
181	0x3d3bfa57	0.04589304
182	0x3c708791	0.014680759
183	0xbda37031	-0.07980383
184	0x3db341c4	0.08752778
185	0x3d3d22d6	0.0461758
186	0xbc437560	-0.01192984
187	0x3c70aa42	0.01468903
188	0x3da25928	0.079271615
189	0x3c229ad8	0.009924613
190	0xbd7fb722	-0.06243051
191	0x3d84eef0	0.06490886
192	0x3bad58b2	0.0052901143
193	0x3cbd9511	0.02314237
194	0x3d1ee632	0.03879375
195	0x3d8a581d	0.067550875
196	0x3caa178c	0.020763181
197	0xbbd1c604	-0.006401779
198	0xbd121815	-0.035667498
199	0x3d7bdbee	0.06148904
200	0x3c1c1bc6	0.009528106
201	0xbad15b28	-0.0015972601
202	0x3d897821	0.06712366
203	0xbda9c48a	-0.0828944
204	0x3d7fce55	0.062452633
205	0xbb163d86	-0.0022924854
206	0xbc1787e1	-0.009248705
207	0xbd66b7d0	-0.05632764
208	0x3d1b702a	0.037948765
209	0xbda73f4e	-0.08166371
210	0xbd97b674	-0.07407847
211	0xbd8a1ac6	-0.06743388
212	0x3db03037	0.08602946
213	0xbc2b656f	-0.010461195
214	0x3c6d9db3	0.01450293
215	0xbc838b3b	-0.016057601
216	0xbd1ceb06	-0.038310073
217	0xbd677e71	-0.05651707
218	0x3d403245	0.04692294
219	0xbd8c0715	-0.06837288
220	0x3d78cb6b	0.06074087
221	0xbcc7436c	-0.024324141
222	0x3ca5254c	0.020159386
223	0x3d6de244	0.05807711
224	0xbdbdb3a7	-0.092627816
225	0x3c8e9aec	0.017407857
226	0xbd8e8920	-0.06959748
227	0x3d11f221	0.035631303
228	0xbd9ec011	-0.077514775
229	0xbc4fc553	-0.012681323
230	0x3d099984	0.03359367
231	0xb7129336	-8.736553e-06
232	0xbc4f3f97	-0.012649438
233	0xbcb6c23e	-0.022309419
234	0x3d33623e	0.043794863
235	0xbc4843a1	-0.012223155
236	0xbc26c036	-0.010177663
237	0xbcb167f1	-0.021656008
238	0xbaa27a43	-0.0012396056
239	0xbdbdf0e1	-0.0927446
240	0xbc81ae9c	-0.01583033
241	0x3cf37310	0.029717952
242	0xbd886aa5	-0.06660966
243	0xbd0a6b9f	-0.03379404
244	0xbda551ee	-0.080722675
245	0xbda7b383	-0.08188536
246	0x3d88cc65	0.0667961
247	0x3cbab44b	0.022791049
248	0x3bf4a25e	0.0074656447
249	0xbcd10122	-0.025513235
250	0xbca9a28b	-0.02070739
251	0x3d9fa5ba	0.07795282
252	0xbd2ebca5	-0.042660374
253	0xbc650765	-0.013978814
254	0xbc5218b5	-0.012823273
255	0x3d9fedd8	0.07809037

critic_fc1.bias f4 [64]
0	0xbcccd7ff	-0.025005339
1	0xbd62f2a5	-0.055407185
2	0x3deb180e	0.114791974
3	0x3d1b3c2f	0.037899192
4	0x3dbb7908	0.09153944
5	0xbc01cff2	-0.007923113
6	0xbcd7ba9d	-0.026334101
7	0xbd965e0d	-0.073421575
8	0x3e3a429c	0.18189472
9	0x3bd1f996	0.006407927
10	0x3c84e375	0.016221741
11	0x3e0f8fe6	0.14019737
12	0x3e49be35	0.19701464
13	0x3e0f166a	0.13973394
14	0xbd9b6662	-0.07587887
15	0x3da62752	0.081129685
16	0x3e4ed6e3	0.2019916
17	0x3e184d12	0.1487315
18	0xbda3de6f	-0.0800141
19	0xbd95bf86	-0.07311921
20	0xbcfd7f08	-0.030944362
21	0xbdb9ac70	-0.09066093
22	0x3cf88c9f	0.03034049
23	0xbd746a3d	-0.05967163
24	0x3e21d8be	0.15805337
25	0x3d3d7864	0.04625739
26	0x3e24e4e0	0.16102934
27	0x3e211148	0.15729249
28	0x3e54feb3	0.20800285
29	0x3d7edd1f	0.062222596
30	0x3dd909dc	0.10597584
31	0x3e277ff2	0.16357401
32	0x3d17bf43	0.037047636
33	0x3da4b52f	0.080423705
34	0x3da299f8	0.079395235
35	0xbcd14ec3	-0.025550252
36	0x3e21ad37	0.15788732
37	0x3b1cb7c9	0.0023913255
38	0xbd2d994d	-0.042382527
39	0x3c43e4fa	0.011956448
40	0x3e40a463	0.18812709
41	0x3d156623	0.03647436
42	0x3b99b6cf	0.004690982
43	0x3e32ea15	0.17472108
44	0x3c6e44c7	0.014542765
45	0x3d5a9d24	0.053372517
46	0x3e229ca1	0.15880062
47	0xbd9c425e	-0.07629846
48	0x3cb42567	0.021990491
49	0x3d29b06b	0.04142801
50	0x3e617d0e	0.22020361
51	0x3e3b640e	0.18299887
52	0xbdd207a8	-0.102553666
53	0xbd206a2c	-0.039163753
54	0x3d22643d	0.039646376
55	0x3e4a21d2	0.19739464
56	0xbda0fa8c	-0.07860288
57	0xbca143a3	-0.019685572
58	0x3e2dd20d	0.1697466
59	0xbd616d51	-0.055035893
60	0x3da7b3ba	0.08188577
61	0x3e4512a6	0.19245395
62	0x3e4f5aff	0.20249556
63	0x3c515027	0.012775457

critic_fc2.weight f4 [1, 64]
0	0xbd4dda32	-0.050256915
1	0xbcec3711	-0.028834851
2	0x3e51cb66	0.20487747
3	0xbdd7df61	-0.10540653
4	0x3e841540	0.25797462
5	0xbd919c8a	-0.071099356
6	0x3d1d53d8	0.038410038
7	0xbd94d52e	-0.07267223
8	0x3e60585c	0.21908706
9	0xbe8002f6	-0.2500226
10	0xbcefbfc9	-0.029266255
11	0x3e1d01cf	0.15332721
12	0x3e142b3d	0.14469619
13	0x3e81773a	0.25286275
14	0xbdc3867b	-0.095471345
15	0x3e3f1bcf	0.18662952
16	0x3e324a90	0.17411256
17	0x3e72ff0d	0.23730107
18	0xbd9c2a31	-0.07625235
19	0xbe423133	-0.1896408
20	0xbc60dfc7	-0.013725228
21	0xbd111dff	-0.035428997
22	0xbdba9f3a	-0.09112401
23	0xbdff5681	-0.12467671
24	0x3e3b5262	0.18293145
25	0xbd2edb08	-0.042689353
26	0x3e56a109	0.20959868
27	0x3e39b2a1	0.18134548
28	0x3e07e595	0.13271172
29	0xbd303583	-0.043019783
30	0x3e40cd32	0.18828276
31	0x3e52a7ff	0.20571898
32	0xbc82a344	-0.015946992
33	0x3e2b9c9e	0.16758963
34	0x3e30851c	0.17238277
35	0x3d818250	0.06323683
36	0x3e281d33	0.16417389
37	0xbe5dd49e	-0.21663138
38	0x3ca52d0f	0.020163087
39	0xbdbd5469	-0.092446156
40	0x3e60b0dd	0.21942468
41	0xbd9a095c	-0.075213164
42	0xbdd272e5	-0.10275821
43	0x3e4e2a1c	0.20133251
44	0xbd80a982	-0.06282331
45	0x394f1278	0.00019747938
46	0x3e7afd7b	0.24510758
47	0xbdb0b88f	-0.08628952
48	0xbe31c99f	-0.17362069
49	0xbd89b766	-0.067244336
50	0x3e0e4dfe	0.13896939
51	0x3e09f4fa	0.13472357
52	0x3b172f3f	0.0023068932
53	0xbda7774d	-0.08177052
54	0xbdb08c52	-0.08620514
55	0x3e2f92c5	0.17145832
56	0xbe67a093	-0.22619848
57	0xbd8adac0	-0.067800045
58	0x3e4c9435	0.19978411
59	0xbb200db1	-0.0024422223
60	0x3e7ecdd4	0.24883205
61	0x3e3cbf57	0.18432365
62	0x3e7e3379	0.24824323
63	0xbdbbf23a	-0.091770604
