reinforcement_learning/actor_critic/actor_critic_999.pth (torch, 73334 bytes, 9 tensors)

fc1.weight f4 [128, 4]
00000000: 0878 e2be e705 d7be b59f 43bf b653 24bf
00000010: e6ee eebd 624c 833e 9e5d 7dbd da92 7bbe
00000020: 88af cbbb bdc8 41be cad7 37be 921b 733e
00000030: b1e0 103e 3800 c7bd a2b5 89be 5993 b9bd
00000040: e8f9 183e f621 61bd 137e bcbe 452a d8be
00000050: edb3 adbd 4435 1b3c 6e98 05bf 83f9 b93e
00000060: dea4 a5bd 9b4c 293e 4bd7 8cbd f633 aebe
00000070: 135e 96bd 11ca 84be 3023 6fbe 0320 89be
00000080: 2773 1cbf 8f23 7ebe 1fac fc3d 9cd9 2ebd
00000090: 0c1e c2be f295 a83e 4587 e93e 3bf6 503d
000000a0: 0378 f53c 951d 733e 0a14 653e 9a67 cdbc
000000b0: 1e61 113f 940f c4bd 7888 343f 3c48 ac3e
000000c0: 2bb2 683d 07c8 0dbf 86e0 c4be 32e1 47be
000000d0: 9ab2 7b3e b738 a8be 5d82 b03d 5de7 db3d
000000e0: e2b3 0d3e 833d ca3e c9ac a9be 15e2 f9be
000000f0: 5ca1 afbe 852d cd3e 3376 c43e 686b fd3c
00000100: 8db5 18bf c55b 6b3c ab19 4a3d ce73 893e
00000110: 8bd0 0c3f dd65 a13e eb07 203d a7bb 803e
00000120: 4561 093f dc8b cd3e 4448 fd3e a956 8d3e
00000130: 2a40 4a3e ecc5 edbe 2de7 ccbe a856 9c3e
00000140: 1a25 2cbe f505 903d 5fec 283e 6b7d 8e3e
00000150: d1df 51be de9f d83d ba49 9bbe e7a0 8e3e
00000160: 0407 273e 9e98 10be cb25 99be 6039 563d
00000170: cff9 75be 31e7 a6be 6a69 60be fd2f 02be
00000180: 62d1 9f3e 3295 693e 1563 173e a8e4 b23e
00000190: f144 57be d912 47be cf50 4f3e 8fb2 df3e
000001a0: 1e77 a5bc 4f6d d03d cbc4 54be 0cb1 39be
000001b0: ca0b 88bd a6f1 13be 2870 f3be a0d9 fd3e
000001c0: d515 52be c07e b5be e085 abbe 9b9f 03bf
000001d0: 7411 a93e dea6 333e 4b6e bb3e 7063 1bbd
000001e0: 9909 933e 9733 f23d ac8b 9a3d 8c34 593c
000001f0: 2f1a 313e c7ac 2dbe a9bf eabe 98b7 b0bd
00000200: 409a 8d3e e981 76bd 1d1a aa3e c935 c2be
00000210: 92d2 e33c 1d8f 0abf db63 2fbe eeeb cdbe
00000220: 7a46 6fbe f6ea 40be 20d2 eebe caa1 b23e
00000230: 7395 ccbd b0e2 c4bd 08eb f83c 5836 86be
00000240: 0603 03bf c185 a2be 8a0a 4bbe a376 b8be
00000250: 3c60 da3e ea64 5cbe 7623 363f ba48 583d
00000260: cf61 3e3e ff0c 753e c51e 953e a594 bd3e
00000270: 38f1 873d 46b1 98be e610 4a3e e204 0cbe
00000280: b421 a6be 96ff 843e 9756 df3e 7083 a9bd
00000290: 75d6 473e 3ca3 49be 35cd cfbe 9ac3 e23c
000002a0: 69c5 ab3e b674 363d c49f c2be 8129 d5be
000002b0: e562 38be 23c6 9bbe 255e eebe fa83 083e
000002c0: a252 9b3e b336 09bd 9a13 293f 30b5 1cbe
000002d0: d263 843e 56dc 533e 0a78 243f 5e8b d53e
000002e0: d980 fe3e 76c7 c7be 7c43 2f3f 4d64 493e
000002f0: 460d c1be c915 f1be d093 70be fb8f 273d
00000300: 9d9e 5e3e a214 f5bd 17ad 05bf b9bb af3e
00000310: b498 88be 10e4 8a3e 8302 2bbc 2b63 9a3e
00000320: 95b2 3cbe 3538 5abe dc6b be3c 3059 b4bd
00000330: 410a 653e 81ef 8cbe 16be 7e3c 7483 df3e
00000340: e63f 9d3e 8d4d 833e 3e4b 823e 2393 edbe
00000350: 69f3 2c3e 892f 8b3e 8334 19be 2cbe 73be
00000360: 8b44 18bf d4ef 36bd 3197 633e 24c4 853e
00000370: 92fa 833e 76c3 143d 2f2d 8d3e 5dad c83e
00000380: 7099 8f3e d610 64be 4027 8dbe c72e 553e
00000390: 636e 4d3e 31cd 46be 7051 2ebe 034e f7bc
000003a0: 84a5 1bbf 883f 01bd abed 1ebe 37ff 6ebe
000003b0: d2a7 dc3c 0d6a 9fbe 602e df3e 678f 233e
000003c0: 6aef bfbe e7df dfbe 14af 96be 82b6 643d
000003d0: 0132 9d3d 8267 c6be ee19 9b3e 8547 79bd
000003e0: 594a a53e d664 043e b05b b83e 0aef 343e
000003f0: 5e23 cc3e 67a5 1ebe a4c4 023f 0ec1 033f
-0.44232202 -0.4199669 -0.7641557 -0.6419023 -0.1166666 0.25644213 -0.06185686 -0.24567738
-0.0062159933 -0.18924232 -0.1795341 0.23740986 0.14148213 -0.097168386 -0.26896387 -0.090613075
0.14939082 -0.05496403 -0.36814937 -0.4221975 -0.08481584 0.009473149 -0.52185714 0.36323175
-0.080880865 0.16533129 -0.068770014 -0.34024018 -0.07342162 -0.25935414 -0.23353267 -0.26782236
-0.6111321 -0.24818252 0.12337517 -0.042687997 -0.3791355 0.329269 0.45611015 0.051016074
0.029964453 0.23741753 0.22370926 -0.025073815 0.56788814 -0.09573284 0.70520735 0.3364886
0.05681054 -0.5538334 -0.38452548 -0.19519499 0.2457985 -0.3285577 0.08618615 0.107374884
0.13838151 0.39500055 -0.33139637 -0.488053 -0.34302795 0.4007379 0.3837143 0.030935004
-0.59652025 0.014365141 0.049340885 0.26846164 0.5500571 0.31523028 0.03907005 0.25143167
0.53664047 0.40145767 0.49469197 0.2760518 0.19751039 -0.46440065 -0.40020123 0.30534863
-0.16811028 0.07032386 0.16496418 0.2783006 -0.20495535 0.10577367 -0.30329686 0.27857134
0.1631127 -0.14120719 -0.29911646 0.05230081 -0.24021076 -0.3259826 -0.21915212 -0.12713619
0.31214434 0.2281082 0.1478389 0.34940076 -0.21022393 -0.19440784 0.2024567 0.43690917
-0.020198401 0.10177099 -0.20778196 -0.18133944 -0.066428736 -0.1444765 -0.47546506 0.49580097
-0.20516141 -0.35448265 -0.33500576 -0.51415414 0.33021128 0.17544124 0.36607584 -0.037936628
0.2871826 0.11826246 0.075461715 0.013257157 0.17295144 -0.1696044 -0.4584935 -0.08628768
0.27656746 -0.060182486 0.33223048 -0.3793166 0.027810369 -0.54124624 -0.17127936 -0.40219063
-0.23366728 -0.1883963 -0.46644688 0.3488906 -0.09989443 -0.0961355 0.03038551 -0.26213336
-0.5117649 -0.3174267 -0.19828239 -0.36028013 0.42651546 -0.2152287 0.7114786 0.052803732
0.18591999 0.23930739 0.29125038 0.3702747 0.06637806 -0.2982275 0.19733009 -0.13673738
-0.32447588 0.25976247 0.4362075 -0.08277023 0.19515403 -0.19691175 -0.40586248 0.02768116
0.3354905 0.044544898 -0.38012516 -0.41633227 -0.18006475 -0.30424604 -0.46556202 0.13331595
0.3033648 -0.03349943 0.66045535 -0.15303493 0.25857407 0.2068952 0.64245665 0.4170789
0.49707678 -0.39019364 0.6846235 0.19667168 -0.3770544 -0.47086933 -0.23493886 0.040908795
0.21740194 -0.11966826 -0.5221724 0.3432291 -0.26679003 0.27127123 -0.010437611 0.30153784
-0.18427499 -0.21310504 0.02324479 -0.08806074 0.22367193 -0.27526477 0.01554825 0.43654978
0.30712813 0.25645104 0.2544803 -0.4640132 0.16889729 0.27184704 -0.14961438 -0.23803014
-0.5947959 -0.04466231 0.22225644 0.26126206 0.25777107 0.03631922 0.27573535 0.39194766
0.2804675 -0.22272047 -0.27569008 0.20818625 0.2006164 -0.19414212 -0.17023253 -0.030188566
-0.6079943 -0.03155473 -0.1552035 -0.23339544 0.026935492 -0.31135598 0.4359007 0.15972672
-0.37487346 -0.4372551 -0.2943045 0.055838116 0.07675553 -0.38750845 0.3029322 -0.060859222
0.32283285 0.12929091 0.36007452 0.17669311 0.39870733 -0.15492783 0.510813 0.51466453

fc1.bias f4 [128]
00000000: 3cb6 32be 500b 613e e43b 473d c31b 603e
00000010: 91d5 db3e a59a 943e 80d1 2c3e 9c7b 333f
00000020: 75c4 8ebe 0284 f93e c6b8 b93e e929 92be
00000030: d975 b2be 191b d6bd 67b4 f13c 3f6e 603e
00000040: 0c6c a1be 2401 77be 87ce 83be c66b c43e
00000050: aea5 c43e dcad d13e 07f0 dbbd df4a d3bd
00000060: becb 243f ace1 103f 2914 b33e 5c61 dc3e
00000070: 99e9 833d 3f03 b63e 5dc2 a43e 2c97 6f3e
00000080: ac1f 143f 34b9 83be d121 363e 2aee fa3e
00000090: 066e adbe 0014 67bd 92dd c3be 30ee d13e
000000a0: f397 ba3e 8ed1 423e 83e8 23bd a694 afbe
000000b0: 36f1 80be 12e1 05be d6af 8bbe fe9e 873d
000000c0: 8533 30be 07fa 8f3e 363a 443e d55e acbd
000000d0: 71c4 b0be ae2b acbe 02a4 d4bd a869 1f3f
000000e0: ace2 063f d188 b73e 873c 38be 2483 cd3e
000000f0: 59ca 1fbe 20bc 4c3e 6e29 98be 8178 9bbd
00000100: e396 85be 6b0e 873e 1c59 873e 2845 0b3e
00000110: 22fa edbd 858e f03e 3d23 e53e c782 75be
00000120: de72 c13e 8f7b 95be 0b2b d43e 0981 cabe
00000130: f607 0e3d 027d 2e3f 9ac3 073f 719c 333f
00000140: 338c b83e 4eb2 c3bd c325 613d 2bf0 4c3e
00000150: c08e 0fbd 0222 783e 7875 0d3f 781b a1be
00000160: da7e 0c3f 9299 1b3f 797e 8ebe 3d08 8bbe
00000170: b738 b6be a2bf 46be 2e5b 2c3f 8b80 f73e
00000180: 89e6 d7bd 12a6 8d3e 8104 303e cc55 cbbe
00000190: 7591 0bbe f94b a03d ad28 163f ebb8 65be
000001a0: f889 be3e 0d50 313e 034c 103f 1e0f 6b3e
000001b0: aa22 e6be 57d4 a23e dc7f ebbd 59b6 893e
000001c0: 612d e1be 6ff2 a03e d4a3 95be 96c0 233f
000001d0: 726e e5be 0cc6 73be c7a0 ce3e 4142 9cbd
000001e0: 641c 073f bac8 3cbe ddfb c53e 6b91 453e
000001f0: 4052 e1be bb83 cf3e 397a c13e bf9c 0a3f
-0.1745233 0.21976972 0.0486411 0.2188559 0.42936376 0.29024234 0.16876793 0.7011049
-0.2788426 0.48733526 0.36273783 -0.285476 -0.34855536 -0.10454387 0.029504968 0.21917056
-0.31527746 -0.24121529 -0.25743505 0.38363475 0.38407654 0.40952957 -0.10739141 -0.10317015
0.64373386 0.5659435 0.34976318 0.4304303 0.064410396 0.35549352 0.32179537 0.23397511
0.5786083 -0.25727236 0.17786337 0.4900983 -0.33873004 -0.056415558 -0.38254982 0.41002035
0.36444053 0.19025251 -0.040016662 -0.34293097 -0.2518403 -0.13074139 -0.2728259 0.06622122
-0.17207153 0.28120443 0.1916283 -0.08416525 -0.34524873 -0.33627075 -0.103828445 0.62270594
0.52689624 0.3584657 -0.1799184 0.40139115 -0.15604533 0.19993639 -0.29719108 -0.07591344
-0.2609168 0.26378188 0.26435173 0.136006 -0.11619975 0.46983734 0.44753447 -0.23975669
0.3778295 -0.2919583 0.4143909 -0.3955157 0.03467556 0.68159497 0.5303284 0.70160586
0.36044464 -0.09555493 0.054967653 0.20013492 -0.035048246 0.24231723 0.5525737 -0.3146627
0.5488106 0.60781205 -0.27830866 -0.27154723 -0.35590145 -0.1940904 0.6732663 0.48340258
-0.10542018 0.27665764 0.17189218 -0.39713895 -0.13629706 0.07826991 0.58655816 -0.22433822
0.37214637 0.17315693 0.56365985 0.22954985 -0.44948322 0.31802627 -0.114989966 0.26896933
-0.43979934 0.31434962 -0.29226553 0.6396574 -0.44810826 -0.23806018 0.40357038 -0.076298244
0.52777696 -0.18435946 0.3866872 0.19293754 -0.44008064 0.4053019 0.3778856 0.54145426

actor_fc1.weight f4 [64, 128]
00000000: 3201 c83c 42d3 acbc 0ea4 a1bd da12 273e
00000010: f74e 2f3d 9984 83bd 6255 e3bb c49f 193d
00000020: 373a 863d 4c12 f5bd d544 eebc 43f5 b23d
00000030: 1504 8ebc e68f ea3c 13db 903d 6d72 0cbe
00000040: 570c 2c3d 1644 6c3d d98b f8bc 734f 253d
00000050: 6fbb dfbd 24c2 a9bd cfa6 cb3d b307 e43d
00000060: 02b2 81bc 6f44 c0bb 9b88 bfbc b41a b33c
00000070: 8223 473d 22b0 48bd 62c8 353d aa7f 463e
00000080: f7c9 a23d cf86 bd3d 0b25 fc3c 2848 0a3d
00000090: 6e81 8f3d 3245 5c3d 3014 2c3d 069a fc3c
000000a0: 1afe 7e39 5803 0e3e ef78 863d eee5 503c
000000b0: 374f f0bc c395 7cbd 14af 93bd 03d4 17bd
000000c0: 97dc f43a 5888 f0bd 7deb a43d a234 c9bb
000000d0: ebbe b43d d4b8 283d f2ad 9bbc c0e7 19be
000000e0: 8147 16bc 90ea 8e3d 793d 0ebd dd29 da3c
000000f0: 7cbe 07bc cd7c 0ebd b2cf 8a3d 135a b1bd
00000100: 6130 f1bc 990b c23d 2420 be3d c267 e83d
00000110: c700 1cbc 380f 8abd 2eb5 493d 1447 0bbe
00000120: cc96 c4bc 8270 32bb 603e 283d dfae 8e3c
00000130: 362c 5cbd 9ba9 6abd 1461 f33d 00c7 ae3d
00000140: bdb6 4fbd e4ae bb3d cbc0 e93b 41db b0bd
00000150: 7d8c dcbc 2583 833d d804 473d b82d 293d
00000160: c5e3 6e3c 3f3b 4c3c 04ac e53d 4967 bbbc
00000170: 5941 82bd 16df 94bd ea17 9c3d d026 933d
00000180: 0cb7 dfbb 340d c13a 2de5 413e f1d5 f7bb
00000190: 4901 f1bd b7fb 9f3d 8d94 853c 616a b03c
000001a0: f2e5 96bd 85ea 0c3d 6003 993d 3112 09be
000001b0: 8837 27bd 1d46 eebc f69e c93d 6fd0 1dbe
000001c0: 92a8 5ebd 2400 d23d b4cb a83d 4603 6f3d
000001d0: 71d0 d7bc a45d a53c ab56 b3bd cb17 8b3d
000001e0: ddc2 633d 42c3 d9bb 304d 903d e98c a13d
000001f0: 428f c23c 5c11 593d d56e d6bc f8d3 b8bb
00000200: 0f93 27be d993 b2bd aa22 6fbc b181 bdbd
00000210: 316f 2bbe a70c fabc df56 bdbd 5dcf 30bc
00000220: 71bb ccbb 9843 153d e6ce 063e e150 0d3d
00000230: 7eb0 d73c 77fb 5b3c 227a 44bd a650 113e
00000240: f7ac c33c b3b3 8f3d fa4a 2a3c 1554 debc
00000250: b830 033e 436b 1d3d 281b 8ebc ff24 913c
00000260: e7fa 9b3d ae48 aa3d a076 b5bd 59e3 083e
00000270: 449a aebd 4d51 1b3d dbfb 6e3d 6353 3bbe
00000280: 13bd 833d b7f6 ee3c 00e7 d93d f238 88bc
00000290: 8deb 81bc e10f 8b3d 67ec 3dbd 47ce 6e3d
000002a0: b27f 9d3d 9e94 37bd fbd2 0dbe 0f18 f13b
000002b0: 8572 76bd 95c3 a63d d7dd 27bb 11e2 e1bc
000002c0: 7fe9 a33d 46f9 d13d ab18 2c3c b687 2d3c
000002d0: 09db c03c be5b b23c 5bca b13b 2b7b 903d
000002e0: 95b0 813d f742 07bc ee4e d1bc e699 d73d
000002f0: 3fae c33c 8a76 a73d 5ccf 923c fd13 4a3d
00000300: 6774 a53d b819 16be 535f 9ebd c95a 95bd
00000310: 95ae a7bd b6ad 823d b79a c3bd fe85 1d3e
00000320: 2778 cb3d 0e75 13bd 8aa5 f3bc 33bc a23d
00000330: 1c26 9dbd e8b9 3cbd 90c1 6c3b 18c2 94bd
00000340: 57cb 913d 4ee8 0cbd de03 543d 57df 383e
00000350: 5861 153d 8373 b8bd f382 48bd ebe5 2e3c
00000360: 1ed4 babc 59be 23bb 8931 f4bd 34ed e9bb
00000370: 4c8a 503d d29c 3d3d 215c a93d 18e0 b9bd
00000380: 3527 aabd f8e3 91bd 8334 44be 0901 2ebd
00000390: b220 283d 4b80 75bd 0081 a63c 44c1 a73d
000003a0: cc74 a73d 2825 3a3d c5a0 65bd 93b3 e23d
000003b0: 809d 95bd 964c 443c 822e 26be 45d9 623d
000003c0: a36f f13d 3ff9 353d be48 19bc 942f f13c
000003d0: 05aa f2bd fdc0 893d b19f 223e 3740 23be
000003e0: 19e4 b93d 45ce a73d 1ffa f53b c9d2 1d3d
000003f0: e3df 55bd b927 73bd 52b7 503d 5701 1dbd
0.024414632 -0.02109683 -0.07892619 0.16315785 0.042799916 -0.06421775 -0.0069376687 0.03750588
0.06554072 -0.119663805 -0.029085556 0.08738186 -0.01733593 0.02863307 0.07073035 -0.13715525
0.042003956 0.05768212 -0.030340122 0.04035897 -0.10924422 -0.082889825 0.099439256 0.11134281
-0.015831951 -0.005867533 -0.023380568 0.021863319 0.048617847 -0.0489961 0.044380553 0.19384637
0.07948678 0.09254228 0.030779382 0.03376022 0.07007109 0.053776927 0.04201144 0.030835163
0.00024317988 0.13868463 0.06566035 0.012750132 -0.029334648 -0.06166626 -0.07211128 -0.037067425
0.0018681464 -0.117447555 0.08052728 -0.0061403075 0.08825477 0.04119189 -0.019003842 -0.15029812
-0.009172321 0.06978333 -0.034726594 0.02663129 -0.008285161 -0.034786988 0.06777896 -0.086597584
-0.029442014 0.09474868 0.09283474 0.11347915 -0.00952167 -0.06741184 0.049245052 -0.13601333
-0.023997687 -0.0027227704 0.04107511 0.01741737 -0.0537531 -0.057290655 0.118837506 0.0853405
-0.050711382 0.09164217 0.0071335784 -0.08635569 -0.026922459 0.06421498 0.048588604 0.041303366
0.014580672 0.012465297 0.1121445 -0.022876399 -0.0636012 -0.07269113 0.07621749 0.07185137
-0.006827241 0.0014728666 0.1893508 -0.0075633456 -0.11767823 0.07811683 0.016306186 0.0215351
-0.07368077 0.034403343 0.07471347 -0.13385846 -0.040824443 -0.029086167 0.098447725 -0.15411542
-0.05435998 0.10253933 0.08241978 0.05835273 -0.02634451 0.020186253 -0.08756765 0.067916475
0.055605758 -0.006645591 0.07045972 0.078882046 0.023749951 0.05299507 -0.026175896 -0.005640503
-0.16364692 -0.08719606 -0.014595667 -0.09253252 -0.16741635 -0.030523611 -0.09245085 -0.010791627
-0.0062479307 0.036441416 0.13164863 0.03450096 0.026329275 0.013426653 -0.047968037 0.14190921
0.023886187 0.07016697 0.010393852 -0.027139703 0.12811553 0.03843237 -0.017346933 0.017717836
0.07616215 0.08314644 -0.088605165 0.13367976 -0.085255176 0.03791933 0.058345657 -0.18293528
0.064325474 0.029170377 0.10639763 -0.016628716 -0.01585939 0.06790138 -0.04636803 0.05830219
0.076903716 -0.044819467 -0.13850014 0.0073576043 -0.060167808 0.08142773 -0.0025614405 -0.027573617
0.0800352 0.10252623 0.010503928 0.010591438 0.023541944 0.021772262 0.005425734 0.070547424
0.063325085 -0.008255712 -0.025550332 0.10527401 0.023886798 0.081769064 0.017921142 0.04933547
0.080788426 -0.14658248 -0.077330254 -0.072927065 -0.08187596 0.06380789 -0.09550994 0.15383145
0.099350266 -0.036000304 -0.029742021 0.079460524 -0.076732844 -0.04607573 0.0036126114 -0.07263583
0.07118862 -0.03440123 0.0517615 0.18053947 0.036469787 -0.09006407 -0.048953008 0.010674934
-0.022806223 -0.0024985282 -0.119235106 -0.0071388725 0.05091314 0.046292134 0.08269525 -0.090759456
-0.083082594 -0.0712356 -0.19160657 -0.042481456 0.041046806 -0.059936803 0.020325184 0.08191159
0.08176574 0.04544559 -0.056061525 0.11069407 -0.07305431 0.01198115 -0.16228679 0.055382986
0.11788871 0.044427153 -0.009355722 0.029441632 -0.11848835 0.06726263 0.1588123 -0.15942465
0.09076709 0.0819364 0.0075066234 0.0385311 -0.05221547 -0.059364054 0.050956078 -0.038331356

actor_fc1.bias f4 [64]
00000000: 9246 aa3d 8b02 8e3d e2b8 8c3d f025 943d
00000010: b71d 28bd 178a 92bd 9137 81bc cfe0 3dbc
00000020: 6b06 893d 9580 283c 830a dcbb 7500 cbbd
00000030: 739c b6bc feee ce3d 2389 bbbc 47c9 9abd
00000040: 47db 643d c43a db3c 48b6 e2bb 2b2a 863d
00000050: 196a 14bd b8fc bcbd 0fc1 4f3d d8e3 9abd
00000060: 7e68 00bd a091 fcbc f13d ab3d 5a94 88bc
00000070: cde6 b13d 3368 983d cdc4 7c3d b2c2 783d
00000080: 6989 c83d 5312 8d3d 7225 9cbd 1f5f 323c
00000090: 545f adbc 84de a93d 36d2 1ebc 56e1 96bb
000000a0: 274e a53c 240a 453d 5574 80bc a8df cabb
000000b0: e0be 5c3d f936 8d3c 897b cabd e19f 48bb
000000c0: 7fa3 153d 4c6a 823d f481 a2bc 2a4a b3bc
000000d0: 58c2 76bd 1f43 97bd 3c20 b4bc b456 8b3d
000000e0: d2fa 8c3d 6ff3 dfbc db7e e83c 8482 083d
000000f0: d528 8c3d 2f7a 52bd d300 493c f463 8f3d
0.083142415 0.06934079 0.06871201 0.072337985 -0.041043963 -0.07155245 -0.015773566 -0.011589243
0.06690677 0.010284563 -0.0067151203 -0.099121965 -0.022291398 0.10104178 -0.02289254 -0.07557922
0.05587318 0.02676142 -0.0069187023 0.06551012 -0.036233995 -0.0922789 0.050721224 -0.07562989
-0.03134965 -0.030831158 0.08361424 -0.016672302 0.086866 0.074417494 0.06171112 0.06073255
0.09791834 0.06888261 -0.076243296 0.010886936 -0.02116362 0.082943946 -0.009693673 -0.004604499
0.020178868 0.048105374 -0.015680471 -0.0061912127 0.05389297 0.017238127 -0.09886844 -0.0030612873
0.036532875 0.06367931 -0.019837357 -0.02188595 -0.060243934 -0.07385849 -0.021988027 0.06803647
0.06883778 -0.027337758 0.028380802 0.033327594 0.068437256 -0.051386055 0.012268263 0.070014864

actor_fc2.weight f4 [2, 64]
00000000: a863 2a3e efbc 09be 026a 58be 22cb 173e
00000010: f499 fbbc 5689 433e 2d01 2f3e 4b5d 1d3e
00000020: d7df 8abc 0c20 553e ba72 eabd 4878 1cbd
00000030: 3508 35be 1d5b 4abd 55fa 6bbd 1134 073d
00000040: 62e5 7b3d d349 1bbe d710 95bd b45a 033e
00000050: ff50 9cbd e827 a0bd 2b80 1dbe 06d8 a4bd
00000060: bd1d a23d e54a 373e 58ca 29be 166f e8bd
00000070: 007b 11be fe34 e73d 5307 563c dd07 cb3d
00000080: 6775 30be 489b b3bd 9cc8 303e 126d 15be
00000090: 689f 553e 5dcf 9b3d d19d b4bd d5bd 183c
000000a0: d45f 22be d570 db3d c5a3 263e cb02 833a
000000b0: 5fb8 b3bd c81f a0bd d001 443d 793c b3bc
000000c0: 9410 09bc 6357 1fbe 25ec d43d 43e9 debd
000000d0: ecf6 8c3d a65d e6bd 434f 293d 8140 743c
000000e0: 4d9a fdbc 5f65 3e3d c25d 18be 70f1 a2bd
000000f0: 87e2 1abe 0088 d53c 0c7b 143e 39b5 04bd
00000100: 5631 abbd 313c 143e e7fb fe3d 65f7 d6bc
00000110: 3a4e 913c 38db 19be b986 0c3c 8fb4 19be
00000120: fb4e 13bc 8860 02be 78af 1e3d 955f aabd
00000130: 0567 233e d005 5f3d 7ca0 1d3e 1f4a 34be
00000140: fb18 55be b900 edbc 5bd9 213e 5d00 4dbd
00000150: fe50 ba3d 9f2d 553d 9a5f ea3b a2ee 58bd
00000160: c5aa eebd 3fd5 43be bc31 823d daf0 e83b
00000170: c51e af3d e771 aebd 3931 2dbd 0912 0dbe
00000180: 2019 003e cbf8 6a3d ad92 5b3c d7d2 5b3e
00000190: d102 ffbd 8578 06be b376 0e3e 1d28 223d
000001a0: 137b af3d e111 dc3d 5aba bd3b f255 9dbb
000001b0: b2c5 513e faa2 4e3d 500e 77bd a08e cb3c
000001c0: 293f e5bc b501 7f3c 9182 ac3d e975 dcbd
000001d0: cab2 f33d d8fe 813c 3a8a 8abc 98af bd3c
000001e0: 1657 29bc 95b1 333d c422 113d 3f1a 583e
000001f0: 0524 2c3e 9638 2fbe d069 ffbd f14f 3b3e
0.16639578 -0.13450979 -0.21134189 0.14823583 -0.030713059 0.19095358 0.17090292 0.1536762
-0.016952438 0.20813006 -0.114476636 -0.038200647 -0.17678912 -0.0494033 -0.057611782 0.03300864
0.061498053 -0.1516488 -0.072786026 0.12827569 -0.07632636 -0.078201115 -0.15380923 -0.08049016
0.079158284 0.17899664 -0.16581094 -0.11349313 -0.14207077 0.11289404 0.01306327 0.09913609
-0.17232285 -0.08769852 0.17264026 -0.14592388 0.2086159 0.07607911 -0.088191636 0.009322603
-0.15856868 0.107148804 0.1627341 0.0009995339 -0.087754 -0.07818562 0.04785329 -0.021879422
-0.008365769 -0.15560679 0.103966035 -0.10884335 0.06883034 -0.11248331 0.041335355 0.014907957
-0.030957365 0.046483394 -0.14879516 -0.07956207 -0.15125476 0.026065826 0.14500064 -0.03239939
-0.083590195 0.14476086 0.1245039 -0.026241014 0.017737497 -0.15025032 0.008577042 -0.15010284
-0.008990998 -0.12732136 0.03874156 -0.08319012 0.15957268 0.054448903 0.15393251 -0.176064
-0.2081031 -0.028931009 0.15805571 -0.050049175 0.09097479 0.05204546 0.00715251 -0.052961953
-0.116536655 -0.19124316 0.06357142 0.00710879 0.08550791 -0.08517819 -0.04228327 -0.13776411
0.12509584 0.057366174 0.013401669 0.21467148 -0.12451709 -0.13131912 0.13912468 0.039589036
0.085683964 0.10745598 0.005790037 -0.0048015052 0.20485571 0.050448395 -0.060316384 0.024848282
-0.027984219 0.015564372 0.08423341 -0.10764677 0.11899336 0.01586859 -0.016911615 0.023155019
-0.010335704 0.043870527 0.035433546 0.21103762 0.16810615 -0.1711143 -0.12471354 0.18292214

actor_fc2.bias f4 [2]
00000000: 21a7 6dbd da0b ba3d
-0.058020715 0.09084292

critic_fc1.weight f4 [64, 128]
00000000: fdff a83d 61bc c4bc 1c56 68bd e0de 5bbd
00000010: dd72 babd 2bc6 93bc e065 84bd 8a1a ca3c
00000020: a5ff 283d b677 a73c f190 a9bd 4521 99bd
00000030: f6bd 19bd 9b6b 9dbd 82f3 32bd a4f5 e63b
00000040: 0974 a8bc 479f a3bd 9cd5 a63d 4fb5 62bd
00000050: 55a6 223d 8cf7 b2bd 4117 9cbd 1c95 333d
00000060: 0c07 4bbd 8fd6 0abd f10e bb3c 5810 97bd
00000070: aa3d 6fbd 46bc 81bd 3873 7fbb adc8 2fbd
00000080: 726b 89bc 6ac9 5dbd fe77 9b3d b9bb 5cbd
00000090: e059 3e3d f4f8 afbc 72f1 8dbc 2fa2 0abd
000000a0: cc24 4e3d a1d5 9b3d dd5f 523d 5c5e 0e3d
000000b0: 6467 983c 11cf b5bc 041b d0bb 7dc3 7dbc
000000c0: 6058 483d 80b0 bb3c 61d1 c0bd 31fb dc3c
000000d0: f167 853d b90e fabc de92 6cbd e05f 9a3c
000000e0: 4fd8 42bc f09f 1cbd 657b 4dbc e294 0c3d
000000f0: f0c6 c23c 5065 29bc 6b0f 32bc 67f3 b6bc
00000100: ed4e 75bd df5f 1f3d 1a69 66bc ef4a 043d
00000110: 9dd4 6abd 6cf0 bdbd caa5 803d e401 ac3d
00000120: d255 62bb c94d 3fbd 0557 523d 1ac9 903d
00000130: 98ea 9c3c e17e f83c 2fb8 77bd 0eaf a1bc
00000140: 23a3 be3b 62bd adbd cfb0 2f3c 3610 e0bc
00000150: c568 3c3c cd89 0ebd 9a69 87bd 02ce 99bd
00000160: 85e2 25bd d962 06bd f542 e73c 353a 48bd
00000170: 41d7 ac3c a8ba 08bd 4990 60bd a054 053c
00000180: bf42 a93d 7078 f63b ec65 f0bc 1497 5dbd
00000190: 2775 abbd f483 a03d e7cf 423b 54c4 903c
000001a0: 797b 6a3d f251 e43b e4f3 84bd b33c 873d
000001b0: 9727 95bb abfb bb3b 0d81 6ebd 9774 2e3d
000001c0: e9a6 9e3d ea3e b83c 1ebd 043d 98aa 24bb
000001d0: 3c16 563c de50 9ebd 7892 543c eaab 1d3d
000001e0: 90c7 703c 0b55 bf3c 7210 033d 64b8 1c3d
000001f0: 2a3c ad3d 72b4 8fbd 5657 a13d 120d 94bd
00000200: 2c80 fe3d c738 b4bd f90a 0eba 022c 363c
00000210: 8316 b9bd 3ead f33c c822 c2bd b555 b83b
00000220: c536 253e f558 38bc e276 18bd ed1d 203e
00000230: dd9b 263d b9b9 8a3c 3156 713d 3425 ca3a
00000240: 3508 843d 803c 9e3d fe59 373e 8c0c f23c
00000250: c0d9 e53c 08ba cdbd 6cac 153c ae1f 1b3e
00000260: 5a5f aebd 6424 3fbc 2d23 debc 8a35 4fbc
00000270: ad67 803d 7644 9a3d 0217 a6bd 7ca3 233d
00000280: b85e f5bd 3641 533d 91d1 fa3a 34cb 01bd
00000290: 63c9 2a3e 424d 633d f65b f23d 5929 093d
000002a0: 32a5 ddbc e72e 123d 2552 5c3d cd5b 483e
000002b0: c2e1 423e 97cb a73d 813d a63d fa52 123e
000002c0: cfe6 83bb e53e 13bd f79c 073b 9769 ba3d
000002d0: 65ff ce3d 52fb ae3d 3915 fe3c 3def e7bc
000002e0: 8387 e5bb 45f3 a2ba 012c 313e 8ca4 93bd
000002f0: ef55 743c 38a3 d43d b0c0 273e 2a5b 503d
00000300: d323 a93d 6543 5a3c 1f65 edbb d14b 723d
00000310: af63 3b3d c4ec 0b3c fb0e c5bd 45fd e03c
00000320: 1e38 87bb 49b5 ff3d 3490 93bd b1e3 f53d
00000330: df03 b13d c768 5cbd 630e e8bc c8b2 4d3d
00000340: f932 933d 83ff e23d 76b7 44bd ae87 883c
00000350: 1576 b23d 6024 a8bd f46c f8bd 52ce 293e
00000360: 09fe cf3b 08c8 8abd a7de 1d3e 1523 94bc
00000370: 2f99 1f3e 7a27 05bb 3922 4139 948c 52bd
00000380: 6510 933d 184a 3cbd 9e20 07bc 8a17 a53d
00000390: 30da 003e 13de 51bb b3ae 813b dbfb 693d
000003a0: 7e5e 1d3d 7a19 963d d0a5 6c3c 9a0c 9e3d
000003b0: 326a fd3d 6126 4ebd caed 033e 1ea3 e6bd
000003c0: fc7f d73c cbfd 8bbd e6e7 263e 8b62 7abd
000003d0: ee27 ae3d 58b1 863d 1b58 68bd f9dc d33c
000003e0: 950d 573c a7ca 123e cdcd 433c dd30 6dbd
000003f0: a5d8 e83b ea64 97bd 589e 1abd 599f 33bd
0.08251951 -0.024015607 -0.056722745 -0.053679347 -0.0910394 -0.01803883 -0.064647436 0.024670858
0.041259427 0.020442825 -0.082795985 -0.07477049 -0.037534676 -0.0768654 -0.04368926 0.0070483256
-0.020563142 -0.07989364 0.081462115 -0.05534869 0.039709408 -0.08738622 -0.07621623 0.043843374
-0.049567267 -0.033896025 0.022834273 -0.07376164 -0.058408417 -0.063347384 -0.0038978588 -0.04291599
-0.016774867 -0.05414716 0.07591246 -0.053889964 0.04647243 -0.021481015 -0.017327044 -0.033846077
0.05032806 0.07609106 0.051360954 0.034757957 0.018603988 -0.022193464 -0.0063508768 -0.015488503
0.048912406 0.02291131 -0.09414936 0.026975246 0.06513966 -0.030524598 -0.05775725 0.018844545
-0.011892392 -0.038238466 -0.012541627 0.034321673 0.023776501 -0.010339096 -0.010867934 -0.02233286
-0.059889723 0.03890979 -0.014063144 0.032298025 -0.05733167 -0.092743725 0.06281622 0.08398798
-0.0034536016 -0.04670504 0.05135252 0.07069607 0.019154832 0.030333938 -0.060478386 -0.019736793
0.0058177873 -0.084833875 0.010723307 -0.02735148 0.011499588 -0.034799386 -0.06611939 -0.07509996
-0.04049923 -0.032809112 0.02823017 -0.048883636 0.021098735 -0.033381134 -0.0548251 0.008137852
0.08264684 0.0075216815 -0.029345475 -0.054099157 -0.083719544 0.07837668 0.002972597 0.017671742
0.05724666 0.0069677765 -0.06491831 0.06603374 -0.0045518386 0.0057367883 -0.05822854 0.042591657
0.07746679 0.022490937 0.03240692 -0.0025126096 0.0130668245 -0.07730268 0.012974374 0.03849403
0.014696017 0.023355981 0.031998105 0.038261786 0.08458741 -0.07016839 0.07877986 -0.072290555
0.124267906 -0.08799892 -0.0005418505 0.011118891 -0.09037497 0.029745694 -0.0947929 0.0056254514
0.16134174 -0.011251678 -0.03722275 0.15636416 0.040675987 0.016934263 0.05892009 0.0015422464
0.06446878 0.07726383 0.17905423 0.029546998 0.028057933 -0.10045248 0.009135347 0.15148804
-0.085142806 -0.011666391 -0.027116382 -0.012647042 0.062697746 0.07532589 -0.08109857 0.039950833
-0.11980957 0.051575862 0.0019135942 -0.03168793 0.16678385 0.0554936 0.118339464 0.033486698
-0.02705631 0.03568926 0.053789277 0.19566269 0.19031432 0.081931286 0.081172 0.14289466
-0.0040253173 -0.035948653 0.0020692924 0.09102171 0.101073064 0.08544029 0.03101598 -0.02831232
-0.0070046796 -0.0012432119 0.17301942 -0.07209119 0.014913066 0.10382694 0.16382098 0.05086819
0.08258786 0.013321732 -0.0072447206 0.059154335 0.045749363 0.008540336 -0.09621998 0.027464518
-0.0041265627 0.12485749 -0.07205239 0.12006319 0.086433165 -0.05381086 -0.028327173 0.050219327
0.07187457 0.11083891 -0.048026524 0.01666626 0.087139286 -0.08210063 -0.12130156 0.16582611
0.006347422 -0.06776434 0.15416966 -0.018083135 0.15585779 -0.002031772 0.00018418663 -0.051403597
0.071808614 -0.0459691 -0.008247523 0.0806113 0.12583232 -0.0032023236 0.0039575933 0.057124954
0.038420193 0.07329078 0.01444383 0.07717247 0.12373771 -0.05032957 0.12883678 -0.11261581
0.026306145 -0.068355165 0.162994 -0.061129134 0.0850371 0.065767944 -0.05672465 0.025862204
0.013125797 0.14335118 0.011950922 -0.057907928 0.007105904 -0.07392295 -0.037748665 -0.043853138

critic_fc1.bias f4 [64]
00000000: 656b 0d3d 9f84 9dbd cf78 f4bd 65d2 1d3e
00000010: 49f0 92bd e054 33bd a330 483e f8da 8e3d
00000020: 809e 94bd 340c 553d c3ce 833d 550d 16bd
00000030: b9bb a53d 1d6d 73bd 609a 10bd 4692 dc3d
00000040: 1870 c0bd a106 d6bd 1b56 9dbc 6cd4 303e
00000050: 71c1 78b9 8b14 edbc c86c 0e3e bd79 233e
00000060: f022 483e 2bef c43d be21 263e da08 e6bb
00000070: ace1 65bc c5b0 92bb c841 1d3e b55a 7c3e
00000080: 9966 573e 29fe fbbd b0c2 99bd 5ef4 953d
00000090: 43ba 3e3d 7401 b6bc f755 c23c 6f40 673d
000000a0: bf1c 223e ee55 86bd 4033 d83d 6984 febc
000000b0: 0fe4 bbbd 7be7 66bd 2848 8cbc 2ccb 88bd
000000c0: aef3 e63c 3422 013e 65ce c6bc fe3b 533e
000000d0: 1f2b 633e 5de5 103c f2ed 263e 40e5 57bd
000000e0: aaab cbbd fd20 453c d412 273e f34c d83d
000000f0: 2e18 25bd 5833 6ebd 9aaa 63bd 236b 4a3e
0.034526248 -0.07691311 -0.11937105 0.1541229 -0.07174737 -0.043782115 0.19549803 0.06975359
-0.07256794 0.05201359 0.06435921 -0.03663381 0.08092446 -0.05943023 -0.035303473 0.10770087
-0.0939638 -0.10450483 -0.019206097 0.17268533 -0.00023723186 -0.02894046 0.13908684 0.15964408
0.19544578 0.0961593 0.16223809 -0.007020098 -0.014030855 -0.004476639 0.15357125 0.24643977
0.21035232 -0.123043366 -0.07507837 0.07322 0.04656435 -0.02221749 0.023722632 0.056457933
0.15831278 -0.065593585 0.1055665 -0.031068997 -0.09174358 -0.0563731 -0.01712425 -0.06679377
0.028192367 0.12610704 -0.024268338 0.20628354 0.22184418 0.008843747 0.16301706 -0.052708864
-0.09944852 0.012031791 0.16315776 0.10561552 -0.040306263 -0.058154434 -0.05558262 0.19767432

critic_fc2.weight f4 [1, 64]
00000000: 13a1 b5bc cb0c c2bd 6513 ecbd 513a 523e
00000010: ac7a 553b 5c77 17be 406f 6d3e f6fb 683e
00000020: 4a8f 20be ae40 41bd 6843 7c3e bdbf b4bd
00000030: 6cbe 5d3e 9e99 953d e64e 7cbd 9278 1d3e
00000040: a0bf a13d d0d6 4abe b520 86bd c3f8 413e
00000050: add8 a9bd 5e2d 303c 46f1 3d3e dbbc 373e
00000060: a754 223e b39d 0d3e 2d4b 8b3e d229 303d
00000070: f72b 4abe 7195 09bc 1c06 6c3e e145 183e
00000080: 2def 893e 28c1 38be 1e72 74be cd2d 9fbc
00000090: 71a0 ccbd 7c3f 26bd 8fdc b0bd fa46 6b3e
000000a0: 9a96 2b3e eb63 61bd 8172 373e c56f 8fbd
000000b0: 8bbc bfbc bbba 0abe 4df5 c4ba 7562 e1bd
000000c0: 33e4 a4bd bd9d 433e b6ef c8bd 7df9 4d3e
000000d0: 4920 583e e46b 5d3d 59bc 783e 0b07 5abe
000000e0: 1ef3 85bd 84d5 4cbe d5cd 8c3e 93ee 1d3e
000000f0: d2ab c03d b27e 2cbe 5e93 0ebc 6d43 563e
-0.022171533 -0.09475096 -0.11527137 0.20530058 0.003257434 -0.14791626 0.2318697 0.22752365
-0.1567966 -0.047180824 0.24635088 -0.08825634 0.21654671 0.07304691 -0.06159868 0.15378025
0.07897878 -0.19808507 -0.06549207 0.18942551 -0.08293281 0.010753004 0.1854907 0.17943136
0.15852605 0.13829689 0.27205792 0.043008633 -0.19743334 -0.008397446 0.23049206 0.14870407
0.2694029 -0.18042433 -0.23871657 -0.01943102 -0.09991539 -0.040587887 -0.08635818 0.22976294
0.16756669 -0.05502693 0.17914774 -0.0700374 -0.023405334 -0.13547795 -0.0015026719 -0.11005107
-0.08051338 0.19103141 -0.09811346 0.20114703 0.21106066 0.05405797 0.24290599 -0.21291749
-0.065405115 -0.20003325 0.27500787 0.1542304 0.09407772 -0.16845205 -0.008702127 0.20924158
