reinforcement_learning/actor_critic/actor_critic_500.pth (torch, 4834 bytes, 5 tensors)

fc1.weight f4 [64, 4]
000000 76 f9 b7 3e 33 53 1d 3f ba 5d 56 3f 3a 58 2c 3f
       0.3593251 0.61455077 0.83736765 0.67322123
000010 aa 07 bc be 87 99 b9 3e 5d f7 4b 3e d6 d3 93 3e
       -0.36724597 0.36249945 0.1991858 0.28872555
000020 88 4d b9 3e 04 0f 7b be 24 ad 84 3f 25 5f 7d 3f
       0.36191964 -0.24517447 1.0365338 0.98973304
000030 80 27 99 3e 74 54 26 bf ad ea 0e bf bc c4 34 3f
       0.2991295 -0.64972615 -0.55826837 0.7061269
000040 8b 9a ea 3e 99 8c 37 bf 2f ca 01 bf 09 5d 1f 3e
       0.45821032 -0.7169891 -0.5069913 0.15562834
000050 b8 d7 29 bd 83 ac a2 be f6 02 43 3c 66 7a ce be
       -0.04146549 -0.3177224 0.011902561 -0.40327758
000060 28 da 0f 3e b1 46 8a 3e 2e 66 62 be b5 8a 5d be
       0.14048064 0.27007058 -0.22109291 -0.21634944
000070 a6 1d 32 bf d7 f8 a3 3e 1b ec 6f 3f c0 3f c9 3e
       -0.6957649 0.32025787 0.93719643 0.3930645
000080 c2 24 ca be cb f1 af 3e d6 ae a2 be ec 33 c4 be
       -0.3948117 0.3436416 -0.31774014 -0.38320863
000090 d0 24 98 be d5 9c a6 be b9 28 9e bf ec ee 31 bf
       -0.29715586 -0.32541528 -1.2356178 -0.6950519
0000a0 15 2c 96 be 73 e8 a4 3e 30 04 12 bc 7e ed 17 be
       -0.29330507 0.32208595 -0.008912131 -0.1483669
0000b0 6b 0b 34 3c be f7 b4 3e 86 0b 5d 3e 79 42 82 3e
       0.01098905 0.35345262 0.21586427 0.2544134
0000c0 82 89 4e 3e b3 98 df bd 5c d8 c8 be 3b e9 ca be
       0.20169643 -0.10917797 -0.3922757 -0.39631066
0000d0 a5 ef b0 3e 97 50 1c bf 0d ec 90 bf 87 28 6c bf
       0.34557834 -0.6106047 -1.1322037 -0.9224934
0000e0 09 41 64 bd 82 2c f6 3c 1f ae 89 3e de 14 4d be
       -0.055726085 0.03005052 0.26890656 -0.20027491
0000f0 7d 67 9a 3e 49 80 fa be 89 9c df bc db 5d ad be
       0.3015708 -0.48926 -0.027296321 -0.3386067
000100 00 5d 91 3e a8 08 83 be 9b 34 21 3e cc 64 13 be
       0.28391266 -0.25592542 0.15742724 -0.1439392
000110 a3 27 0b 3f 9c 19 05 be bb 50 f0 3d 47 0e 33 3e
       0.54357356 -0.1299805 0.11734148 0.17485915
000120 91 6a ab 3e e4 c2 d7 3e 48 48 00 be 32 ea 24 bf
       0.3347974 0.42140877 -0.12527573 -0.64419854
000130 2a 7e 81 3d 45 93 b0 bc f8 bc 05 3e b8 88 3f bf
       0.06322892 -0.021554599 0.13060367 -0.7481799
000140 35 bf 95 3c 98 d1 67 be e8 02 d3 3d b3 9e 08 3e
       0.018279651 -0.22638547 0.10303289 0.13341789
000150 f9 c9 1e be d1 f9 9c 3d b5 07 ba bf 04 d7 3d bf
       -0.15506734 0.07664836 -1.4533602 -0.7415621
000160 d2 ff 9b bc 44 09 c5 bd 10 03 9e bd 8c 3f af be
       -0.019042883 -0.09620908 -0.07715428 -0.3422817
000170 a3 d5 59 be cf 9a 0a 3e 60 87 43 3f c4 a8 92 3f
       -0.21272902 0.13535617 0.7637844 1.1457753
000180 4e 33 52 3d 89 38 34 be d2 87 00 be b9 3b 1e 3e
       0.05131846 -0.17599691 -0.12551811 0.1545247
000190 c2 34 0f 3f c6 af 3a 3d c3 8d 2b 3f 83 d7 14 be
       0.5593988 0.045577787 0.67013186 -0.14535336
0001a0 06 ac a9 bd 8d cd 59 3f 77 f0 d6 be fd b1 80 3d
       -0.08284764 0.8507927 -0.41980335 0.062839486
0001b0 1a 88 4d be c8 a4 3c 3e 85 b5 0e 3e e5 e7 f9 be
       -0.2007145 0.18422234 0.13936432 -0.48809734
0001c0 ca 06 f4 3e 61 bb f8 be 10 c7 b9 be 48 c1 5b be
       0.4766143 -0.4858046 -0.36284685 -0.2146045
0001d0 90 ba af 3e 22 9b 4c bf 74 19 3b bf 49 db 47 be
       0.34322023 -0.79924214 -0.73085713 -0.19517244
0001e0 80 b9 00 be 6d 3f 11 bf 6e 3c c0 bf 34 1d d6 be
       -0.12570763 -0.56737405 -1.5018442 -0.41819155
0001f0 10 ad 4d bf 0f 44 1d 3e 46 d3 64 3f f0 5d 8c 3e
       -0.803422 0.15357994 0.8938488 0.2741542
000200 f3 7c 5e 3d e0 78 97 bc 8b 8f 4e bd b2 0e 2d bf
       0.05431838 -0.018490255 -0.050429862 -0.6760055
000210 97 3c b8 3e f0 bb 0d 3f a8 99 a3 3f ef 0b 41 3f
       0.35983726 0.55364895 1.2781267 0.75408834
000220 6e 2e 15 3f e7 9b a7 3c b4 c6 31 bf 24 2e 7f bc
       0.5827397 0.020460082 -0.6944382 -0.015574966
000230 9c 90 85 be 97 c2 98 3e 1a 2f 89 be 38 c6 f8 3d
       -0.2608689 0.2983596 -0.26793748 0.12147182
000240 7a 4b 27 be 78 37 92 3c ea cb c7 be e9 ae 02 3e
       -0.16337386 0.017848715 -0.39022762 0.12762035
000250 95 3c 1e bd 0f 2f 70 be f5 e2 47 3e b4 01 eb bd
       -0.038631994 -0.23455451 0.19520171 -0.11474934
000260 e8 71 21 be 10 ff 53 3e 16 58 a8 be a6 bc 7d bf
       -0.15766108 0.20702767 -0.32879704 -0.9911598
000270 2c 11 9a bd 0d 5c 2d be a8 01 92 3e b7 d5 8e be
       -0.075228065 -0.16929646 0.2851689 -0.27897426
000280 77 91 c0 bd 72 ed cc bd 91 91 b9 3e b1 49 71 3d
       -0.09402745 -0.100062266 0.3624387 0.05890817
000290 58 ad f9 bd b0 c2 a1 bd ab e2 45 bd c3 fd 62 be
       -0.12191266 -0.07898462 -0.04831187 -0.22167115
0002a0 12 ac 6d 3e bb 47 b5 3d 99 ae 47 3e 46 59 ec 3d
       0.23210171 0.08851572 0.19500197 0.11540465
0002b0 e0 4e 5d 3e 7e 12 96 3e b9 28 36 3f a4 f4 0d 3f
       0.2161212 0.29310983 0.7115589 0.55451417
0002c0 d3 14 3e bf c5 03 73 bf 81 33 8a bf f6 b8 4f bf
       -0.74250525 -0.94927627 -1.0796968 -0.81141603
0002d0 22 8d 1b be 1b e6 ad be 98 44 aa bf 1e ea 00 bf
       -0.15190557 -0.3396462 -1.3302183 -0.50357234
0002e0 af e0 a3 be bf bc 13 3f 65 03 8c 3e 24 d1 c8 3e
       -0.32007357 0.5770988 0.2734634 0.39222062
0002f0 48 7a d7 bd ca 3b 65 3e e9 2a 09 3f c2 58 35 3e
       -0.1052137 0.22386089 0.535811 0.1770964
000300 4f 32 b7 3c 3d c1 97 3e 16 c2 12 be 2e ec b6 3e
       0.022362856 0.29639617 -0.1433185 0.35727066
000310 63 c9 da be 1e e1 22 3f 7b 36 82 3f f4 44 89 3e
       -0.4273177 0.6362475 1.0172876 0.2681042
000320 2f 09 bb 3e 8a 9d 63 bf 3c ce 83 bf d2 15 91 3d
       0.36530444 -0.8891226 -1.0297313 0.0708424
000330 a9 d3 5f bf ec 53 3e bf 52 f5 22 3f e4 44 c0 bd
       -0.8743234 -0.74346805 0.6365558 -0.0938814
000340 79 e0 54 3e 88 10 5f 3f c7 15 05 3f 09 26 d9 3e
       0.20788755 0.871346 0.51986355 0.4241183
000350 43 d0 86 3e ef 4d 1e 3e 8b 0d 49 3f b9 ed 33 3e
       0.26330766 0.15459417 0.7853629 0.17571153
000360 0d de 5e be c6 2e 56 bd 9d c9 16 3f 87 b0 86 bd
       -0.21764393 -0.0522907 0.5890139 -0.06576639
000370 53 fe 4a 3e 0a a0 79 3d c4 ce e0 be 3f e7 82 3e
       0.1982358 0.06094364 -0.4390775 0.25567052
000380 19 b9 19 3d 80 85 43 be f0 0f cc 3e ae 9c 89 3f
       0.03753004 -0.19093895 0.3985591 1.075094
000390 7d 3b 21 bf ff 96 ba be ee 85 31 3f e1 2d ca 3e
       -0.62981397 -0.36443326 0.69344985 0.39488128
0003a0 f4 14 13 bf 02 83 ab be 54 1a d8 bf 4c 67 08 bf
       -0.57453847 -0.3349839 -1.6883035 -0.5328262
0003b0 fe b0 95 3e e0 5e 69 be d9 94 d1 3e b4 ee f2 bd
       0.29236597 -0.22790098 0.40933874 -0.11861935
0003c0 5a a3 58 bd e0 fd 1e 3e 39 59 3d be 7a 22 86 3e
       -0.05289016 0.15526533 -0.18491067 0.2619818
0003d0 6c 08 33 3f 82 b6 6f 3e 38 5e 8c 3f 6e 19 06 3f
       0.69934726 0.23409465 1.0966253 0.5238255
0003e0 4b 66 fa be cc 6d 36 be f0 2a b3 bf f5 7f a5 bf
       -0.48906168 -0.17815322 -1.3997478 -1.2929674
0003f0 67 3e 9b 3e de 67 b3 3e 61 7a a4 3f a8 61 2a 3e
       0.30321047 0.35040182 1.2849847 0.16638815

fc1.bias f4 [64]
000000 5d 03 0a 3f 07 84 4c 3f d8 8c 49 3f c9 44 15 3e
       0.5391138 0.7988896 0.78730536 0.1457702
000010 77 65 87 be 46 da 64 3f 48 f7 a2 3f df 5a 4c be
       -0.264446 0.8939556 1.2731714 -0.1995654
000020 ce 1a 95 3f c1 44 db bd 48 18 98 3f b8 b5 6b 3f
       1.1648805 -0.10706473 1.188241 0.92074156
000030 3f d1 9a 3f ef 7f b8 3d de 0e 7c 3f 77 cd 1b 3f
       1.2095107 0.090087764 0.98460186 0.6086039
000040 f2 7e 80 3f 49 e5 af 3f eb 44 28 3d 2c 70 4e 3f
       1.0038741 1.3741847 0.04108135 0.8063991
000050 20 82 35 3f 72 7a f9 3e 40 1f 82 3f ae 96 59 3e
       0.7090168 0.4872623 1.0165787 0.21248886
000060 c1 c7 ae 3f 65 77 08 bf a4 75 bc bd 1a 29 84 3f
       1.365471 -0.5330718 -0.09202126 1.0325043
000070 96 9f 32 3f 79 85 34 3e f0 6a cd be 46 ed 95 be
       0.6977476 0.17629041 -0.4012065 -0.29282588
000080 1b 36 34 3f 8a 93 75 be e9 5c ab bd 3c de 7e 3f
       0.7039506 -0.23982063 -0.083673306 0.9955785
000090 37 b4 2a 3f 8d 08 53 3f 96 26 ec 3e 68 60 7c 3f
       0.66681236 0.8243492 0.4612319 0.98584604
0000a0 dc b4 8d 3f 1a 13 42 3f 72 55 63 3f 8b bc 8f be
       1.1070819 0.75810397 0.88802254 -0.28073534
0000b0 25 67 0b bf 76 6c d1 be ee 3c 00 3f 33 98 66 3f
       -0.5445426 -0.40903062 0.5009297 0.9007599
0000c0 89 78 67 3f a8 a2 28 3f 80 81 90 3c 8b af 5c bf
       0.904183 0.65873194 0.017639875 -0.8620536
0000d0 95 77 3c 3f 4b fb 94 3f 7e 29 6c 3f 92 a3 94 3f
       0.7361997 1.1639189 0.9225081 1.1612418
0000e0 95 73 3d bc f2 60 37 bf 9c f2 33 bf ab 01 81 3f
       -0.011563201 -0.716323 -0.7029207 1.0078634
0000f0 61 6a 84 3f e5 83 0f 3f 69 b5 70 3e d0 d7 be 3e
       1.0344964 0.5606063 0.23506702 0.37274027

actor.weight f4 [2, 64]
000000 45 30 b1 be 8a 9e 58 be f3 e3 d6 be f5 c5 ef 3d
       -0.3460714 -0.21154228 -0.41970786 0.11707679
000010 a4 2b de 3e 02 02 c3 3c cb 23 58 3d 60 62 24 bf
       0.4339267 0.023804668 0.05276851 -0.6421261
000020 aa 59 9a 3d 5d fa fb 3e fc 24 e0 bc a2 65 66 be
       0.07536633 0.4921445 -0.027361386 -0.22499707
000030 fd d6 19 3e f8 4a 91 3f f9 0d 91 3b d0 68 43 3d
       0.15023418 1.1351004 0.0044267145 0.04770738
000040 e9 c0 96 3d 24 7b 84 bc b1 95 bf 3e dc 10 9f 3e
       0.073610134 -0.016172 0.37418893 0.3106755
000050 0f fe fa bd 3a 63 17 3f 77 ba c3 3c c0 b9 15 bf
       -0.12255489 0.5913578 0.023892624 -0.58486557
000060 99 a4 80 bd df 3e 68 be 7f 2e 8a bf 31 a6 c9 3c
       -0.062813945 -0.22680233 -1.079544 0.024615379
000070 13 04 8e 3e 0e 5c 0f 3f 08 81 44 3f fc d8 01 bf
       0.27737483 0.5599984 0.76759386 -0.50721717
000080 e1 d0 81 3e d5 95 db be 66 ac b9 3d e2 5a 82 bd
       0.25354674 -0.4288775 0.090660855 -0.06364991
000090 5e 28 e5 bc e0 a5 95 bd 9b 50 c6 3e 70 0e d2 ba
       -0.02797335 -0.07307029 0.38733372 -0.0016026031
0000a0 fd ac 0c be d4 f2 af 3d 08 15 1c be f6 11 55 3d
       -0.13737865 0.08591238 -0.15242398 0.052019082
0000b0 12 c4 9f 3e 0c 61 34 3f 45 e3 5d bf 1a 11 35 be
       0.31204277 0.7046058 -0.8667491 -0.17682305
0000c0 44 81 88 be b3 eb 65 bf 76 42 3e 3f c7 73 32 be
       -0.26661122 -0.89812773 0.7432016 -0.17426978
0000d0 c8 63 3e be e8 c0 80 be 7e fc 4b be 61 9c 85 bc
       -0.18592751 -0.25147176 -0.19920537 -0.016309919
0000e0 ff bd b7 be d0 b8 43 be 68 75 59 3e ac 3a 01 3e
       -0.35887143 -0.19113469 0.21236193 0.12620038
0000f0 91 21 72 be 01 74 07 bf fd c2 21 3f 3b 7c 2e be
       -0.23645617 -0.5291138 0.63188154 -0.17039578
000100 fa 3e c7 3e 80 e1 97 3e e2 51 f2 3e 38 6b 8a bd
       0.38915235 0.2966423 0.47328097 -0.067587316
000110 54 58 78 be d8 ef 3b be 28 59 95 bd 35 71 16 3f
       -0.24252445 -0.18353212 -0.07292396 0.5876649
000120 3d 59 29 be 9f e3 03 bf ed 1f d9 bb b9 43 66 3e
       -0.16537948 -0.515192 -0.0066261203 0.22486772
000130 da 52 30 be dd 86 8a bf 4e 71 f2 3d 6a 7f 68 be
       -0.17219105 -1.0822407 0.118380174 -0.22704855
000140 98 aa b6 3d ee bb 6f 3c 1b 76 e1 be a8 12 9c be
       0.08919257 0.014632208 -0.4403542 -0.30482984
000150 99 75 75 bc 9d 90 1e bf 6b 57 54 bd 38 0e 05 3f
       -0.014981651 -0.6193941 -0.05184118 0.5197482
000160 b0 fb 88 3d 5e e4 3c 3e 40 7a 83 3f 58 a9 d6 bd
       0.066886306 0.1844649 1.0271683 -0.104815185
000170 ca 97 e2 bd d9 1f d7 be 7f dc 42 bf 60 24 ff 3e
       -0.11064108 -0.42016485 -0.761177 0.4983244
000180 c2 28 9b be 62 ad b4 3e a4 38 39 be af 06 16 3e
       -0.30304533 0.3528853 -0.18088013 0.14650987
000190 ba 1c 18 bd 6f 45 d4 3d 9f b5 ce be ff fd d7 3d
       -0.03713677 0.10364806 -0.4037294 0.10546493
0001a0 03 30 ff 3c 78 4b 83 bd 2a f9 0c 3e 92 97 ef 3d
       0.031150823 -0.06410879 0.13766924 0.116988316
0001b0 3d 3d 93 be 6b 2d 36 bf d2 67 4b 3f 34 fc 86 3e
       -0.2875766 -0.7116305 0.7945529 0.2636429
0001c0 94 5c a1 3e ab 07 4f 3f e4 f9 3d bf cb 6a 19 3e
       0.31515944 0.80871075 -0.7420943 0.14982145
0001d0 28 d3 c9 3e 34 1e 8f 3e 64 20 10 3d fe 9a ca 3d
       0.39418912 0.2795273 0.03518714 0.09892844
0001e0 7a 02 c3 3e 03 f1 89 3e 20 94 b3 be 3d 5d 3a bd
       0.38087827 0.2694169 -0.35073948 -0.045499075
0001f0 2c ea 9e 3d 30 de b3 3e 4a 01 42 bf c0 44 57 3e
       0.077595085 0.35130453 -0.75783217 0.2102232

actor.bias f4 [2]
000000 a7 3e a5 3c 0f 9c 23 3e
       0.020171477 0.159775

critic.weight f4 [1, 64]
000000 36 06 79 bf ae 18 2b 3f 68 52 2d 3e 5f 56 56 3e
       -0.972751 0.66834533 0.16925967 0.20931385
000010 7e 35 58 3e 6a 54 0f 3f c4 3d 23 3f ec 48 49 bf
       0.21114156 0.5598818 0.6376612 -0.78626895
000020 7b 4b dd 3e 1a d1 c4 be d6 5d 01 3f 10 43 95 3f
       0.4322165 -0.38440782 0.5053381 1.1661091
000030 3b b4 09 3f f8 85 e8 be 27 b0 22 3f d0 58 95 3e
       0.53790635 -0.4541471 0.6355004 0.2916932
000040 d3 09 20 3f 86 dc 7e 3f fa dd 0f bf 7a 21 a0 3e
       0.6251499 0.9955524 -0.56198084 0.3127554
000050 80 4f bd 3e 52 c8 90 3d c3 28 c8 3e 2e fe 44 3d
       0.36974716 0.07069458 0.390936 0.048093967
000060 2f a5 52 3f 32 d4 ab be 67 1d 39 3e de 93 f0 3e
       0.822833 -0.3356033 0.18077622 0.46987814
000070 16 1e 1e 3f 84 48 7d 3e da ad 72 bf db e9 63 bf
       0.6176466 0.24734694 -0.94796526 -0.8902871
000080 58 91 88 3e b9 1c 48 bf e7 2e f4 3e 02 5f 28 3f
       0.26673388 -0.7816883 0.47692034 0.6576997
000090 29 11 07 3f 56 6d 62 3f d9 6d 54 3e f8 8f 0b 3f
       0.5276056 0.88448083 0.20745029 0.54516554
0000a0 19 05 5e 3f bd d1 f4 3e 07 0a 92 3f f2 f9 14 bf
       0.8672653 0.47816268 1.140931 -0.58193886
0000b0 4d 44 43 bf 15 38 4f bf 4d bc 2d 3f 02 a3 72 3f
       -0.76276094 -0.8094495 0.6786545 0.9477998
0000c0 cd 68 62 3f 0e e2 18 3f 33 91 40 3e 95 e1 4a bf
       0.88441163 0.5971993 0.18805389 -0.7925046
0000d0 58 0a 55 bf 5e 5a 04 3f 25 8d 16 3f 02 8c 76 3f
       -0.8321891 0.5170039 0.5880912 0.96307385
0000e0 76 59 80 3d 97 c0 31 bf af 79 80 bf 10 e5 52 3f
       0.06267063 -0.69434494 -1.0037135 0.8238077
0000f0 c7 d5 79 3f 8d 05 43 bf 6a f4 35 be 15 1a 44 bf
       0.97591823 -0.76180345 -0.17769018 -0.766023
