reinforcement_learning/reinforce/model.pth (torch, 3648 bytes, 4 tensors)

fc1.weight f4 [64, 4]
-0.35117695 0.32210842 -0.14401297 -0.60937285 0.26283106 0.038613476 0.7734972 0.37596413
-0.006612243 0.38070735 1.0084271 0.43062013 -0.06495625 -0.08468484 0.051277507 0.37673235
0.39353812 -0.07651121 -0.17960139 -0.008496824 -0.21223356 0.13829094 -0.92762685 -0.8078337
0.128781 0.5186293 0.48010546 -0.19101983 -0.2751536 -0.26232216 -0.24542652 -0.13565074
-0.1685241 0.061473403 0.014956787 -0.27556735 -0.02056194 -0.13899867 -0.6430297 -0.5440611
-0.23716797 -0.2732339 -0.42434806 -0.86724406 0.11189543 0.2828644 -0.45151022 -0.32913005
0.41685092 -0.20700972 0.37989444 -0.02104941 0.40807408 -0.11823562 -0.12824605 -0.24662516
0.22658108 -0.14454393 0.35243097 -0.17565772 0.4749205 0.42933458 -0.10860148 -0.38011545
0.15137777 -0.5581087 -0.7461874 -0.49287304 0.4835091 0.44490117 -0.2580852 0.034632128
0.28368938 -0.23894234 0.21700086 -0.30676022 -0.418514 0.20004456 0.88301903 0.6620219
-0.358874 0.042978536 -0.50915074 -0.15522885 -0.15563212 0.17372118 0.3980069 0.2179649
-0.16650216 0.40393686 0.48309794 0.3859055 -0.3310172 0.0929865 -0.018225245 0.116678506
0.029797435 0.05987692 -0.2050888 -0.015285611 0.11181013 -0.27612725 -0.16894665 -0.10411136
0.01854466 -0.030263502 -0.76092345 -0.6572748 0.45623294 -0.4286674 -0.48374546 -0.2590412
0.0430451 0.04857916 0.6772255 0.5032543 0.34996483 -0.061768267 1.1374743 0.43225476
0.21292366 -0.1270871 -0.5131413 -0.07687408 -0.007654513 -0.14463943 -1.1482224 -0.34868777
-0.4330199 0.48186624 -0.034129456 -0.009653157 -0.10304993 -0.22563949 -0.18793844 -0.45277503
-0.3572777 0.47507316 0.75694454 0.55883193 0.027246762 -0.32479355 0.33563206 0.34372315
0.35031155 -0.022528194 -0.86784494 -0.38767675 -0.14199214 -0.0279211 -0.99835885 -0.50342566
-0.16270556 -0.18887448 0.34752074 0.42981416 0.064662874 0.3943781 -0.10615039 0.20598021
-0.2400065 0.1195192 0.41843638 -0.12536278 -0.18338194 -0.12786853 -1.0248933 -0.54719794
0.30542096 -0.36421993 0.3232416 0.37222776 -0.008935238 0.20746046 0.8817502 0.5440994
0.232238 -0.4044583 -0.7847685 -0.4000761 -0.08814281 -0.34990016 0.43168882 0.4272083
0.208042 0.37032 -0.25987092 -0.3585652 0.45778474 0.5746281 0.735605 0.11084134
0.35618114 0.28488296 -0.4594497 0.14395046 0.14246297 0.12912442 0.017327191 0.21756044
0.3051026 0.32004845 -0.8202865 -0.49761528 0.16009428 -0.45643628 -0.3014754 -0.17082083
0.43892345 0.19488682 -0.25937417 -0.47401285 0.23596914 -0.24453172 0.17429192 0.16384038
-0.4546764 0.27671516 -0.2516875 -0.54965544 0.043479733 -0.040168773 1.0033295 0.43749347
0.28558055 -0.22432521 -0.22678494 -0.7666318 -0.18369974 -0.5029563 -0.30974275 -0.5183838
-0.46982822 -0.066111185 -0.29334322 0.29202375 0.4243058 -0.26158676 0.07579496 0.5567719
0.58074653 0.17260024 0.12977853 0.42760727 0.038362235 0.030836372 1.0017161 0.68638045
0.42080915 -0.36476317 0.14397113 0.60030043 0.11033673 0.16401966 0.21260928 -0.17029354
00000000: 77cd b3be 65eb a43e 2378 13be dcff 1bbf
00000010: cb91 863e 2a29 1e3d ea03 463f 5f7e c03e
00000020: 84ab d8bb 13ec c23e 2414 813f 3e7a dc3e
00000030: c807 85bd 3f6f adbd 5d08 523d 10e3 c03e
00000040: d47d c93e e9b1 9cbd 6de9 37be 4336 0bbc
00000050: c153 59be 249c 0d3e f478 6dbf 30ce 4ebf
00000060: 2bdf 033e e4c4 043f 62d0 f53e b49a 43be
00000070: efe0 8cbe 174f 86be 1751 7bbe 07e8 0abe
00000080: 9591 2cbe 89cb 7b3d 500d 753c 2a17 8dbe
00000090: 8371 a8bc ab55 0ebe 989d 24bf 9747 0bbf
000000a0: 29dc 72be 50e5 8bbe 2644 d9be b503 5ebf
000000b0: 6e29 e53d 9ad3 903e 592c e7be bc83 a8be
000000c0: 7c6d d53e 5bfa 53be 8681 c23e d06f acbc
000000d0: 16ef d03e 8425 f2bd ef52 03be 4e8b 7cbe
000000e0: df04 683e 5303 14be d571 b43e 9edf 33be
000000f0: c828 f33e bed1 db3e 746a debd 7e9e c2be
00000100: c602 1b3e 36e0 0ebf 2306 3fbf db59 fcbe
00000110: 818e f73e 16ca e33e be23 84be 6bda 0d3d
00000120: bc3f 913e 4dad 74be 7935 5e3e ad0f 9dbe
00000130: 7847 d6be 7bd8 4c3e 890d 623f 447a 293f
00000140: 55be b7be 430a 303d b457 02bf 50f4 1ebe
00000150: 075e 1fbe f7e3 313e 8fc7 cb3e 3132 5f3e
00000160: 8b7f 2abe d0d0 ce3e 9d58 f73e 6895 c53e
00000170: 167b a9be b56f be3d 1c4d 95bc 24f5 ee3d
00000180: c019 f43c 8041 753d cc02 52be 8070 7abc
00000190: b6fc e43d 8d60 8dbe 5a00 2dbe 5638 d5bd
000001a0: f9ea 973c 2aeb f7bc e1cb 42bf 2943 28bf
000001b0: 5d97 e93e 4b7a dbbe 7cad f7be 0ca1 84be
000001c0: 0f50 303d f1fa 463d a65e 2d3f 46d5 003f
000001d0: 972e b33e b900 7dbd c298 913f 7f50 dd3e
000001e0: a908 5a3e 1f23 02be 3a5d 03bf 2870 9dbd
000001f0: b6d2 fabb 5c1c 14be f4f8 92bf 3487 b2be
00000200: c9b4 ddbe 2cb7 f63e 54cb 0bbd 4628 1ebc
00000210: d70b d3bd 0a0e 67be ef72 40be 21d2 e7be
00000220: 1aed b6be ca3c f33e 1ec7 413f 9c0f 0f3f
00000230: 9a34 df3c 574b a6be f7d7 ab3e 7bfc af3e
00000240: 095c b33e 0c8d b8bc 162b 5ebf 917d c6be
00000250: 6366 11be caba e4bc 7294 7fbf 81e0 00bf
00000260: 499c 26be 5068 41be 3dee b13e 9a10 dc3e
00000270: f86d 843d edeb c93e 6065 d9bd 7aec 523e
00000280: 44c4 75be 7bc6 f43d 4b3d d63e 1a5f 00be
00000290: 7ac8 3bbe f8ef 02be b42f 83bf 2a15 0cbf
000002a0: 2360 9c3e 097b babe ec7f a53e a394 be3e
000002b0: 1b65 12bc 8470 543e 62ba 613f 194a 0b3f
000002c0: cccf 6d3e 2915 cfbe 97e6 48bf c6d6 ccbe
000002d0: 3884 b4bd 1d26 b3be 5106 dd3e 0cbb da3e
000002e0: f608 553e 959a bd3e cd0d 85be dc95 b7be
000002f0: c362 ea3e d41a 133f 9c50 3c3f c900 e33d
00000300: 605d b63e 2edc 913e fe3c ebbe c067 133e
00000310: d0e1 113e 3139 043e c1f1 8d3c 2ac8 5e3e
00000320: 6836 9c3e 64dd a33e 4cfe 51bf 6ec7 febe
00000330: c1ef 233e 04b2 e9be fc5a 9abe a8eb 2ebe
00000340: 93ba e03e 6990 473e b1cc 84be d0b1 f2be
00000350: e5a1 713e 8666 7abe 9579 323e c6c5 273e
00000360: 58cb e8be 9cad 8d3e 2fdd 80be 38b6 0cbf
00000370: ce17 323d 0388 24bd 1a6d 803f 25ff df3e
00000380: 9d37 923e 82b5 65be 503a 68be fb41 44bf
00000390: c91b 3cbe bec1 00bf 9a96 9ebe cdb4 04bf
000003a0: 538d f0be 4d65 87bd 1531 96be 2384 953e
000003b0: 9c3e d93e b3ee 85be 633a 9b3d 9a88 0e3f
000003c0: ceab 143f 1ebe 303e aae4 043e 57ef da3e
000003d0: b821 1d3d 8f9c fc3c 3c38 803f a1b6 2f3f
000003e0: 4c74 d73e 3dc2 babe 2b6d 133e 4aad 193f
000003f0: 39f8 e13d c5f4 273e 3fb6 593e 6e61 2ebe

fc1.bias f4 [64]
0.18308689 0.2785357 0.524489 0.025140798 -0.42956603 0.18295193 0.119538166 -0.24750482
-0.12851898 0.23471583 0.42507273 0.23944418 -0.18750237 -0.30043834 -0.47120106 -0.20176525
0.004685428 0.29789385 -0.4761003 0.15112379 0.3035518 -0.2550392 -0.14910392 -0.3916692
-0.3479122 -0.4877235 0.36011434 0.35306737 0.21709093 0.2719066 -0.22025678 0.21730354
0.080526665 -0.38496786 0.32751355 -0.25081238 0.14622818 0.25958902 0.18335614 0.07376921
-0.34222302 0.32845372 0.17265017 0.21639027 0.24353011 -0.2187559 -0.175196 -0.10637629
0.3362439 0.18063928 0.29259354 -0.07104734 0.46850637 -0.122822694 0.032428954 0.35080528
0.3826404 0.18084462 -0.49978518 -0.022303194 0.1247314 0.35791647 -0.11647509 -0.3412896
00000000: 217b 3b3e 3b9c 8e3e e944 063f 13f4 cd3c
00000010: 14f0 dbbe c057 3b3e 6dd0 f43d e771 7dbe
00000020: 7b9a 03be 5959 703e 22a3 d93e db30 753e
00000030: 9f00 40be 0ed3 99be 4441 f1be 8d9b 4ebe
00000040: 3888 993b 8b85 983e 6bc3 f3be 32c0 1a3e
00000050: 246b 9b3e 7f94 82be b3ae 18be de88 c8be
00000060: 8c21 b2be e5b6 f9be e860 b83e 3fc5 b43e
00000070: 164d 5e3e 5837 8b3e fe8a 61be d284 5e3e
00000080: 2aeb a43d 821a c5be dbaf a73e 7b6a 80be
00000090: d7bc 153e dae8 843e b6c1 3b3e 5014 973d
000000a0: db37 afbe 162b a83e 35cb 303e 6995 5d3e
000000b0: f55f 793e 8c01 60be 9566 33be d0db d9bd
000000c0: 2928 ac3e 81f9 383e d2ce 953e 4581 91bd
000000d0: 11e0 ef3e 778a fbbd 39d4 043d c09c b33e
000000e0: 71e9 c33e 552f 393e d8e3 ffbe 30b5 b6bc
000000f0: 2d73 ff3d d440 b73e 7e8a eebd 83bd aebe

fc2.weight f4 [2, 64]
0.08188822 -0.25489143 -0.22860475 -0.13238096 0.08032059 0.08638608 -0.11238453 0.09153995
0.050294563 0.28784305 0.2005702 0.12977254 -0.051641356 -0.030570481 0.022881031 0.0080533875
0.21202008 0.027996203 -0.05911992 -0.27020064 0.11425015 -0.0053444915 -0.09061726 -0.0046765422
0.042464092 0.0622655 0.10511152 0.014121276 -0.33868816 -0.24761538 0.08435781 0.4576446
0.07998715 0.012688113 -0.34029534 -0.016033866 0.2733787 0.24549538 -0.12318171 -0.0852508
-0.007425695 0.32646778 -0.09948663 -0.22017896 0.2754627 -0.033372182 0.083579846 -0.038755417
0.028882245 -0.029202202 0.12627883 0.09349991 0.134154 0.02722903 0.0841695 -0.19064277
0.06024298 0.16134407 -0.041609827 -0.13007872 -0.052308597 -0.15732615 -0.16680315 0.07689071
-0.06717316 0.35112557 0.22984314 0.09494724 -0.01457306 -0.3224067 0.06593458 -0.12600447
-0.0017472071 -0.37661305 -0.18806271 -0.15072542 0.060656607 -0.027779588 0.013741526 -0.08425296
-0.17712317 0.031201722 -0.06843585 0.14152399 -0.0393908 0.08739608 0.06740706 0.060316686
0.11307272 -0.06562532 -0.2737551 -0.123367295 0.31603277 0.278324 -0.07113041 -0.5433263
-0.039311863 -0.04644021 0.29757252 -0.032018177 -0.2119854 -0.26740444 0.13915733 0.10410244
0.0031958595 -0.22855565 0.03109306 0.17355396 -0.22657275 0.013993814 0.028884428 0.22980022
0.06838859 0.07739482 -0.032682925 -0.10513837 0.00295865 0.046017878 -0.24675986 0.09510646
-0.2697502 -0.28212094 0.08929574 0.12905374 0.086187094 0.27873644 0.16990295 -0.048043985
00000000: 03b5 a73d 2181 82be 5d17 6abe e08e 07be
00000010: 1f7f a43d 2feb b03d dc29 e6bd 4c79 bb3d
00000020: ac01 4e3d 2a60 933e 4662 4d3e 18e3 043e
00000030: e385 53bd f26e fabc 0071 bb3c 5bf2 033c
00000040: cb1b 593e 4b58 e53c bb27 72bd bd57 8abe
00000050: fcfb e93d d820 afbb 8b95 b9bd ae3d 99bb
00000060: d4ee 2d3d 1c0a 7f3d b544 d73d ed5c 673c
00000070: 8968 adbe e38e 7dbe cac3 ac3d 6550 ea3e
00000080: 4ed0 a33d cee1 4f3c 313b aebe 7459 83bc
00000090: 4bf8 8b3e 2463 7b3e b146 fcbd f997 aebd
000000a0: 3f53 f3bb c926 a73e a5bf cbbd 9876 61be
000000b0: 7209 8d3e 45b1 08bd e92b ab3d 00be 1ebd
000000c0: 759a ec3c 7539 efbc 3d4f 013e e17c bf3d
000000d0: ab5f 093e 6a0f df3c 0f61 ac3d dc37 43be
000000e0: 58c1 763d 6137 253e 116f 2abd 5b33 05be
000000f0: 8a41 56bd 1b1a 21be 72ce 2abe e078 9d3d
00000100: 1592 89bd bbc6 b33e 005c 6b3e b373 c23d
00000110: d8c3 6ebc 7e12 a5be b608 873d 5107 01be
00000120: 8b02 e5ba 6dd3 c0be 8393 40be c457 1abe
00000130: 1073 783d 0592 e3bc 2324 613c d18c acbd
00000140: c75f 35be c19a ff3c 1828 8cbd aaeb 103e
00000150: 3f58 21bd b7fc b23d b60c 8a3d a10e 773d
00000160: ac92 e73d 9166 86bd a129 8cbe fea7 fcbd
00000170: 0ccf a13e 7c80 8e3e d2ac 91bd 6f17 0bbf
00000180: 7a05 21bd 1738 3ebd 6d5b 983e 7e25 03bd
00000190: b312 59be 3ce9 88be 427f 0e3e a933 d53d
000001a0: a071 513b 7e0a 6abe dfb6 fe3c 21b8 313e
000001b0: b002 68be 4f46 653c 099f ec3c c050 6b3e
000001c0: 510f 8c3d 2d81 9e3d 88de 05bd c952 d7bd
000001d0: e9e5 413b 3e7d 3c3d 9eae 7cbe 2dc7 c23d
000001e0: b31c 8abe 2872 90be afe0 b63d aa26 043e
000001f0: dc82 b03d 8bb6 8e3e 0afb 2d3e c5c9 44bd

fc2.bias f4 [2]
-0.11383292 0.109248675
00000000: 3c21 e9bd c5bd df3d
