reinforcement_learning/reinforce/reinforce_250.pth (torch, 3968 bytes, 4 tensors)

fc1.weight f4 [64, 4]
00000000: ded2 1ebe e94a 9b3e fb08 d23e b20c 813e
00000010: 5d71 1abe 2079 ff3c d863 013e 95d2 cb3e
00000020: d97b 3bbe bc19 b53e 833f c63e d2ec 7bbd
00000030: 7c46 7e3d fc5a b4be b962 b7bd dd40 703e
00000040: 9375 b3bd 9fd0 88be d8a0 a8bd 7da2 b0be
00000050: aa88 213d 1dae 083e 3cd1 96be 965f 47be
00000060: d2cf 913e 21d3 4fbe 5c4f a7be d59d 963e
00000070: febd c03d de98 9abe b1c1 703e cd7b d73c
00000080: 17ef 18be 1dfa f13e 7155 0b3e faa2 04bf
00000090: 59bf e3be e20e a83e e51b 1fbd e46e f9be
000000a0: 04bc a2bd de74 c43e 072d 8d3e 7326 a23e
000000b0: cb1b a7be 1473 353e 20ea f2bb 9ed3 b53e
000000c0: 588a fabe 1705 e23e d70c 363e 3ae5 ea3e
000000d0: 16cc ed3e f584 753c c0ac e33d 4e84 8f3e
000000e0: d6e1 b53e 93f1 a43e fa99 e5be 59e6 23be
000000f0: b469 4bbe a843 2fbe a017 f2bd ccba 94bd
00000100: 1129 01bb 48e9 303e 9029 6d3e 1697 b8be
00000110: 2995 8ebd 188c d33d 109d 0abd b799 52be
00000120: 9f39 4d3e 11b0 a63d 3484 833c 5b9a 0fbf
00000130: 693a b73e 5c7a 8f3e 0b62 b7bb 2b41 ca3e
00000140: 526a 93be 8eda 023e 9cce 77be 527f 1b3e
00000150: bb19 41be 52af 27be abc1 bb3d 901e f7be
00000160: 4205 e53e cd7a 17bc d7ac d13e e09a b03d
00000170: a273 e7be 7b58 b2be 64e5 c9bc 51de 833e
00000180: 64bc d2be 7918 cabe d2f0 6ebe 303c 01bf
00000190: f5fa 0fbf 8786 93be 3545 b8be 0180 b23e
000001a0: d0b1 d03e da60 0a3f 6cde b33e 5a73 f5bd
000001b0: e992 bbbe 7648 de3e ca9d 4dbe 70dc 56bc
000001c0: 2d62 a0be 23ca ecbe 3c93 bd3d 116f bc3e
000001d0: 7eec 05be 2f79 5c3e 1646 4cbe a522 d03e
000001e0: 4e02 f6be bce4 653e 01f2 62be c391 e5be
000001f0: da30 bcbe 6f87 093e 13c2 60be a90d 06bf
00000200: 2772 82be 96c3 9ebe 232f 72be 2af6 7dbe
00000210: 2da9 debd af15 d93e 4963 babd 532e 43bd
00000220: c073 85bd 8f83 91be ac1e 053f bc7e ea3e
00000230: 4c25 a0be ba4c b13d b20b 9bbe a0f8 1abd
00000240: 1a81 b6be 8648 0dbd 4c48 93be b999 85be
00000250: 345f 85be 5722 afbe d0e4 25be b651 b1be
00000260: 6d1c e1be e250 063e f327 ecbd 72be 473e
00000270: f12d 883d 612c c33e f980 9d3b 5ac1 ec3e
00000280: c555 8a3e 1c66 7c3e 6bc3 80be ee6c b2bd
00000290: 4b06 33be ba70 b43d 55c7 b03e fbd2 d7bd
000002a0: f1ef e9be 9769 b7be a43e fa3e 1b84 c93d
000002b0: f312 a0be 9e2b fd3e cc25 483e eaf5 6fbe
000002c0: 6cb4 9ebe 0d5d 563e 1f10 413d 0f4f ec3e
000002d0: 3d4b 253e 9e7d d5be ef65 2fbc 14d3 233e
000002e0: 19f4 ff3e 83e6 b5be 6ec5 e4be ddca f43d
000002f0: e396 fdbd 87f8 ce3e aab2 923e 7b72 c1be
00000300: e842 a03e ee50 f9bd bb0a 023f 2229 0b3f
00000310: 99d8 e73e 6527 85be 8acb b13e c3a0 bfbc
00000320: 367a 0dbe 4059 0a3f d96c 1cbf 2daa 69be
00000330: 405e 8a3e f571 3fbe e90f 613d 4e95 a73e
00000340: 38c3 183e 76d8 8b3d 38de bb3e ae09 413d
00000350: 7e3d d03e c270 af3e e1ea fd3e 1950 2d3d
00000360: 98e2 7fbe b0ee b13d 00b8 5c3b d41a 1f3e
00000370: 5cb7 64be 2d7d 113d e6a3 6fbe 0b02 6e3d
00000380: 5b2c 8e3e db82 883e 3537 cc3e 9710 103f
00000390: 09ec efbc 1bb8 fabe 9e95 4ebe f0bc 0e3f
000003a0: a09d 80be 880a 8abe e70d 09be 9cf1 4dbd
000003b0: cf7e ecbe e5a8 bd3d 17d1 2cbd 14f7 053f
000003c0: 5acc 8ebe d9c2 24bd 6d4d 0a3e cb73 bb3d
000003d0: ae2b a23e 49ed b53c 34d7 ed3e 3c20 1fbe
000003e0: 7f63 c6bc 2017 b9be f416 c73e 630d 053e
000003f0: 2a9d f13e ec6b dcbe 4366 bbbe b379 31be
-0.15510127 0.3033059 0.41022477 0.25204998 -0.15082307 0.031185687 0.12635744 0.398091
-0.18308963 0.35371196 0.3872033 -0.061505146 0.062078938 -0.35225666 -0.08954377 0.23462243
-0.0876266 -0.26721665 -0.082338035 -0.3449897 0.039436974 0.13347669 -0.29456508 -0.19470057
0.28478867 -0.20295383 -0.32677734 0.2941729 0.09411238 -0.30194753 0.23511387 0.02630415
-0.14934956 0.47261134 0.13606812 -0.5181118 -0.44481924 0.32823855 -0.03884496 -0.48717415
-0.079460174 0.38370413 0.27573416 0.3166996 -0.32638392 0.1771968 -0.007413164 0.35513014
-0.48933673 0.44144508 0.17778336 0.4587801 0.46444768 0.014985313 0.11116934 0.28030628
0.35523862 0.32215557 -0.44844037 -0.1600584 -0.19864541 -0.17115653 -0.11820912 -0.07262191
-0.0019708315 0.1727649 0.23160386 -0.3605277 -0.06962044 0.10329455 -0.033841193 -0.2056645
0.20041512 0.08139051 0.01605425 -0.560949 0.3578675 0.2802304 -0.0055964044 0.39502844
-0.28792053 0.12778684 -0.24199909 0.15185288 -0.18857472 -0.16375473 0.091677986 -0.48265505
0.44730574 -0.009245587 0.4095218 0.0862329 -0.45205408 -0.3483313 -0.024645515 0.2575555
-0.41159356 -0.39471796 -0.23334053 -0.50482464 -0.56242305 -0.28813574 -0.359903 0.34863284
0.4076066 0.54054034 0.35130632 -0.11984892 -0.3663552 0.43414658 -0.20079723 -0.01311408
-0.31324902 -0.46247968 0.09256598 0.36803487 -0.13078496 0.21530603 -0.1994861 0.40651432
-0.48048633 0.22450536 -0.2216263 -0.4483777 -0.3675602 0.1343057 -0.21949033 -0.52364594
-0.25477716 -0.31008595 -0.23650794 -0.24800935 -0.108721115 0.42399356 -0.091009684 -0.0476516
-0.06516218 -0.28420684 0.51999927 0.45799816 -0.31278455 0.086572126 -0.3028236 -0.037834764
-0.35645372 -0.034492992 -0.28766096 -0.26093844 -0.26049197 -0.34205887 -0.16200566 -0.34632653
-0.43967 0.13116792 -0.11531057 0.19506243 0.06649388 0.38119796 0.0048066345 0.46241266
0.27018562 0.24648327 -0.25149092 -0.08712183 -0.1748287 0.088105634 0.34527078 -0.10538288
-0.45690873 -0.35822746 0.48875916 0.0983965 -0.31264457 0.4944734 0.19545668 -0.23433653
-0.30997026 0.20933934 0.047134515 0.46154067 0.16141982 -0.416974 -0.010705455 0.15998489
0.4999092 -0.3552743 -0.44681877 0.119527556 -0.12382295 0.40423986 0.28651935 -0.37782654
0.31301045 -0.12173639 0.50797623 0.5435964 0.45282438 -0.26006618 0.347256 -0.023392087
-0.13816151 0.54042435 -0.6110359 -0.22818823 0.27025032 -0.18695815 0.054946814 0.32731098
0.1491822 0.06828396 0.36692977 0.047128372 0.40671915 0.34265715 0.4959326 0.042312715
-0.24988782 0.08688104 0.0033679008 0.15537578 -0.22335571 0.035519768 -0.23402366 0.058107417
0.27768216 0.26662335 0.3988587 0.56275314 -0.029287355 -0.48968586 -0.20174262 0.55757046
-0.25120258 -0.2696116 -0.1338421 -0.050279245 -0.46190497 0.0926073 -0.04219159 0.52330136
-0.27890283 -0.040224884 0.13506098 0.09152945 0.3167395 0.022207873 0.4645325 -0.1553964
-0.024217365 -0.36150455 0.388847 0.12993388 0.4719022 -0.43051088 -0.36601457 -0.17331581

fc1.bias f4 [64]
00000000: 6fd4 46be 316d b7be 302d 62be caa8 ebbe
00000010: a7f2 fbbe 5ab1 a9be ad75 b93e 8c70 adbd
00000020: 4de5 d53e 56b6 2a3e 0e81 32be d05f a83e
00000030: ae92 3c3e 5a36 02bf 2678 01bd 291e aa3e
00000040: 6b62 69be f65a 79be 0633 363e a393 7f3e
00000050: 447d 763e 20d2 66bd fa61 9cbe 3744 9e3d
00000060: 5a7e 433e dd33 d43e c31a 833e 2e6c cd3e
00000070: e8b5 56bd 317b 0f3e 98c4 223e 2f1e 4c3e
00000080: 51a1 353d e35c 163e 8024 953e ab16 a43d
00000090: 643a 0f3e 3ecd 2bbe 3231 aa3e 9594 efbe
000000a0: c1f5 f3be 4bca d83e 16df 2fbe 30dd 4f3e
000000b0: 4d9d b8be fc62 aabe 579f fc3c 257c 993e
000000c0: d012 e23e 216f 9fbe 9d04 cd3e 6dbd a13e
000000d0: ddf1 d9bd 4d3c 90be d052 b0be 782a cf3e
000000e0: ba55 5a3e d11f c73e 4c90 0ebe ae0e 4fbe
000000f0: c778 c13e 8c9f 2f3d 0167 18be e1c5 493e
-0.19416974 -0.35825494 -0.2208755 -0.46027213 -0.49208567 -0.3314312 0.36222592 -0.08468732
0.41776505 0.16671118 -0.17432043 0.328856 0.18415329 -0.50864184 -0.031608723 0.33226135
-0.2279145 -0.24351105 0.17792901 0.24958663 0.24071223 -0.056352735 -0.305435 0.07727855
0.19091168 0.4144582 0.25606355 0.40121597 -0.052419573 0.14011838 0.15895307 0.19933389
0.044343296 0.14683871 0.2912941 0.08012136 0.13987118 -0.16777512 0.33240658 -0.46793047
-0.47648433 0.42341837 -0.17174944 0.2029922 -0.3605751 -0.33278644 0.030837698 0.29977527
0.44154978 -0.31139472 0.40042582 0.31589833 -0.10641835 -0.28171006 -0.3443818 0.4046209
0.21321765 0.38891461 -0.13922232 -0.20220444 0.37787458 0.042876765 -0.14883043 0.19704391

fc2.weight f4 [2, 64]
00000000: 67c0 d53d 81b3 ed3d 49a3 fa3d eb49 e2bd
00000010: 69b7 7cbc bbae bfbd 9160 6bbb d575 f13c
00000020: f1de 0b3e 604a 6b3d 337e c93d ac01 c73c
00000030: 15c1 27be 9f0a d13b b5fb 14bd c3a4 d43d
00000040: 66d0 f33c 4a48 9dbd 8263 3fbd d7ce 99bd
00000050: 4e9d 78bd bae5 5aba 7bdf efbc 8c3a 353d
00000060: 8baf 5d3d 56ec d3bc 408a 993b a82d 833d
00000070: 00c2 94bc cd6b e6bd b460 4dbd 1cca de3d
00000080: 82d7 1d3e b9cc 993d 0775 2abe 3ecb 053e
00000090: b683 f3bc a31e f5bc ce1d e8bd 94f0 90bd
000000a0: 769d e6bc ec16 5cbd c60b 8abd e3b6 5bbc
000000b0: 176c b23b 39d1 953d d55b 78bc 56dc 0abd
000000c0: db89 85bd a1ad 173d 8d7b 1c3d 2201 a3bd
000000d0: 0022 83bd f42e 1abe 9a88 d2bd c1a1 ffbc
000000e0: bc3c ebbc 5ada 5ebd 87a3 ca3d 7ccb ad3c
000000f0: 4284 b53d 1b26 84bc 1a69 42bd 6d49 403d
00000100: 1f8b 36bd 714b 2a3c 01a5 d4bd 21ba c23d
00000110: e4f9 da3d e1ab 713b a9ff 8e3d 80e7 9dbd
00000120: 2b24 fcbd a2a8 a1bc ae37 ccbd 4437 6d3d
00000130: be37 f63d 9662 02be 0d93 9cbd 5d7c 67bd
00000140: eb31 ed3c 618d 27bc a787 39be 88fa 883d
00000150: d46c 96bd 7a53 10be 0e69 abbd b75a c9bc
00000160: eec1 89bd f5bf 983c 23a8 06be 5ce5 05be
00000170: 9092 693b f18c d83d 7d7e b1bd c3ae 2cbe
00000180: 6e26 aebd 240c dabd 6832 f4bc 75c1 2bbe
00000190: a857 dbbd acde 943d 329f d03d 48a1 6f3d
000001a0: ea39 3b3c dce6 6ebd 0862 983d c0c5 15be
000001b0: 6759 0fbd 4716 84bd 5c5c b3bd 1665 eabd
000001c0: de5f b03d 2a2e fbbd 5fc6 d5bd d076 523c
000001d0: 4912 083e a59c 313e f07f 553c 4384 2c3c
000001e0: 57f1 073e 3868 b63d 23ae 65bd 6fb4 f73d
000001f0: a84e 43bc a15c a3bc 7b4a 87bd 3322 a4bd
0.104370885 0.11606503 0.122381754 -0.11049255 -0.015424588 -0.09359499 -0.0035915712 0.029475132
0.13659264 0.057443976 0.09838524 0.02429279 -0.16382249 0.00637944 -0.03637286 0.10382988
0.029762458 -0.07679804 -0.046725757 -0.07510155 -0.060696892 -0.0008350272 -0.029281368 0.044245288
0.05412249 -0.02586953 0.00468567 0.064051926 -0.018158913 -0.1125103 -0.05014105 0.10878393
0.15414241 0.07509751 -0.16646205 0.13065812 -0.02972589 -0.029921835 -0.1133381 -0.07077137
-0.028151255 -0.053732798 -0.06740527 -0.013410303 0.005445014 0.07315297 -0.015158613 -0.033901535
-0.065204345 0.03703082 0.038203765 -0.079592004 -0.06402969 -0.15056974 -0.10279961 -0.03120506
-0.028715484 -0.054407455 0.098944716 0.021215193 0.08863117 -0.016131451 -0.047463514 0.046945024
-0.04456627 0.010393963 -0.103830345 0.095081575 0.10692194 0.003687613 0.06982357 -0.07710171
-0.12311586 -0.01973373 -0.099715576 0.057914034 0.12022351 -0.1273292 -0.07645235 -0.056515086
0.028954467 -0.010226578 -0.18118154 0.0668841 -0.07344976 -0.14094344 -0.08369647 -0.024579389
-0.06726442 0.01864622 -0.13150077 -0.13075775 0.0035640337 0.105737574 -0.08666704 -0.16863541
-0.08503424 -0.10646847 -0.029809192 -0.16773017 -0.107100785 0.07269034 0.10186614 0.05850342
0.011427382 -0.058325633 0.07440573 -0.14626217 -0.03499737 -0.064495616 -0.087578505 -0.11445062
0.08612035 -0.122646645 -0.10438227 0.01284571 0.13288225 0.17344911 0.013030991 0.0105295805
0.13275658 0.08906597 -0.056074273 0.12094962 -0.011920609 -0.01994163 -0.06606003 -0.080143355

fc2.bias f4 [2]
00000000: 4832 d0bd a72f 953d
-0.101658404 0.072844796
