reinforcement_learning/reinforce/reinforce_500.pth (torch, 3968 bytes, 4 tensors)

fc1.weight f4 [64, 4]
0	0xbe2318d9	-0.15927447
1	0x3e8d4e1e	0.2759866
2	0x3ebf9a0f	0.37422225
3	0x3e77f3e0	0.24214125
4	0xbdcdaf60	-0.10043216
5	0x3d471858	0.0486072
6	0x3e0251ab	0.12726466
7	0x3ecaaa80	0.39583206
8	0xbe465ee4	-0.19372135
9	0x3ea94e12	0.33067375
10	0x3eabf97f	0.33588788
11	0xbd893da1	-0.06701208
12	0x3d489a12	0.048975058
13	0xbebdccad	-0.37070218
14	0xbda3f583	-0.08005812
15	0x3e7bb0c2	0.24579147
16	0xbd92df6c	-0.071715206
17	0xbe784419	-0.24244727
18	0xbd501a39	-0.050806258
19	0xbea182ce	-0.3154511
20	0x3905ec24	0.00012771838
21	0x3df5ed33	0.12008133
22	0xbe95b5d4	-0.29240286
23	0xbe44b87f	-0.19211005
24	0x3e58c165	0.21167524
25	0xbe2e957b	-0.1704921
26	0xbe1f3254	-0.15546542
27	0x3ebe0e00	0.37120056
28	0x3e03f344	0.12885767
29	0xbe9a5da9	-0.30149582
30	0x3e31e215	0.173714
31	0x3b51d626	0.0032018512
32	0xbdbda8a1	-0.09260679
33	0x3ed70834	0.41998446
34	0xbd1aff93	-0.03784139
35	0xbf176777	-0.5914225
36	0xbebb3e77	-0.36571094
37	0x3e881549	0.2657874
38	0xbe8bc5a8	-0.27299237
39	0xbf199f8e	-0.60009086
40	0xbdb50cee	-0.08840357
41	0x3eb41a92	0.35176522
42	0x3e673947	0.22580443
43	0x3e9ae219	0.30250624
44	0xbeb85bba	-0.36007482
45	0x3e82ce4e	0.25548023
46	0x3e9c098e	0.3047604
47	0x3f048566	0.5176605
48	0xbf0b3b84	-0.5438769
49	0x3ee9d1b6	0.4566781
50	0x3ec31516	0.38102025
51	0x3f0f0e7e	0.5588149
52	0x3ef35dfc	0.47532642
53	0x3cb69d87	0.022291912
54	0x3d6d8836	0.05799123
55	0x3e850e83	0.25987634
56	0x3ed5d5ec	0.41764772
57	0x3e9247a2	0.28570276
58	0xbf24351b	-0.6414353
59	0xbe685d36	-0.22691807
60	0xbdfc6eae	-0.12325798
61	0xbe4f8db3	-0.20268898
62	0xbe9b9b37	-0.30391857
63	0xbe1827b5	-0.14858897
64	0x3ba85b19	0.005137813
65	0x3e31cc69	0.17363133
66	0x3e665140	0.22491932
67	0xbeb9f60c	-0.3632053
68	0xbd89df2c	-0.0673202
69	0x3dc9397a	0.09825416
70	0xbd02d064	-0.031937018
71	0xbe4ecb8b	-0.20194833
72	0x3e75b63d	0.239953
73	0xbc8a54c3	-0.01688612
74	0xbe610dc3	-0.21977906
75	0xbf29f496	-0.66388834
76	0x3e8767dd	0.2644643
77	0x3ea06d75	0.3133351
78	0x3e508043	0.20361428
79	0x3ef63520	0.48087406
80	0xbe9a3260	-0.30116558
81	0x3e11cdf4	0.14238721
82	0xbe1ea626	-0.15493068
83	0x3e384e50	0.17998624
84	0xbdfc3f14	-0.12316719
85	0xbe3b33cd	-0.18281479
86	0xbdc3c3ec	-0.095588535
87	0xbf140615	-0.5782178
88	0x3ee84787	0.4536707
89	0xbc90f373	-0.01769421
90	0x3e888972	0.26667362
91	0xbc57f6ab	-0.013181369
92	0xbed321a6	-0.4123661
93	0xbeb5a910	-0.35480547
94	0xbda55d5e	-0.08074449
95	0x3e70060d	0.23439808
96	0xbe9bf086	-0.30456942
97	0xbed35a73	-0.41279945
98	0xbef522ef	-0.47878215
99	0xbf225c66	-0.6342224
100	0xbf1c8d82	-0.61153424
101	0xbe68760d	-0.22701283
102	0xbe1735a4	-0.14766556
103	0x3eee0c2a	0.46493655
104	0x3ef1755e	0.47159857
105	0x3f0122f3	0.50443953
106	0x3e4ad544	0.19807917
107	0xbe41480e	-0.18875143
108	0xbe9baf06	-0.3040697
109	0x3ecc72e3	0.39931402
110	0xbeb9c7dc	-0.36285293
111	0xbda0230f	-0.07819187
112	0xbeb48af5	-0.35262266
113	0xbee4ffe5	-0.44726482
114	0x3e77fddc	0.24217933
115	0x3ee242ed	0.44191685
116	0xbe55bdee	-0.20873234
117	0x3e801934	0.25019228
118	0x3d1b5a91	0.037928168
119	0x3f02b707	0.5106053
120	0xbecd0a75	-0.4004704
121	0x3e43e300	0.19129562
122	0xbed09fc4	-0.40746891
123	0xbf01cadb	-0.5070016
124	0xbe931fa9	-0.28735092
125	0x3dba02c9	0.090825625
126	0xbecb6ca4	-0.39731324
127	0xbf16cd8f	-0.5890741
128	0xbe1f5431	-0.1555946
129	0xbea18bcc	-0.3155197
130	0xbee73229	-0.45155457
131	0xbebd9cee	-0.3703379
132	0xbd3987b8	-0.045295447
133	0x3ec79791	0.38982823
134	0xbe7439ac	-0.23850125
135	0xbde5fcf6	-0.11229889
136	0xbdbcc979	-0.09218115
137	0xbe3cfd3a	-0.18455973
138	0x3f43e553	0.76521796
139	0x3f10da7f	0.565834
140	0xbe6f759e	-0.23384711
141	0x3d5fb4cf	0.054615792
142	0xbef09aeb	-0.46993193
143	0xbdd50456	-0.10401218
144	0xbe7840a0	-0.24243402
145	0xbd8bfc3f	-0.068352215
146	0xbf0e1a13	-0.55508536
147	0xbec534e3	-0.38516912
148	0xbe88c63f	-0.2671375
149	0xbeaa093a	-0.33210164
150	0xbe0267a2	-0.12734845
151	0xbeab027b	-0.3340033
152	0xbeee36e8	-0.46526265
153	0x3e31ae96	0.17351755
154	0x3d1d37d3	0.038383316
155	0x3e81e73f	0.2537174
156	0x3d96c480	0.07361698
157	0x3ec80588	0.3906672
158	0x3d5d8d6e	0.054089956
159	0x3ef81d7d	0.48459998
160	0x3e844d03	0.25840005
161	0x3e723825	0.2365423
162	0xbe8d5efb	-0.27611527
163	0xbdbad6e7	-0.091230206
164	0xbe1abd54	-0.15111285
165	0x3db6d6d9	0.08927698
166	0x3eb10460	0.3457365
167	0xbdd7fd22	-0.10546328
168	0xbeffacbe	-0.4993648
169	0xbeb9b95d	-0.36274233
170	0x3f16a4af	0.5884504
171	0x3e104dec	0.14092225
172	0xbe78bcc8	-0.24290764
173	0x3eeb496d	0.45954457
174	0x3d17f5a2	0.037099488
175	0xbe9dfd35	-0.30857244
176	0xbe8741f8	-0.26417518
177	0x3e5b997b	0.21445267
178	0x3d0ffc77	0.03515288
179	0x3eea37c4	0.4574567
180	0x3e2ebec4	0.17064959
181	0xbed49670	-0.41521025
182	0xbd1ff4e9	-0.039051924
183	0x3e1a4c54	0.1506818
184	0x3f14fc21	0.5819722
185	0xbeb3eec6	-0.35143107
186	0xbf27cb7c	-0.6554487
187	0x3acc1902	0.0015571418
188	0xbd7515e8	-0.059835345
189	0x3ea9df36	0.3317811
190	0x3d7338e8	0.059380442
191	0xbefbe3c7	-0.49197218
192	0x3e5d2801	0.21597292
193	0xbd900ae6	-0.07033329
194	0x3f405da8	0.7514291
195	0x3f28ca58	0.6593375
196	0x3ef3e1f3	0.47633323
197	0xbe7992c2	-0.2437239
198	0x3e8d8919	0.2764366
199	0xbd3855e8	-0.0450038
200	0xbda4f75e	-0.08054994
201	0x3eefcaa2	0.46834284
202	0xbf51f93c	-0.82020926
203	0xbea5533a	-0.3229006
204	0x3e382e68	0.17986453
205	0xbe0ff3da	-0.14057866
206	0x3e934014	0.28759825
207	0x3ee25f99	0.4421356
208	0x3e0cd0ac	0.13751477
209	0x3e2b3cee	0.16722462
210	0x3f1990d4	0.59986615
211	0x3e4198b0	0.18905902
212	0x3eca6632	0.39531094
213	0x3ecc57f0	0.3991084
214	0x3f2c88bb	0.67396134
215	0x3e0ac237	0.1355065
216	0xbe9a4d96	-0.30137318
217	0x3d937314	0.07199684
218	0x3d93673e	0.07197426
219	0x3e389fbb	0.18029682
220	0xbe88fde4	-0.26756203
221	0x3d479ae9	0.04873172
222	0xbe1759de	-0.14780375
223	0x3db2ea18	0.08736056
224	0x3e3782d2	0.17920998
225	0x3e9c129e	0.30482954
226	0x3f249c07	0.6430058
227	0x3f2d400d	0.6767586
228	0xbd999747	-0.07499557
229	0xbedb8ef0	-0.4288249
230	0xbc1b04b6	-0.009461572
231	0x3f26798d	0.6502922
232	0xbe653bc1	-0.22386076
233	0xbe95a3c9	-0.2922652
234	0xbe8caf2b	-0.27477393
235	0xbde7028b	-0.11279782
236	0xbf049f7b	-0.5180585
237	0x3d779ef1	0.060454313
238	0x3da44707	0.0802136
239	0x3f1a7e17	0.6034865
240	0xbe751d1e	-0.23936889
241	0xbd8eb5c5	-0.069682635
242	0x3c9b7e04	0.018980987
243	0x3d44b463	0.048023593
244	0x3ea9b88d	0.33148614
245	0x3c7c9201	0.015415669
246	0x3eded2bd	0.43520156
247	0xbe275974	-0.16342717
248	0xbb90b25b	-0.004415793
249	0xbeb83de5	-0.35984722
250	0x3ec26d96	0.37974232
251	0x3dffe44d	0.12494717
252	0x3f0d9450	0.5530443
253	0xbedc1ca6	-0.42990607
254	0xbf22b019	-0.63549954
255	0xbeb12224	-0.3459636

fc1.bias f4 [64]
0	0xbe6bf19d	-0.23041387
1	0xbeb9f8d8	-0.36322665
2	0xbe81c754	-0.25347388
3	0xbee5257b	-0.44755158
4	0xbf061bac	-0.52385974
5	0xbead3502	-0.33829504
6	0x3eb4f2f5	0.35341612
7	0xbdb27502	-0.08713724
8	0x3ee16f3c	0.44030178
9	0x3e6c1459	0.23054637
10	0xbe61d9e2	-0.22055772
11	0x3eafdd7e	0.34348673
12	0x3e923b8e	0.28561062
13	0xbf02e98d	-0.5113762
14	0x3c90966c	0.017649852
15	0x3eb19453	0.34683475
16	0xbe66e64e	-0.22548792
17	0xbe7f3c30	-0.24925303
18	0x3e87b3dd	0.26504412
19	0x3e87c657	0.2651851
20	0x3e6ff3a8	0.23432791
21	0x3d9dedc6	0.07711367
22	0xbea827ed	-0.3284296
23	0x3d940d53	0.07229104
24	0x3e98d0d1	0.29846814
25	0x3ed40a3d	0.4141406
26	0x3e87bea3	0.26512632
27	0x3ed3ec74	0.41391337
28	0xbcbc4d8c	-0.022986196
29	0x3e5c724b	0.21527974
30	0x3e57db89	0.2107984
31	0x3e842d44	0.25815785
32	0x3e2a63b6	0.16639599
33	0x3e20781d	0.1567082
34	0x3eb1021e	0.34571928
35	0x3deca9bd	0.115558125
36	0x3e6c39d8	0.2306894
37	0xbe4676c5	-0.19381244
38	0x3eaabae8	0.33345723
39	0xbede6c45	-0.43441978
40	0xbef6d55e	-0.4820966
41	0x3ed6f524	0.41983902
42	0xbe1539a0	-0.14572763
43	0x3e5a31ee	0.21308109
44	0xbebeed3b	-0.37290367
45	0xbea95258	-0.33070636
46	0x3de9cfe8	0.11416608
47	0x3ea8a3e3	0.32937536
48	0x3ee936ce	0.45549625
49	0xbe98e167	-0.29859468
50	0x3edcfc73	0.43161353
51	0x3ea45902	0.32099158
52	0x3d1871a0	0.037217736
53	0xbe557261	-0.20844413
54	0xbe94741f	-0.28994843
55	0x3ecbb08f	0.3978314
56	0x3e999c7b	0.30002198
57	0x3ecbf091	0.39831975
58	0xbdd00525	-0.10157231
59	0xbdc629e2	-0.09675957
60	0x3ec279c4	0.37983525
61	0x3d2fe5de	0.042943828
62	0xbe1ed0eb	-0.15509383
63	0x3e95c200	0.29249573

fc2.weight f4 [2, 64]
0	0x3d21fd6d	0.039548326
1	0x3de9c920	0.11415315
2	0x3dbc5e80	0.09197712
3	0xbe07f272	-0.1327608
4	0xbbd0f361	-0.0063766693
5	0xbdbc3774	-0.09190264
6	0xbc098f50	-0.008395985
7	0x3cbae1ca	0.022812743
8	0x3e2461bc	0.16052908
9	0x3db453d6	0.08805053
10	0x3d22b7f5	0.039726216
11	0xbd5cb27a	-0.053881146
12	0xbe9881f2	-0.2978664
13	0x3cbdc8bd	0.023167009
14	0x3b1a1897	0.0023513192
15	0x3e12cb2f	0.14335321
16	0x3d1d52e4	0.03840913
17	0xbd9bf43c	-0.076149434
18	0x3c4c37cd	0.012464476
19	0xbe0d0f59	-0.13775386
20	0xbdb76d69	-0.08956415
21	0x3d984734	0.07435456
22	0xbc62b846	-0.0138378795
23	0x3cb9946a	0.022653777
24	0x3e0c00f3	0.13672237
25	0xbd458580	-0.04822302
26	0x3bf488fa	0.007462618
27	0x3d85b3d8	0.06528443
28	0xbd441651	-0.047872845
29	0xbe60c7f3	-0.21951275
30	0xbc9dd4e7	-0.019266559
31	0x3e1e8ce9	0.1548344
32	0x3e8db116	0.27674168
33	0x3da09541	0.07840968
34	0xbe6760b1	-0.22595479
35	0x3e433aa7	0.19065343
36	0x3d171afd	0.036890972
37	0xbbb5c409	-0.005547051
38	0xbe1feb3a	-0.15617076
39	0xbda6533e	-0.08121346
40	0x3c8665d0	0.01640597
41	0xbd6ca13a	-0.057770945
42	0xbdd32059	-0.10308904
43	0xbc25c719	-0.010118269
44	0xbb3d5fba	-0.0028896169
45	0x3d7389bf	0.059457537
46	0x3d88ee1a	0.06686039
47	0xbc58dffa	-0.013236994
48	0xbdfc501c	-0.12319967
49	0x3d76f89b	0.060295682
50	0x3d8d4bc0	0.06899214
51	0xbded40be	-0.11584614
52	0xbe52e162	-0.20593789
53	0xbe431c09	-0.19053663
54	0xbde9abaa	-0.114096954
55	0xbd0152f7	-0.031573262
56	0xbdf417e1	-0.11918617
57	0xbda1c4ba	-0.07898851
58	0x3dee8a5b	0.11647483
59	0xbd1c0e8f	-0.03809982
60	0x3d99c61a	0.07508488
61	0xbba3f157	-0.005003135
62	0xbd8d2e7d	-0.068936326
63	0x3e4140b6	0.18872342
64	0x3ca5f08f	0.020256309
65	0x3c499e6a	0.012305835
66	0xbd966039	-0.07342572
67	0x3df05518	0.1173498
68	0x3dc87235	0.09787408
69	0x3b02c2fe	0.001995265
70	0x3d98d692	0.07462801
71	0xbd904287	-0.07043939
72	0xbe1694de	-0.14705226
73	0xbd4e31ad	-0.050340343
74	0xbd282aec	-0.04105656
75	0x3e0b5a9f	0.13608788
76	0x3e822f5a	0.2542675
77	0xbe13935c	-0.14411682
78	0xbdebe1b1	-0.115176566
79	0xbdc4afce	-0.096038446
80	0x3ca65c85	0.020307789
81	0xbc322dd6	-0.010875186
82	0xbe762403	-0.24037175
83	0x3e04a533	0.12953644
84	0xbd369c1b	-0.044582468
85	0xbe5d51f9	-0.21613301
86	0xbdcb09ec	-0.09914002
87	0xbb43d039	-0.002987875
88	0xbe197609	-0.14986433
89	0x3d27ef56	0.040999733
90	0xbe098015	-0.13427766
91	0xbe072876	-0.13199028
92	0x3d084e84	0.033278003
93	0x3e59d885	0.21274002
94	0xbdf0b9a2	-0.11754157
95	0xbe5bd694	-0.21468574
96	0xbe549de5	-0.20763357
97	0xbde0d4ac	-0.10978064
98	0x3cf32ae8	0.029683545
99	0xbe6930dc	-0.22772545
100	0xbe31e30d	-0.17371769
101	0x3d45e68a	0.048315562
102	0x3e142beb	0.14469878
103	0x3d8d3355	0.068945564
104	0xbd07b328	-0.03312984
105	0xbd5e5c8e	-0.054287486
106	0x3de1769b	0.1100895
107	0xbe1924ba	-0.14955416
108	0xbcda6bdb	-0.026662758
109	0xbd5013da	-0.050800182
110	0xbe2daafb	-0.16959755
111	0xbe0a5ba4	-0.1351152
112	0x3e139311	0.1441157
113	0xbe1569d6	-0.14591154
114	0xbe0a6a2c	-0.13517064
115	0x3d491cf2	0.04909987
116	0x3e8cb158	0.27479053
117	0x3e5a89ba	0.21341601
118	0x3cc74c3f	0.02432835
119	0x3c328ca7	0.010897792
120	0x3e6495af	0.22322725
121	0x3de8bfc8	0.11364704
122	0xbd96bdeb	-0.07360443
123	0x3e389753	0.18026476
124	0x3ad514b1	0.0016256777
125	0xbcfe865c	-0.031069927
126	0xbd36a10d	-0.044587184
127	0xbe633f75	-0.22192176

fc2.bias f4 [2]
0	0xbdbd3d9f	-0.09240269
1	0x3d823afd	0.06358907
