reinforcement_learning/reinforce/reinforce_750.pth (torch, 3968 bytes, 4 tensors)

fc1.weight f4 [64, 4]
-0.114803456 0.03385186 -0.80428237 -0.67264813 0.47103804 0.109865315 0.48807642 0.46124136
-0.23087491 0.0039324043 -0.77179426 -0.1656534 0.20009948 -0.26609522 0.2685956 0.21813557
-0.44081253 0.11533171 0.27228627 0.4072531 0.17855828 -0.11205671 -0.27130613 -0.31935695
0.018284349 -0.47845593 -0.014739261 -0.057598293 0.43448412 0.020634392 0.019206421 -0.3611262
-0.046522707 0.44484994 0.18538645 -0.28715664 0.29628748 -0.3441184 -0.37691185 -0.29153627
0.17380375 -0.3551765 0.5893973 0.07663072 0.45125678 -0.3542674 0.14438716 -0.42194667
-0.121452205 0.4555551 -0.6109363 -0.16793883 0.34641495 -0.38729113 -0.49628118 -0.2504591
-0.014723521 0.500325 0.04369689 -0.00039688908 -0.48476145 0.10211828 0.5086432 -0.43794718
0.0456297 -0.36632705 -0.33082858 -0.52260935 0.20260799 0.17357425 0.26185846 -0.5022936
0.21518986 0.20605458 -0.21928565 -0.3811529 -0.4320574 0.30084404 0.4735673 0.50014776
0.3407737 0.46364522 -0.20971046 0.4221561 -0.44580084 0.33355176 0.12991264 0.38511747
-0.36792788 -0.44572815 0.509344 -0.17433894 -0.21932882 -0.34891266 0.1286963 0.004880689
-0.23111497 0.1401098 -0.22070052 -0.09704199 -0.23604321 -0.050465997 -0.012412607 -0.09796063
0.26601472 0.15428522 -0.4088621 -0.23183775 -0.26147118 -0.120088674 0.4521646 0.0729507
-0.3095688 0.25460124 -0.75791484 -0.18315907 0.3979769 0.040674463 -0.35656416 -0.44617933
-0.06960763 0.18797174 0.036098648 -0.07025573 0.07064122 -0.40286946 0.12979133 -0.45397022
-0.2279923 0.19270377 0.6081873 0.2595298 0.30529797 0.43777195 0.72195315 0.48542666
-0.25406787 0.49268124 -0.3939785 0.15104671 -0.48597962 -0.055237547 0.6944208 0.54381824
-0.31064522 -0.4148921 0.11550707 0.18300517 0.096186504 0.29978487 -0.027120067 0.6488823
-0.0385368 -0.1579779 -0.275491 -0.21164231 -0.2605483 -0.16152087 -0.04697551 0.028100453
-0.42325106 0.26377723 -0.7041914 -0.53380245 0.16223936 -0.20507585 -0.1878146 -0.37192604
0.020162376 0.36064845 -0.08066571 -0.33549055 0.23084769 -0.49763492 -0.6083429 -0.16310222
0.30991894 -0.18087886 -0.24207991 0.22230974 -0.39094236 -0.17375024 0.2767328 0.69890046
0.095593825 -0.23102622 -0.23641616 -0.31331208 -0.1395342 -0.4407946 -0.12903845 -0.29720116
-0.07078449 0.13607176 0.31239417 0.36403754 0.050173674 0.26944083 -0.34535545 -0.031455405
0.05362029 0.17469789 -0.07353631 -0.60253906 0.03860157 -0.12142664 -0.13513069 -0.25027233
-0.045046598 0.42924884 0.16284154 -0.0059567755 0.48466077 0.5063022 -0.16511118 -0.36404327
-0.51376337 -0.21964456 0.40521273 0.5247241 0.008667052 0.071496606 -0.4629023 0.074112594
-0.44477016 -0.46170145 -0.38077083 -0.37569836 -0.39132056 0.3052694 0.51123697 -0.44250438
0.0057946728 -0.121695325 -0.36091608 -0.206206 0.2561129 -0.38736215 0.30198085 0.36133623
0.16188899 -0.1064987 0.60322106 0.541838 0.40054697 0.17892672 -0.34716758 0.4488859
0.5310366 0.23292598 -0.2644501 -0.31035265 -0.31448433 0.28479588 0.3463486 0.4823208
00000000: 131e ebbd 3fa8 0a3d 73e5 4dbf ab32 2cbf
00000010: e62b f13e 1101 e13d 27e5 f93e d427 ec3e
00000020: 796a 6cbe 66db 803b 4f94 45bf 0ba1 29be
00000030: e1e6 4c3e a23d 88be 5d85 893e ee5e 5f3e
00000040: 2eb2 e1be 0833 ec3d 1b69 8b3e 7a83 d03e
00000050: fbd7 363e fd7d e5bd a3e8 8abe c182 a3be
00000060: 0fc9 953c 2df8 f4be f17c 71bc 30ec 6bbd
00000070: b474 de3e 7509 a93c c956 9d3c 89e5 b8be
00000080: 988e 3ebd 5fc3 e33e f2d5 3d3e 3206 93be
00000090: feb2 973e 4930 b0be 97fa c0be 3e44 95be
000000a0: 9cf9 313e b2d9 b5be bee2 163f 91f0 9c3d
000000b0: 210b e73e 8962 b5be 3ada 133e 6509 d8be
000000c0: efbb f8bd 853e e93e 5266 1cbf 28f8 2bbe
000000d0: 4d5d b13e 064b c6be 9118 febe 2d3c 80be
000000e0: ec3a 71bc 4d15 003f 83fb 323d 8d15 d0b9
000000f0: a732 f8be 6423 d13d 7136 023f 9d3a e0be
00000100: 35e6 3a3d 388f bbbe 5d62 a9be bac9 05bf
00000110: 7878 4f3e 73bd 313e 5012 863e 5096 00bf
00000120: bb5a 5c3e f9ff 523e 6b8c 60be 7926 c3be
00000130: a136 ddbe 3b08 9a3e 6a77 f23e af09 003f
00000140: e479 ae3e e862 ed3e 57be 56be d824 d83e
00000150: 0240 e4be 4cc7 aa3e d207 053e 1e2e c53e
00000160: 0b61 bcbe 7b36 e4be 5e64 023f e885 32be
00000170: bc97 60be aea4 b2be f6c8 033e 30ee 9f3b
00000180: 67a9 6cbe f278 0f3e 51ff 61be f3bd c6bd
00000190: 50b5 71be 6fb5 4ebd 3f5e 4bbc 959f c8bd
000001a0: 1533 883e f2fc 1d3e 6056 d1be e066 6dbe
000001b0: 8ddf 85be 0df1 f5bd 1e82 e73e 2d67 953d
000001c0: cd7f 9ebe 185b 823e b506 42bf 0d8e 3bbe
000001d0: a1c3 cb3e 449a 263d 948f b6be 9e71 e4be
000001e0: 728e 8ebd aa7b 403e 2ddc 133d 3ce2 8fbd
000001f0: 58ac 903d e844 cebe 05e8 043e c96e e8be
00000200: d076 69be 2354 453e 2ab2 1b3f 17e1 843e
00000210: 0450 9c3e a523 e03e ecd1 383f d889 f83e
00000220: 2f15 82be b740 fc3e 8db7 c9be fdab 1a3e
00000230: 52d2 f8be c440 62bd 90c5 313f ac37 0b3f
00000240: e40c 9fbe bd6c d4be f98e ec3d b565 3b3e
00000250: 6efd c43d 677d 993e e72a debc 271d 263f
00000260: c3d8 1dbd f5c4 21be 280d 8dbe c3b8 58be
00000270: 9666 85be ba65 25be 6469 40bd ec32 e63c
00000280: 5db4 d8be cf0d 873e e345 34bf 47a7 08bf
00000290: 1322 263e 67ff 51be 7852 40be 176d bebe
000002a0: 912b a53c eaa6 b83e 1034 a5bd 6bc5 abbe
000002b0: 5663 6c3e 01ca febe 5cbc 1bbf 4504 27be
000002c0: b2ad 9e3e 4f38 39be cce3 77be 2aa5 633e
000002d0: 9929 c8be 95eb 31be ecaf 8d3e 24eb 323f
000002e0: b2c6 c33d 2392 6cbe 1417 72be 716a a0be
000002f0: 0ee2 0ebe d4af e1be a822 04be c02a 98be
00000300: 75f7 90bd 6556 0b3e 21f2 9f3e 2163 ba3e
00000310: e982 4d3d 26f4 893e 6ed2 b0be 62d7 00bd
00000320: f3a0 5b3d 01e4 323e 349a 96bd 0040 1abf
00000330: ae1c 1e3d 88ae f8bd b35f 0abe b223 80be
00000340: c882 38bd 81c6 db3e efbf 263e 0e31 c3bb
00000350: 7525 f83e 059d 013f e812 29be e163 babe
00000360: ff85 03bf 81ea 60be 0b78 cf3e 5254 063f
00000370: 4000 0e3c d06c 923d 8801 edbe 58c8 973d
00000380: eab8 e3be 2264 ecbe 65f4 c2be 895b c0be
00000390: 2b5b c8be 454c 9c3e 6de0 023f ef8f e2be
000003a0: 3de1 bd3b 663b f9bd fec9 b8be aa27 53be
000003b0: 3b21 833e 5554 c6be 3c9d 9a3e 1001 b93e
000003c0: 3ac6 253e fe1b dabd b26c 1a3f e5b5 0a3f
000003d0: 7e14 cd3e 9138 373e f3bf b1be 5fd4 e53e
000003e0: 04f2 073f 2684 6e3e 0166 87be 8be6 9ebe
000003f0: 1704 a1be c4d0 913e 9b54 b13e c0f2 f63e

fc1.bias f4 [64]
0.46751785 0.16487023 0.19815885 0.085078835 -0.46501186 -0.45455313 -0.2569217 0.4804994
0.012683891 -0.3519992 0.42653292 0.16504435 -0.029278941 0.5067771 -0.10294993 -0.20999973
0.48572558 -0.12700382 -0.014239798 0.2566096 0.1448142 -0.32693005 0.11859002 -0.1164833
0.073818095 -0.29682386 -0.48776934 -0.47569746 0.22038634 0.24869914 -0.4274182 -0.28400272
0.17255987 0.11358873 -0.03434655 0.031651355 -0.22007816 0.2915298 0.14728136 0.09463416
0.236558 -0.23785177 0.22070214 0.38604528 -0.3417094 0.41445103 -0.0072653447 -0.47068903
0.12715653 -0.35236806 0.37282258 -0.20958221 0.49998432 -0.12812743 0.22335017 -0.33983672
-0.38115105 -0.034378506 -0.2081388 0.39876208 0.33644027 -0.4001672 0.11116138 0.16162336
00000000: 805e ef3e bed3 283e 27ea 4a3e d03d ae3d
00000010: 0916 eebe 30bb e8be 3e8b 83be 0404 f63e
00000020: 18d0 4f3c 3d39 b4be 8662 da3e 6301 293e
00000030: 64da efbc 25bc 013f 6ad7 d2bd 2b0a 57be
00000040: 06b1 f83e 4a0d 02be 0b4e 69bc 5562 833e
00000050: 2c4a 143e 6063 a7be 53df f23d cc8e eebd
00000060: f12d 973d 4cf9 97be e7bc f9be 9e8e f3be
00000070: f5ac 613e fdaa 7e3e 8fd6 dabe ce68 91be
00000080: 89b3 303e 35a1 e83d f8ae 0cbd daa4 013d
00000090: 2b5c 61be 6543 953e edd0 163e 8ecf c13d
000000a0: 433c 723e 6a8f 73be beff 613e baa7 c53e
000000b0: 89f4 aebe ed32 d43e 2112 eebb 27fe f0be
000000c0: 5235 023e 9669 b4be 9ae2 be3e b89c 56be
000000d0: f2fd ff3e d633 03be e8b5 643e 14ff adbe
000000e0: 3b26 c3be 7ad0 0cbd 5622 55be 8b2a cc3e
000000f0: e641 ac3e b7e2 ccbe 94a8 e33d 9880 253e

fc2.weight f4 [2, 64]
0.038497686 -0.1597566 0.3595132 0.019804135 0.0533787 -0.03736767 0.072372735 0.021405756
0.11160912 -0.06251761 -0.034345035 0.2652458 0.18019639 0.20006211 0.007498134 0.022817438
0.18986867 0.03460852 0.08210425 -0.2956379 0.047173817 0.061774563 -0.04864617 -0.11033551
0.18731968 0.0891125 -0.07268785 -0.13998945 0.062033318 0.044072945 -0.024511494 0.13075876
-0.3415933 -0.27976823 0.06368533 -0.048888568 -0.10299412 -0.059467748 0.22131012 0.024114087
0.20237745 -0.00861589 0.050972097 0.08363982 -0.07715944 -0.111790046 0.059141137 0.11212771
-0.33115792 0.036130395 0.086804986 0.08531561 0.0036271217 0.01872837 -0.1477741 0.009317189
-0.04149437 -0.002418167 -0.032009754 0.059000123 -0.07733911 0.049256813 0.06636834 -0.18252976
-0.15104972 0.09957422 -0.43565887 0.054288097 0.08003799 -0.025861507 -0.035293214 -0.13869883
0.019103145 -0.0060792267 0.07960001 -0.31710467 -0.14751013 -0.036984224 0.014187991 0.03742585
-0.0051085018 -0.1460684 -0.20060974 0.18814474 0.14612548 0.0041926093 -0.07077611 -0.114542454
-0.16743562 0.060239807 -0.06212024 0.019909644 -0.13817684 -0.08317442 0.036882386 0.019445391
0.35142273 0.26686588 0.053793862 0.21179006 -0.050709523 0.21199536 -0.25004748 -0.010299568
-0.19946873 -0.014502943 -0.006760572 -0.14419673 0.061046295 0.11989565 -0.05206457 0.034843083
0.2612527 0.08757 -0.16238645 0.08419817 -0.08800982 -0.11787995 -0.015149 -0.11790687
-0.16873214 -0.010874726 -0.004221198 0.13984331 0.24886496 -0.0011217959 -0.16382603 0.36188886
00000000: c0af 1d3d 3c97 23be 1d12 b83e 483c a23c
00000010: a0a3 5a3d d80e 19bd 2838 943d 205b af3c
00000020: 5393 e43d 3c09 80bd 61ad 0cbd 4cce 873e
00000030: 6785 383e 15dd 4c3e e8b2 f53b a3eb ba3c
00000040: ef6c 423e aac1 0d3d 4626 a83d da5d 97be
00000050: 5539 413d 5307 7d3d 3541 47bd 95f7 e1bd
00000060: bbd0 3f3e 9d80 b63d 5edd 94bd 6559 0fbe
00000070: a616 7e3d d585 343d 54cc c8bc a0e5 053e
00000080: 51e5 aebe c83d 8fbe 746d 823d 613f 48bd
00000090: 95ee d2bd 7494 73bd 1f9f 623e e88a c53c
000000a0: 093c 4f3e a929 0dbc 1ec8 503d 5b4b ab3d
000000b0: c505 9ebd 2ef2 e4bd fa3d 723d 36a3 e53d
000000c0: 888d a9be 77fd 133d d0c6 b13d f3b9 ae3d
000000d0: 01b5 6d3b 3d6c 993c 1852 17be 20a7 183c
000000e0: 00f6 29bd 1c7a 1ebb a91c 03bd 1daa 713d
000000f0: f863 9ebd 83c1 493d 20ec 873d 15e9 3abe
00000100: c7ac 1abe 92ed cb3d ae0e dfbe 325d 5e3d
00000110: f5ea a33d 83db d3bc 9e8f 10bd 1107 0ebe
00000120: 337e 9c3c 4034 c7bb 5405 a33d 8b5b a2be
00000130: e50c 17be c57c 17bd bf74 683c d94b 193d
00000140: 3865 a7bb f492 15be a46c 4dbe 04a9 403e
00000150: eba1 153e 2862 893b 11f3 90bd 3c95 eabd
00000160: 3e74 2bbe 04be 763d cb71 7ebd 8d19 a33c
00000170: 3b7e 0dbe 5a57 aabd fc11 173d f14b 9f3c
00000180: aeed b33e a5a2 883e f456 5c3d 7edf 583e
00000190: cab4 4fbd 5015 593e 3906 80be 85bf 28bc
000001a0: 8841 4cbe c09d 6dbc ca87 ddbb 4fa8 13be
000001b0: ae0b 7a3d da8b f53d a941 55bd 9fb7 0e3d
000001c0: eac2 853e e657 b33d a248 26be 1770 ac3d
000001d0: 7e3e b4bd 0b6b f1bd 8333 78bc 2879 f1bd
000001e0: 1ec8 2cbe e82b 32bc fa51 8abb 1633 0f3e
000001f0: 75d6 7e3e 3909 93ba 03c2 27be 7f49 b93e

fc2.bias f4 [2]
-0.04658693 0.090964705
00000000: f0d1 3ebd b44b ba3d
