reinforcement_learning/reinforce/reinforce_0.pth (torch, 3952 bytes, 4 tensors)

fc1.weight f4 [64, 4]
000000 01 88 e6 bd 78 7d 57 3e 67 24 c1 be f9 ee fd be
       -0.112564094 0.21043956 -0.37723085 -0.49596384
000010 23 19 f6 3e c1 7f 2e 3c 08 1b 03 3e 24 8c 8d 3e
       0.48066053 0.010650576 0.1280328 0.2764598
000020 00 e0 b6 be e2 e7 5e 3d c0 83 ab be 4f 6c 69 3d
       -0.35717773 0.05442036 -0.33498955 0.056988057
000030 90 d6 02 3e 9c 6d 7f be 4c c6 d2 3e d4 43 8c 3e
       0.12777162 -0.24944156 0.41166914 0.273955
000040 c8 8f fe be 40 4a be 3d 02 0c 8e 3e 5a f3 d2 3e
       -0.4971907 0.09291506 0.27743536 0.41201288
000050 a8 03 35 3e 88 d6 ec bd b8 99 88 be de fd a1 be
       0.17677176 -0.11564356 -0.26679778 -0.31638998
000060 69 47 32 3c fa aa fc be 8c 57 f0 3d 83 b2 65 3c
       0.010881283 -0.49349195 0.11735448 0.014019611
000070 59 cd be 3e 00 52 58 3d 50 52 da 3e f0 12 22 be
       0.37266043 0.052812576 0.42640924 -0.15827537
000080 17 c1 05 be 84 00 d8 3e ea 65 cf 3e ca 26 28 be
       -0.13061939 0.42187893 0.40507442 -0.16421047
000090 1c d0 8a 3e 8e b3 c4 be 9a 2d c8 be e8 e9 97 be
       0.271119 -0.3841824 -0.3909729 -0.29670644
0000a0 3b 01 65 3e e4 54 b8 be 10 8a a6 3e be ef 45 bd
       0.2236375 -0.36002266 0.32527208 -0.04832434
0000b0 40 49 d1 3e 1e c3 a6 be 10 58 f4 3e a2 8c 8b be
       0.40876198 -0.32570738 0.47723436 -0.27255732
0000c0 90 dd 3f be dc f8 d9 3e ac 32 e6 be 3a 48 a2 bd
       -0.18736863 0.42572677 -0.44960535 -0.079239324
0000d0 e0 c1 93 3e e0 72 b1 be a0 61 79 bd e5 64 c9 bc
       0.28858852 -0.34657955 -0.060884118 -0.024584243
0000e0 bc a7 f8 bb 26 82 fa 3e 96 e0 3c 3e 3d 6b a1 3d
       -0.007588355 0.4892742 0.18445048 0.07881782
0000f0 83 3d ef be 4d 93 0d 3e f4 7f f2 3e 60 2b f4 be
       -0.46726617 0.13825722 0.47363245 -0.47689342
000100 26 af 72 3d 00 33 7f be b9 22 fc 3c 7c 52 ba be
       0.059249066 -0.24921799 0.030778276 -0.36391056
000110 a4 7c 09 3e 50 f5 e0 3d 4c 3c ca 3e dc 99 cc be
       0.13426453 0.1098429 0.39499128 -0.39961135
000120 c9 d3 1a 3e 58 e4 33 3e 88 67 1f bd 20 34 8e be
       0.15119852 0.17567575 -0.038917094 -0.27774143
000130 df cd e1 be 10 79 03 3e f4 fd 56 bb c4 72 ab 3e
       -0.4410238 0.1283915 -0.0032805176 0.33485997
000140 b2 d0 cf 3e 64 ea ee 3e 77 9a f2 be d7 ee 8f 3e
       0.4058891 0.466632 -0.47383472 0.28111908
000150 fc 61 fb be 71 a4 a5 3e 3b f8 28 3e b2 e0 ce 3e
       -0.49098194 0.3235202 0.16500942 0.40405804
000160 e0 fe 8a be 93 35 dd be 63 1c b2 3e 35 f8 82 be
       -0.2714758 -0.43204936 0.34787282 -0.25579992
000170 c6 a3 6b be 63 73 c5 be 24 cc 5f bc f3 71 5c bd
       -0.23011693 -0.38564596 -0.013659511 -0.053819608
000180 6d 60 8d be 17 49 12 3e f7 53 2d 3c 1a ae a3 3c
       -0.2761263 0.14285694 0.010579101 0.019980479
000190 98 ae 8f be 30 ea 8d bd 00 f7 21 3b d0 cf d3 bd
       -0.28062892 -0.06929433 0.0024713874 -0.103423715
0001a0 92 9f a4 3e e4 30 34 3e fe f1 ce be 98 f5 76 be
       0.32152992 0.17596775 -0.40419 -0.24117124
0001b0 a0 d1 78 be c8 f8 fa bd 8e b4 d2 3e a0 ea 4c 3d
       -0.24298716 -0.122544825 0.41153377 0.050028443
0001c0 0c 18 d1 be c7 c8 ac 3e f6 4e b2 be 77 57 a5 3b
       -0.4083866 0.3374693 -0.34825867 0.005045827
0001d0 5a 71 dd 3e bc 79 2f 3e 51 8a 82 bd f8 4c b4 be
       0.43250543 0.17136282 -0.06374038 -0.35214972
0001e0 98 52 a0 bd 4c 35 3f 3e a0 bf 14 3d 88 b4 8f bd
       -0.078282535 0.18672675 0.03631556 -0.070168555
0001f0 a0 b7 27 3e 2e 41 af be dc ad 08 3e ec b3 ea be
       0.16378641 -0.34229416 0.13347572 -0.45840394
000200 96 78 7f be 91 b2 15 3e 89 f2 6d 3e ea 28 bc 3d
       -0.24948344 0.14618899 0.23237051 0.09187491
000210 ea 00 b0 3e 34 f8 d2 3e ac 79 cb 3e 84 91 99 3e
       0.34375697 0.4120499 0.39741266 0.29993832
000220 24 93 9a be 18 6a ed 3e 54 85 7e be d9 26 71 3e
       -0.30190384 0.46370006 -0.24855548 0.23549975
000230 89 08 f3 be 2b de 9e bd 08 5a b7 3e 6d 02 b1 3e
       -0.4746745 -0.07757219 0.35810876 0.34572163
000240 be 90 a6 be 53 ea df be 27 20 94 bd 63 19 ba 3d
       -0.32532305 -0.43733463 -0.07232695 0.090868734
000250 2d b5 57 3e b7 8e 93 3e 03 7a f4 be 64 fb d2 3e
       0.21065207 0.2881982 -0.47749338 0.4120742
000260 6c f9 dd bd 44 52 15 be 08 5a a7 3d 24 0d 26 bb
       -0.10838589 -0.14582163 0.08171469 -0.0025337422
000270 df f2 33 be c3 16 4d be 47 e5 2d be da 37 2b bc
       -0.17573117 -0.20028214 -0.16981994 -0.010450328
000280 4c 00 f6 be 42 96 96 3e 2e 4b e2 be 86 6a d8 be
       -0.48047101 0.29411513 -0.44197983 -0.4226877
000290 34 45 3e 3e 40 4c 2c be b0 e4 53 be 0e 96 cf be
       0.18581086 -0.16825962 -0.20692706 -0.4054417
0002a0 41 dc 4f 3d b4 d6 de 3e f7 26 c2 3d 3e b8 94 be
       0.05074716 0.4352318 0.09480088 -0.29046816
0002b0 0c ac 0c 3e 3a fc ee be 78 47 33 be d7 2c b7 3d
       0.13737506 -0.4667681 -0.17507732 0.089440994
0002c0 76 ac 8d 3e d0 ff 0a be 1c 51 7d be e0 08 35 3e
       0.2767064 -0.13574147 -0.24737972 0.17679167
0002d0 f4 f0 bb be a4 11 a6 be f8 5b 22 be 72 b0 fd 3e
       -0.3670727 -0.32435334 -0.15855396 0.4954868
0002e0 ee 9b 25 3e bd 7d 36 be 88 7e 51 be ff 33 a8 be
       0.16172764 -0.17821403 -0.20458424 -0.3285217
0002f0 b4 34 35 be 0a ca f3 be 3c 29 2e be 22 3f a7 be
       -0.17695886 -0.4761508 -0.17007917 -0.32665354
000300 ca a6 95 bd 99 d6 cb 3d 81 83 2d bc e5 49 47 3e
       -0.07307203 0.09953041 -0.010590435 0.19461782
000310 38 64 b2 3d 92 4b 90 3e 02 72 af be 40 81 11 bd
       0.087105215 0.28182656 -0.3426667 -0.035523653
000320 13 47 39 3c 87 b0 6f 3e ea 7d 88 3e 16 20 ea be
       0.011308449 0.23407184 0.26658565 -0.45727605
000330 a0 a1 ca 3c f0 3d d9 bd 98 28 07 be fa fc 86 be
       0.024735272 -0.10607517 -0.13199079 -0.2636488
000340 33 89 f9 bd 00 77 d9 3e 5e 10 e4 3e 63 2a 02 3e
       -0.12184372 0.42473602 0.44543737 0.12711482
000350 e2 00 e6 3e fe 6f f0 3e 7c 91 6b 3c 42 77 76 be
       0.4492255 0.46960443 0.014377948 -0.24068931
000360 b6 61 f6 be 95 d2 d7 be 6c b7 35 bd 0a 07 ad 3e
       -0.48121423 -0.4215285 -0.044364378 0.33794433
000370 40 00 0e 3c d0 6c 92 3d 88 01 ed be 58 c8 97 3d
       0.008667052 0.071496606 -0.4629023 0.074112594
000380 fa b9 e5 be 50 97 e8 be ae 7c 82 be ee 6c 97 be
       -0.4486845 -0.45427942 -0.25485748 -0.29575294
000390 e2 da b8 be b6 53 a9 3e e6 14 ec 3e 3a 9d f5 be
       -0.36104494 0.3307168 0.46109694 -0.47971517
0003a0 b0 12 1c bd 68 a1 03 be fc 95 ba be d4 c0 5c be
       -0.03810376 -0.1285454 -0.36442554 -0.21557933
0003b0 e3 94 9d 3e 56 73 ee be ac 0f 67 bd 75 88 3b 3e
       0.30777654 -0.4657237 -0.05641143 0.18313773
0003c0 8b 62 6e 3e 44 fc 72 be 5c cd 1e 3e c2 ff b0 3e
       0.23279779 -0.23729044 0.15508026 0.34570128
0003d0 98 0f e2 3e 0c fd 56 3e 52 03 96 be 3e ea f3 3e
       0.44152522 0.20994967 -0.29299408 0.4763965
0003e0 39 62 f4 3e 87 ae 7a 3e f1 6f 51 3b b4 7c 35 be
       0.47731188 0.2448064 0.0031957591 -0.17723352
0003f0 88 16 ac be 50 d4 5b 3e a2 68 b8 bc 60 fb 91 3e
       -0.3361094 0.2146771 -0.02251083 0.28512096

fc1.bias f4 [64]
000000 0a 55 a6 3e 5c 5a 96 ba f4 b9 78 bc 44 0b 12 3e
       0.32486755 -0.0011471021 -0.015181053 0.1426211
000010 fe 22 e7 be 30 5b ea be 40 44 73 be da f5 db 3e
       -0.45143884 -0.45772696 -0.23756504 0.42961007
000020 56 51 aa bc 6e 27 a9 be 1a 03 e8 3e 80 79 d9 bb
       -0.020790737 -0.33037895 0.45314866 -0.0066367984
000030 62 e6 ce bd b6 8d ea 3e 48 ce e5 bd 7f ca 24 be
       -0.10102536 0.45811242 -0.11220986 -0.16092871
000040 fc bf d4 3e a4 06 77 be 21 78 f4 bd 01 2f 04 3e
       0.41552722 -0.24123627 -0.11936975 0.12908556
000050 0b 68 fe 3d f1 18 94 be 04 42 0e 3e d0 b5 c0 bd
       0.12422188 -0.2892528 0.1389237 -0.09409678
000060 5b 5b e1 3c 3a 72 89 be ce ae f1 be 2e a3 f6 be
       0.027509382 -0.2684496 -0.47203678 -0.4817137
000070 dc 17 c5 3d 5a 46 22 3e d2 77 da be 2a 40 9c be
       0.096236914 0.1584715 -0.4266954 -0.30517703
000080 c1 34 df 3d 0b 8b 17 be f2 52 19 bd 65 f2 19 be
       0.10898734 -0.14799134 -0.03743262 -0.15033872
000090 08 1b 5e be fa 38 99 3e 89 f3 23 bc b7 2f b3 3d
       -0.21689999 0.29926282 -0.010006794 0.08749335
0000a0 ba 30 ee 3d 38 96 3f be 17 b4 46 3e 7e 6c a2 3e
       0.116303876 -0.18709648 0.19404636 0.31723398
0000b0 26 4e cc be 8e 0c c3 3e 2f 9e 0e bb b0 63 dd be
       -0.39903373 0.38095516 -0.0021761765 -0.43240118
0000c0 07 a4 d8 bd 92 23 b1 be ee 93 8c 3e a8 4b 44 be
       -0.10578161 -0.3459745 0.2745661 -0.19169486
0000d0 64 72 f1 3e 70 60 4f be b6 89 31 3e 14 ff ad be
       0.47157586 -0.20251632 0.17337689 -0.33983672
0000e0 92 d1 c9 be 21 5b 75 ba 54 9a 40 be 0d 8c d6 3e
       -0.39417702 -0.00093595876 -0.18808872 0.41903725
0000f0 7c 13 97 3e 86 2b b6 be 5e 81 f7 3c 8b 9f 05 be
       0.29507053 -0.3558008 0.030213054 -0.13049142

fc2.weight f4 [2, 64]
000000 37 15 97 bd 31 2f 52 bb ad 11 46 3c 70 e7 df 3d
       -0.07377093 -0.0032071585 0.012089175 0.10932815
000010 aa 92 b2 3d c0 17 1e bd 1c 65 8e 3d a7 3b 1a bd
       0.0871938 -0.03859687 0.06952879 -0.037654545
000020 f8 9c 90 3d 80 35 df bd d6 5d b5 bc f4 2b 68 3d
       0.070611894 -0.10898876 -0.022139471 0.056682542
000030 cd 31 eb 3d 67 ba f3 3d 73 85 16 3c 24 05 c7 bc
       0.11484108 0.11900788 0.00918709 -0.024294443
000040 39 28 9b 3d 60 37 ea bc a7 94 aa 3b 16 02 ce bd
       0.07576031 -0.028590858 0.005205709 -0.100589916
000050 82 44 bb 3d e3 7f b1 3d 77 66 ab bd b5 5b fe bd
       0.09143926 0.086669706 -0.08369153 -0.124198355
000060 fd 60 f4 3d 64 cf 82 3d 86 27 bf bd 10 17 e6 bd
       0.119325615 0.06387213 -0.0933371 -0.112348676
000070 67 b9 19 bd 2b 4a 41 bd b0 7d 63 bc 1c 00 cc 3d
       -0.03753033 -0.047189873 -0.013884947 0.09960958
000080 c0 42 ed bd 76 f0 88 bd 1c 88 af 3d f6 e9 9c 3d
       -0.11584997 -0.06686489 0.08570883 0.07661812
000090 5f 45 a4 bd 5e a1 88 3d 0a cf 5b 3d a7 54 4b 3c
       -0.08021044 0.06671403 0.053664245 0.012410319
0000a0 05 ac d4 3d e8 20 e6 bc f8 a5 a0 bb b0 e7 48 3c
       0.103843726 -0.028091863 -0.0049025975 0.01226227
0000b0 ba 92 b4 bd 2f 65 bf bc 0b 51 42 bd b0 cd 3b 3d
       -0.08817048 -0.023363678 -0.04744057 0.045850456
0000c0 d1 44 e4 bd 50 1a 3f 3c af 53 43 3b 9a c0 a5 3d
       -0.11145938 0.011663988 0.0029804518 0.080933765
0000d0 43 2c 22 3c f5 b6 1d bd a8 cf 90 bd 20 a7 18 3c
       0.009898248 -0.03850456 -0.07070857 0.009317189
0000e0 be 9b bf bd 5f a5 58 bd 88 c5 0b bd cc 26 d4 3d
       -0.09355877 -0.052892085 -0.034123927 0.103589624
0000f0 61 37 3b 3d c8 7a b2 3d 1c 62 02 bc 55 34 64 3d
       0.04570711 0.08714825 -0.007957961 0.05571397
000100 df d8 1e bd c9 5e 69 bd 62 b4 b4 bd 79 53 10 bd
       -0.038781043 -0.05697516 -0.08823468 -0.035235856
000110 18 54 3d 3d a8 c9 c9 bc 94 e9 04 bd 6e 19 a3 bd
       0.046222776 -0.02463229 -0.03244932 -0.07963835
000120 cb 2b 76 3d f0 71 25 3d 1e 06 8a 3d 0a 4b de bd
       0.060100358 0.040391862 0.06739448 -0.10854156
000130 c5 40 a8 bd a7 82 34 3d ad c8 4c 3c 25 22 ad 3d
       -0.08215479 0.044069912 0.012499017 0.08453778
000140 4e 3b df 3d 38 b7 a9 bd 3c 5c fd bd 06 34 e2 bb
       0.10899983 -0.08286899 -0.12371108 -0.0069031743
000150 08 9c d0 3d 4b 98 a9 bc 83 5a 12 bd 1d 31 ce bd
       0.101860106 -0.020702502 -0.03573085 -0.10067961
000160 05 a8 cb bd 36 10 af 3d 88 dd 29 bd 20 56 fd bb
       -0.099441566 0.08548014 -0.041471034 -0.007731214
000170 f1 28 1e bd fd 84 04 3c 88 16 d7 3c 34 3c 4f 3d
       -0.038613264 0.0080883475 0.02625586 0.050594524
000180 20 b2 00 3e c3 07 5d 3d ab 21 02 3d 65 b5 b0 3d
       0.1256795 0.05396248 0.03177039 0.08628348
000190 9b 83 96 bd f8 be af 3d 35 c2 a8 bd cb 0c b8 3a
       -0.073493205 0.08581346 -0.08240167 0.0014041899
0001a0 05 b7 ce bd c0 f4 a2 3b e3 2b 49 3d 2c 22 95 bd
       -0.10093502 0.004973024 0.04911412 -0.072819084
0001b0 d8 92 93 3d f3 e5 00 3d 63 4d 5f 3d 28 18 cf 3d
       0.072057426 0.031469297 0.05451716 0.10112029
0001c0 02 35 2a 3d 5a 73 e5 3d f7 e4 a0 bd 70 69 b5 3d
       0.04155446 0.11203642 -0.078561716 0.08858001
0001d0 68 16 c1 bd 07 69 78 bd dc da bc bd 28 79 f1 bd
       -0.09428102 -0.060647037 -0.092214316 -0.11790687
0001e0 86 ef ee bd bf 32 22 3d 00 17 0a bb 88 14 c3 3d
       -0.11666779 0.039599176 -0.0021070838 0.095254004
0001f0 9f d6 00 3e 64 cc 1f bd 99 4b b7 bd 97 39 fd 3d
       0.12581871 -0.03901328 -0.08949966 0.123645

fc2.bias f4 [2]
000000 50 a9 9c bd 20 8c f7 3d
       -0.07649481 0.120872736
