reinforcement_learning/reinforce/reinforce_500.pth (torch, 3968 bytes, 4 tensors)

fc1.weight f4 [64, 4]
0	0xbd9182cc	-0.07105026
1	0x3e031ad0	0.12803197
2	0xbf20f16a	-0.6286837
3	0xbf1727a1	-0.59044844
4	0x3efa85ca	0.48930198
5	0x3de916a3	0.11381271
6	0x3e979483	0.29605493
7	0x3ea0e728	0.31426358
8	0xbe7837bc	-0.24240011
9	0x3c222fff	0.0098991385
10	0xbf1e62ff	-0.61869806
11	0xbd89794d	-0.067125894
12	0x3e3b8eb7	0.1831616
13	0xbe89895f	-0.26862618
14	0x3e891d62	0.2678023
15	0x3e5e9754	0.21737415
16	0xbeef16e6	-0.46697158
17	0x3ddc6a2a	0.10762437
18	0x3e880436	0.26565713
19	0x3ecf0478	0.40433097
20	0x3e3aef3e	0.18255326
21	0xbde51e8f	-0.11187469
22	0xbe8b12d0	-0.2716279
23	0xbea38d3a	-0.31943685
24	0x3d14a8d3	0.036293816
25	0xbef4922a	-0.47767764
26	0x3d611d1b	0.054959398
27	0xbcab9790	-0.020946294
28	0x3eefe0b7	0.4685113
29	0x3d77fc54	0.060543373
30	0x3e1dd36b	0.15412681
31	0xbe958cfd	-0.29209128
32	0xbd3eac5e	-0.0465511
33	0x3eea9ca9	0.45822647
34	0x3e7bbbf6	0.2458342
35	0xbe852383	-0.26003656
36	0x3e950ac5	0.2910978
37	0xbebbe7e3	-0.36700353
38	0xbec57c6c	-0.3857149
39	0xbe95214b	-0.29126963
40	0x3e0ecd81	0.13945581
41	0xbec2b7b7	-0.38030788
42	0x3f02b91b	0.510637
43	0x3d33c6ed	0.043890882
44	0x3efb8b3a	0.4912966
45	0xbea037ce	-0.31292576
46	0x3e923062	0.28552538
47	0xbeb840f8	-0.35987067
48	0xbdfdec4e	-0.12398587
49	0x3eec94c6	0.46207255
50	0xbf0fd750	-0.56187916
51	0xbe17e1f4	-0.14832288
52	0x3ec284b9	0.37991884
53	0xbeb10e63	-0.3458129
54	0xbea78a8a	-0.32722884
55	0xbe1d4aa5	-0.15360506
56	0x3aaffb9a	0.0013426424
57	0x3f033c13	0.5126354
58	0x3d68ce56	0.056837402
59	0x3ab32a13	0.0013669155
60	0xbf010847	-0.50403255
61	0x3dce0574	0.10059634
62	0x3f00fa74	0.5038216
63	0xbee1d511	-0.4410787
64	0x3d909219	0.07059116
65	0xbea74904	-0.32672894
66	0xbe0527d1	-0.1300347
67	0xbecf6229	-0.40504578
68	0x3e47cdb0	0.19512057
69	0x3e33e514	0.17567855
70	0x3e9f4943	0.31110582
71	0xbef64bf5	-0.48104826
72	0x3e5a016d	0.21289606
73	0x3e5e8b18	0.21732748
74	0xbe2072ed	-0.1566884
75	0xbeb58022	-0.3544932
76	0xbf018ba8	-0.50603724
77	0x3e7ab838	0.24484336
78	0x3ea77926	0.32709616
79	0x3ed40876	0.41412705
80	0x3eb3dbfd	0.35128775
81	0x3ee3ea87	0.44514868
82	0xbec7f4d7	-0.39053985
83	0x3ea58927	0.323312
84	0xbeeeae53	-0.46617374
85	0x3ea86c60	0.32895184
86	0x3e1061de	0.14099833
87	0x3ec7f52b	0.39054236
88	0xbec3d7ae	-0.38250488
89	0xbee95213	-0.4557043
90	0x3f00fdb2	0.5038711
91	0xbe3394f8	-0.17537296
92	0xbe8c76ac	-0.2743429
93	0xbebf04ba	-0.37308294
94	0x3def95ff	0.11698531
95	0x3af4cb46	0.0018676303
96	0xbe493085	-0.19647415
97	0x3e2e4f08	0.17022336
98	0xbe16f1e6	-0.14740714
99	0xbd8c520b	-0.06851586
100	0xbe8306ea	-0.25591213
101	0xbd622c1b	-0.055217844
102	0x3ceb3c71	0.028715344
103	0xbd94f04b	-0.07272395
104	0x3e9c4205	0.3051912
105	0x3e265cb9	0.16246308
106	0xbed1c993	-0.409741
107	0xbe6e7fa1	-0.23290874
108	0xbe843162	-0.25818926
109	0xbe0dc7d8	-0.13845766
110	0x3edc4f05	0.43029037
111	0x3d8c59a4	0.06853035
112	0xbe999375	-0.29995313
113	0x3e9efef9	0.31053904
114	0xbf1eaa4b	-0.61978596
115	0xbdea9f87	-0.11456209
116	0x3edade84	0.4274789
117	0x3dd21738	0.10258335
118	0xbe53c8fb	-0.20682137
119	0xbec3e578	-0.38261008
120	0xbd9c1807	-0.0762177
121	0x3e3f1923	0.18661933
122	0x3d134186	0.03595116
123	0xbd8ec5dc	-0.069713324
124	0x3e0b4db0	0.13603854
125	0xbeb59ad1	-0.35469678
126	0x3e1edbc2	0.15513518
127	0xbee509bf	-0.44733998
128	0xbe9e66a2	-0.30937678
129	0x3e177496	0.14790568
130	0x3ef29098	0.4737594
131	0x3e42f03c	0.19036955
132	0x3e9d21db	0.30689892
133	0x3ed9a260	0.42506695
134	0x3f190517	0.5977339
135	0x3ecda60b	0.40165743
136	0xbe79c1d7	-0.2439035
137	0x3effe3dd	0.49978533
138	0xbec1b54f	-0.3783364
139	0x3e1f2b5c	0.15543884
140	0xbf0be0b7	-0.5463976
141	0xbdaf8819	-0.085708804
142	0x3f0cc2a1	0.5498448
143	0x3ee14ead	0.44005337
144	0xbeb89742	-0.360529
145	0xbede3a00	-0.43403625
146	0x3d29aa34	0.041422084
147	0x3e0ef8ae	0.13962051
148	0x3dc29432	0.09500922
149	0x3e911f7d	0.28344336
150	0xbe376265	-0.17908628
151	0x3f0f5c00	0.55999756
152	0xbd45c944	-0.048287645
153	0xbe1d9903	-0.153904
154	0xbd97ac7d	-0.074059464
155	0xbda63ff0	-0.08117664
156	0xbe86629b	-0.26247105
157	0xbe349c0e	-0.17637655
158	0xbc8f2c1c	-0.017477088
159	0x3d491aa9	0.04909769
160	0xbecd01dd	-0.40040484
161	0x3e9983fb	0.29983506
162	0xbf1dc4eb	-0.616286
163	0xbf006e65	-0.5016845
164	0x3e213dd5	0.15746243
165	0xbe524e2b	-0.20537631
166	0xbe40d2cc	-0.18830413
167	0xbebe8a0e	-0.37214702
168	0x3d534bca	0.05158595
169	0x3ec9d5b3	0.39420852
170	0x3c89c05e	0.01681536
171	0xbe99118d	-0.29896203
172	0x3e7a92ee	0.24470112
173	0xbef27949	-0.47358158
174	0xbed82643	-0.4221669
175	0xbd108c91	-0.035290305
176	0x3ea00ba1	0.31258872
177	0xbe184b12	-0.14872387
178	0xbe6a735b	-0.22895567
179	0x3e4d3e17	0.20043217
180	0xbee423d3	-0.44558582
181	0xbe65328b	-0.22382562
182	0x3e16e5aa	0.14736047
183	0x3f1d9652	0.61557496
184	0x3de65b7a	0.112479165
185	0xbe5b6aac	-0.21427411
186	0xbe2f4d1a	-0.17119256
187	0xbe977812	-0.29583794
188	0xbe227c1f	-0.15867661
189	0xbee0a9b2	-0.43879467
190	0xbe019892	-0.12655857
191	0xbe981f69	-0.29711464
192	0xbdb8dfc3	-0.09027054
193	0x3df30f37	0.118681364
194	0x3e2ba8d4	0.16763622
195	0x3e8e8616	0.27836674
196	0x3d8cf090	0.06881821
197	0x3e8c362f	0.2738509
198	0xbeb22e2d	-0.34800854
199	0xbd06f543	-0.032948744
200	0x3dcf7078	0.101288736
201	0x3e69a511	0.22816874
202	0x3d2c45a6	0.04205861
203	0xbf0e1da6	-0.5551399
204	0x3c8637db	0.016384056
205	0xbdfde0fd	-0.12396429
206	0xbe0ca94c	-0.13736457
207	0xbe80f9ce	-0.25190586
208	0xbcfa723e	-0.030572053
209	0x3ee52912	0.44757897
210	0x3e74ac8a	0.23893943
211	0x3cca39f3	0.024685835
212	0x3efa9ab3	0.4894615
213	0x3f054cef	0.52070516
214	0xbdd13e58	-0.10216969
215	0xbeaa60b4	-0.33276904
216	0xbf12aaa8	-0.5729165
217	0xbe8b9f80	-0.27270126
218	0x3e86f47a	0.26358396
219	0x3edc63a8	0.43044782
220	0x3c0e0040	0.008667052
221	0x3d926cd0	0.071496606
222	0xbeed0188	-0.4629023
223	0x3d97c858	0.074112594
224	0xbed1790a	-0.40912658
225	0xbed7693f	-0.42072484
226	0xbe6bf7c3	-0.23043732
227	0xbe8ec3d7	-0.2788379
228	0xbecb9eb2	-0.39769512
229	0x3e9b7f3c	0.3037051
230	0x3f0213a0	0.50811195
231	0xbee318ed	-0.44354954
232	0xbcbc4464	-0.02298183
233	0xbe049319	-0.12946738
234	0xbebc7227	-0.3680584
235	0xbe57e590	-0.21083665
236	0x3e5d3f53	0.21606188
237	0xbedd1694	-0.43181288
238	0x3e456cc9	0.1927978
239	0x3e99620c	0.29957616
240	0x3e112d66	0.14177474
241	0xbe175248	-0.14777482
242	0x3eeb4622	0.45951945
243	0x3eeabb91	0.45846227
244	0x3ed6bc46	0.41940516
245	0x3e5163d1	0.20448233
246	0xbe9db4fb	-0.3080214
247	0x3eed5cf2	0.46359974
248	0x3f0abd7f	0.541954
249	0x3e848c92	0.25888497
250	0xbe36e332	-0.17860106
251	0xbe8b3d7d	-0.2719535
252	0xbebb467c	-0.36577213
253	0x3e837d3c	0.25681484
254	0x3e49586f	0.19662641
255	0x3ec14a34	0.37751925

fc1.bias f4 [64]
0	0x3ec7ac64	0.3899871
1	0x3db1d9b6	0.08684103
2	0x3dd5d222	0.1044047
3	0x3db62ef5	0.08895675
4	0xbeecbd2c	-0.46238077
5	0xbee89261	-0.45424178
6	0xbe84b9ab	-0.25922903
7	0x3eeb59a9	0.45966843
8	0x3c04c820	0.008104354
9	0xbeae9a18	-0.3410194
10	0x3edf96e4	0.43669808
11	0x3de1d2ba	0.11026521
12	0xbd409e1f	-0.047025796
13	0x3ef804f7	0.48441288
14	0xbdbb24c0	-0.09137869
15	0xbe5180db	-0.2045931
16	0x3ee39765	0.44451442
17	0xbe11a2f7	-0.14222322
18	0xbd21f7ca	-0.03954295
19	0x3e6d9fa8	0.23205435
20	0x3e09f22c	0.13471287
21	0xbea17203	-0.31532297
22	0x3dfe403c	0.124145955
23	0xbdd118bf	-0.10209798
24	0x3d291d73	0.04128785
25	0xbe939e1a	-0.2883156
26	0xbef6e371	-0.482204
27	0xbeee7334	-0.46572268
28	0x3e1bfaca	0.15232387
29	0x3e492322	0.19642308
30	0xbedb2bb2	-0.42806774
31	0xbea35cd2	-0.31906754
32	0x3e1960a1	0.14978267
33	0x3d581184	0.05275108
34	0xbcdd85bc	-0.027041309
35	0xbcafb6d0	-0.021449476
36	0xbe564ccc	-0.20927733
37	0x3e920704	0.28520977
38	0x3d274462	0.0408367
39	0x3dc39a5c	0.09550926
40	0x3e408576	0.18800911
41	0xbe73447b	-0.23756592
42	0x3e49a620	0.19692278
43	0x3eae0405	0.33987442
44	0xbebe483a	-0.3716448
45	0x3eda7666	0.42668456
46	0xbd4ce0f4	-0.05001922
47	0xbef0ac03	-0.47006235
48	0x3d6c805e	0.057739608
49	0xbeb3636c	-0.3503679
50	0x3eabf6e5	0.33586803
51	0xbe534523	-0.20631842
52	0x3efb3935	0.49067083
53	0xbe0cd2af	-0.13752244
54	0x3e696421	0.22792102
55	0xbeadff14	-0.33983672
56	0xbedfbb1e	-0.43697447
57	0xbd0bd8c1	-0.03414226
58	0xbe4bb608	-0.19893658
59	0x3ed378b0	0.41303015
60	0x3eaf32c8	0.3421843
61	0xbebe6f02	-0.37194067
62	0x3dbbc1ba	0.0916781
63	0x3dab0d46	0.08352141

fc2.weight f4 [2, 64]
0	0xb9d94e1a	-0.00041447656
1	0xbdbcbad9	-0.09215326
2	0x3e650474	0.2236498
3	0x3d3c3a76	0.04595419
4	0x3d99be3d	0.07506988
5	0xbd182670	-0.03714603
6	0x3d875261	0.066075094
7	0x3b4936bd	0.0030702793
8	0x3de08938	0.109636724
9	0xbdb15bc8	-0.08660084
10	0xbd0bb823	-0.034111153
11	0x3e453416	0.1925815
12	0x3e2dcbfc	0.16972345
13	0x3e243bf5	0.16038497
14	0x3cc0926a	0.023507316
15	0x3c5d222c	0.013496917
16	0x3e12ba60	0.14328909
17	0x3cc6d6a0	0.024272263
18	0x3d87cbf9	0.066307016
19	0xbe76a6ac	-0.24087018
20	0x3d9be921	0.07612825
21	0x3da66915	0.081255116
22	0xbd9d1b5a	-0.076712325
23	0xbdfeeac6	-0.12447123
24	0x3e2039ba	0.15647021
25	0x3d9ff525	0.078104295
26	0xbdb18080	-0.086670876
27	0xbe02ca39	-0.12772454
28	0x3cac9f6f	0.021072118
29	0x3ca2ced0	0.019874007
30	0xbcba7d75	-0.0227649
31	0x3dcd8b66	0.10036354
32	0xbe8c8a1b	-0.27449116
33	0xbe538d2b	-0.2065932
34	0x3daab8bf	0.08336019
35	0xb938d3d9	-0.00017626527
36	0xbdd1d2cf	-0.10245287
37	0xbc59065b	-0.013246144
38	0x3db9d594	0.0907394
39	0x3b80355c	0.003912611
40	0x3e30816c	0.1723687
41	0xbc5f7d0d	-0.013640654
42	0x3d28e145	0.04123046
43	0x3d0ce665	0.03439941
44	0xbda63676	-0.08115856
45	0xbdbc3a34	-0.09190789
46	0x3cbee587	0.023302807
47	0x3d627093	0.05528314
48	0xbe65a699	-0.22426833
49	0x3cab012f	0.020874588
50	0x3d822f32	0.06356658
51	0x3da405cf	0.080089204
52	0x3bcc0cb0	0.0062270984
53	0x3c6961cd	0.014244509
54	0xbe048764	-0.12942272
55	0x3c18a720	0.009317189
56	0xbdc82b99	-0.097739406
57	0xbc20e325	-0.0098197805
58	0xbd2f6779	-0.04282329
59	0x3d8eae8c	0.06966886
60	0xbd139817	-0.036033716
61	0x3d8263b5	0.06366674
62	0x3d5b50e2	0.053543933
63	0xbda916eb	-0.082563244
64	0xbde5a859	-0.112137504
65	0x3d02f3fd	0.031970967
66	0xbe997eca	-0.29979545
67	0x3ce681d0	0.028138071
68	0x3d6efd11	0.05834681
69	0xbcd5ac50	-0.026083142
70	0xbced8822	-0.028995577
71	0xbdf68100	-0.120363235
72	0x3caca68c	0.02107551
73	0x3c937d20	0.018004
74	0x3da28ab8	0.07936615
75	0xbe7a4e9e	-0.24444053
76	0xbe0c537a	-0.13703719
77	0x3b307b96	0.0026929132
78	0xbaeeb517	-0.0018211928
79	0x3d3f791a	0.04674635
80	0x3d29dd9c	0.04147111
81	0xbe0afd5d	-0.13573213
82	0xbe3d3f72	-0.18481234
83	0x3e0893ff	0.13337706
84	0x3deff768	0.11717111
85	0xbc7a7a2c	-0.015287917
86	0xbd2ef0b3	-0.042710017
87	0xbdcda20e	-0.10040675
88	0xbe0bdd3d	-0.13658614
89	0x3d91ea75	0.07124797
90	0xbd452b8a	-0.048137225
91	0x3bfa8029	0.0076446724
92	0xbdc71905	-0.09721569
93	0xbd719047	-0.058975484
94	0x3d0fea90	0.035135806
95	0x3d4c25b4	0.049840644
96	0x3e919279	0.28432062
97	0x3e4656e2	0.1936908
98	0x3d0bc066	0.034119032
99	0x3e26fde0	0.16307783
100	0xbd51ec52	-0.051250763
101	0x3e29c095	0.1657737
102	0xbdf4b046	-0.11947684
103	0x3c223b9f	0.00990191
104	0xbe2d86eb	-0.16945998
105	0xbc1b4a5d	-0.009478179
106	0x3b435e61	0.0029810893
107	0xbdc2786a	-0.094956234
108	0x3d85368c	0.065045446
109	0x3dccd3e1	0.1000135
110	0xbc84ece2	-0.016226236
111	0x3dbbc6b5	0.0916876
112	0x3e1e116f	0.15436338
113	0x3dd2965c	0.10282585
114	0xbe0e7cc8	-0.13914788
115	0x3db7243b	0.08942457
116	0xbdb991a6	-0.09060983
117	0xbde83c3e	-0.11339615
118	0xbd093784	-0.03350021
119	0xbdf17928	-0.11790687
120	0xbde65fab	-0.11248716
121	0xbb639d51	-0.003473122
122	0x3bd80484	0.006592335
123	0x3e044661	0.12917472
124	0x3e548a82	0.20755962
125	0xbc7e78ea	-0.015531758
126	0xbe1aa02b	-0.15100162
127	0x3e861aab	0.2619222

fc2.bias f4 [2]
0	0xbd6d9d41	-0.058011297
1	0x3dd1b161	0.102389105
