reinforcement_learning/reinforce/reinforce_0.pth (torch, 3952 bytes, 4 tensors)

fc1.weight f4 [64, 4]
000000 34 a2 0f be 02 ab a8 3e dc 69 db 3e c1 d5 7e 3e
       -0.1402672 0.3294297 0.42854202 0.24886228
000010 26 9f 23 be 11 ff be 3b 99 64 10 3e a4 39 d8 3e
       -0.15978679 0.005828746 0.14100875 0.42231476
000020 14 7d 41 be 6a 0b aa 3e 70 14 da 3e e0 54 f9 bc
       -0.1889537 0.33211833 0.42593718 -0.03043598
000030 50 3d 1f 3d 54 08 ad be 15 dd c8 bd 47 51 5f 3e
       0.03887683 -0.33795416 -0.09807793 0.21808349
000040 10 03 d6 bd 04 84 92 be 70 00 d4 bd 88 fb a3 be
       -0.10449803 -0.28616345 -0.10351646 -0.3202784
000050 d0 d9 70 3d c8 f3 23 3e 20 1a a3 be 70 a4 63 be
       0.058801472 0.16010964 -0.3185587 -0.22230697
000060 94 fd bd 3e 9c 54 22 be 8c 87 e9 be 80 3e 51 3e
       0.37107527 -0.15852588 -0.45611227 0.20433998
000070 10 c0 a1 3d 8a 3d a9 be 6e a1 8e 3e 0e 00 81 3d
       0.07897961 -0.33054763 0.27857536 0.062988386
000080 2e 83 70 be 62 ef de 3e 3f 91 83 3e 74 69 e0 be
       -0.23487541 0.4354201 0.2569675 -0.43830454
000090 a4 53 f1 be bf ba a9 3e e5 d6 2b 3d 26 b5 e4 be
       -0.47134125 0.33150288 0.041952986 -0.44669455
0000a0 f1 e9 9f bd 42 d1 c4 3e d6 e3 a5 3e b4 ae b1 3e
       -0.07808293 0.384409 0.32400388 0.347036
0000b0 11 8e a9 be 49 7f 0b 3e a9 d6 03 bc fc af c3 3e
       -0.331162 0.13622774 -0.008046784 0.38220203
0000c0 31 63 dc be 7a 16 fa 3e 57 89 91 3d e4 06 c1 3e
       -0.43044427 0.48845273 0.071062736 0.3770057
0000d0 f0 95 ec 3e 68 ca cf 3b c1 a3 ea 3d 76 44 93 3e
       0.46208143 0.0063412674 0.11457015 0.2876317
0000e0 21 a4 ba 3e 22 8e af 3e 32 70 e8 be 44 03 34 be
       0.36453345 0.34288126 -0.45398098 -0.1757937
0000f0 c2 3b 8a be 63 c6 5b be f9 c0 9a bb 67 57 94 3b
       -0.26998717 -0.21462397 -0.004722711 0.0045270207
000100 20 58 a1 3c 40 6a 51 3e 60 04 4f 3e e8 5a c9 be
       0.019695342 0.20450687 0.20216513 -0.39327168
000110 f0 95 49 bd 68 1e 10 3e b0 ba 73 bd 60 53 77 be
       -0.049215257 0.14074099 -0.05950421 -0.24152899
000120 07 fb 05 3e 52 02 50 3d 4a b0 24 3e 44 fd ef be
       0.1308404 0.050783463 0.16082874 -0.46872914
000130 29 9a e6 3e 92 76 a4 3e b2 f3 02 be fc 15 a3 3e
       0.4503949 0.32121712 -0.12788275 0.3185271
000140 08 f3 ad be 89 92 a6 3d 7e 05 29 be 47 85 5c 3e
       -0.3397448 0.08133418 -0.16506001 0.21535216
000150 d4 de 6b be ec 8c 63 be 18 fd 2f 3e be 98 d0 be
       -0.23034221 -0.22221726 0.17186391 -0.40741533
000160 be e1 e3 3e 00 95 2c bc 46 37 c4 3e 40 e2 74 3d
       0.44508165 -0.010533571 0.3832342 0.05978608
000170 4e 6d fc be b6 79 bc be 9f d5 ec 3c 82 92 98 3e
       -0.49302143 -0.36811608 0.028910456 0.29799277
000180 78 76 f1 be b2 b9 cc be 27 21 12 be 12 d5 ed be
       -0.47160697 -0.39985424 -0.14270459 -0.46451622
000190 be 1d fe be 96 a3 97 be ae 78 f2 be f2 f5 95 3e
       -0.49632066 -0.29616994 -0.47357696 0.29289204
0001a0 28 1e a3 3e 80 08 fd 3e ae 6a f5 3e 24 7a fb bc
       0.31858945 0.49420547 0.47932953 -0.03069789
0001b0 75 97 e4 be 2a 0f c5 3e 87 4b 9b bd c6 86 97 3d
       -0.44646803 0.38488132 -0.07582765 0.07398753
0001c0 47 82 99 be c4 18 fa be eb 13 b6 3d 2e aa c5 3e
       -0.29982206 -0.4884702 0.08890518 0.386064
0001d0 06 3f 36 bd f7 54 64 3e 41 cc a7 be 52 2f ae 3e
       -0.044493698 0.22298037 -0.3277302 0.34020478
0001e0 77 f1 ea be 05 24 7f 3e b3 42 78 be 40 06 f2 be
       -0.45887348 0.24916084 -0.24244194 -0.47270393
0001f0 80 f3 e0 be c0 82 cb 3d 2f 4b d8 bd e4 f0 e5 be
       -0.43935776 0.09937048 -0.10561215 -0.44910347
000200 98 a6 9f be 02 52 ae be fb da ef bd f3 a1 2d be
       -0.31181788 -0.34046942 -0.11711689 -0.1695631
000210 87 85 3b be 12 65 c3 3e 42 c2 c6 3c fe 66 0a 3d
       -0.18312655 0.38163048 0.024262551 0.033789627
000220 f1 48 1d bb fc 59 93 be 90 aa c9 3e 82 5c c9 3e
       -0.0023999775 -0.2877959 0.3938794 0.3932839
000230 28 ed cd be c3 64 10 3d 74 b6 2e be 5d f7 58 3d
       -0.40219998 0.035252344 -0.17061788 0.05297028
000240 7b 06 c2 be a0 a6 8e bc 42 3d 74 be b2 65 81 be
       -0.3789557 -0.017413437 -0.23851493 -0.252729
000250 24 d8 7f be f2 6b a3 be 0c 12 5b be b4 a4 c4 be
       -0.24984795 -0.31918293 -0.21393603 -0.3840691
000260 38 88 bd be 8b 11 34 3e 10 8d 65 be 62 f4 f4 3d
       -0.3701799 0.17584817 -0.22417092 0.11960675
000270 e0 08 22 3d a8 7e ba 3e 7a 7d 64 3c 64 ec f2 3e
       0.039559245 0.36424756 0.013945932 0.47445977
000280 6c 61 84 3e 7c 42 78 3e 28 dc 7f be b0 18 ad bd
       0.25855577 0.24244112 -0.24986327 -0.084519744
000290 ad 47 0d be bf 1f ff 3d c5 3f 95 3e 7b 66 1a be
       -0.13796873 0.12457227 0.29150215 -0.15078156
0002a0 11 93 dc be 8c 3b a3 be 00 1e e7 3e 23 9b 76 3d
       -0.43080953 -0.31881368 0.45140076 0.060206544
0002b0 13 eb cb be a6 28 e5 3e d0 68 a4 3e a4 2e 13 be
       -0.39827785 0.44757575 0.32111216 -0.1437326
0002c0 bb 68 a2 be 43 b1 3f 3e 1a 6b 62 3d f4 ca f5 3e
       -0.31720528 0.18719964 0.05527792 0.48006403
0002d0 f1 72 27 3e 6c 27 e1 be 3f b1 c7 3b 3b 6c 3b 3e
       0.1635244 -0.4397539 0.0060941274 0.18303005
0002e0 92 d3 e7 3e a2 dd c1 be 58 50 c6 be 4f 88 26 3e
       0.45278603 -0.37864405 -0.38733172 0.16262935
0002f0 5e 60 52 be ea c7 c8 3e 9d 5d cb 3e 96 8f a0 be
       -0.20544574 0.39215022 0.3971986 -0.31359547
000300 33 89 d3 3e 61 4f c8 bd b4 62 b6 3e ac 5f e7 3e
       0.41315612 -0.09780765 0.3562218 0.4519018
000310 f6 84 ec 3e c0 bb 7f be 24 c6 ab 3e e0 5b 0b bd
       0.4619519 -0.24973965 0.33549607 -0.034023166
000320 86 85 7b be 3c 31 00 3f a3 0f eb be ac ca 06 be
       -0.24562654 0.50075126 -0.45910367 -0.1316325
000330 94 d1 b5 3e a9 4a 25 be 19 55 c1 bd df c4 6d 3e
       0.35511458 -0.16141762 -0.09440059 0.23219632
000340 d8 64 ea 3d e0 c6 31 3d 28 88 af 3e 90 33 22 3d
       0.11445016 0.043402553 0.34283566 0.039599955
000350 5c e7 c2 3e 3c 6e a0 3e 0a 7f f0 3e 70 7b 3a 3d
       0.38067138 0.31334102 0.46971923 0.045527875
000360 98 e2 7f be b0 ee b1 3d 00 b8 5c 3b d4 1a 1f 3e
       -0.24988782 0.08688104 0.0033679008 0.15537578
000370 aa 22 29 be 77 d6 9d 3d fa 50 a5 be e8 0d c2 bb
       -0.1651713 0.077069215 -0.32288343 -0.005922068
000380 b9 94 bc 3e 4f 61 8f 3e 97 ce 8b 3e 44 dc fb 3e
       0.36832216 0.28003928 0.27306053 0.49191487
000390 f0 25 3c 3d 7a e6 f5 be ed 7c a6 be aa 1f f9 3e
       0.045934618 -0.48027402 -0.32517186 0.4865697
0003a0 82 da 65 be 80 a0 81 be e2 60 f9 bd cd e2 5a bd
       -0.22446635 -0.25317764 -0.12176682 -0.05343895
0003b0 77 1b e0 be 18 c9 04 3e 3f 07 ae bd 62 db f6 3e
       -0.43770954 0.12967336 -0.08497476 0.4821425
0003c0 4c aa b4 be 37 db cc bd 2c fd 7c 3e 13 b1 38 3e
       -0.35286176 -0.100027494 0.24705952 0.18036298
0003d0 f3 b4 b5 3e 31 9f 4b 3d c4 54 d4 3e ec 82 46 be
       0.35489616 0.049712364 0.4147092 -0.1938588
0003e0 45 b0 15 bd ca 30 c8 be b4 ed d5 3e 53 e6 25 3e
       -0.036545057 -0.39099723 0.41782916 0.16201143
0003f0 1e a9 c5 3e 7c 70 f9 be 5a c1 7a be 71 a2 ad bd
       0.3860559 -0.4871863 -0.2448782 -0.08478249

fc1.bias f4 [64]
000000 37 b1 2c be 32 19 a8 be 58 16 7e be 16 b8 f5 be
       -0.16864477 -0.32831722 -0.24813211 -0.4799201
000010 fe e8 f3 be a6 cb 97 be 92 4c c1 3e 93 bd 53 bd
       -0.47638696 -0.2964756 0.3775373 -0.051694464
000020 56 8f bd 3e 87 41 11 3e 52 35 e0 bd 02 9b ad 3e
       0.3702342 0.14185153 -0.1094767 0.33907324
000030 05 1b 0c 3e 48 3f ff be 11 0f f4 bb 28 b1 9e 3e
       0.13682182 -0.49852967 -0.007448085 0.30994534
000040 38 fe 38 be 08 3f 49 be 1a 0a bd 3d d0 9e 88 3e
       -0.18065727 -0.19652951 0.09230442 0.26683664
000050 6f a6 68 3e 20 f1 27 be 16 25 9d be 3e 5c fb 3d
       0.2271974 -0.16400576 -0.30692357 0.12273453
000060 39 ef 14 3e ea d4 dc 3e 0d f3 5e 3e 50 0f c0 3e
       0.14544381 0.4313119 0.21772404 0.37511683
000070 a3 f8 20 bd f9 39 bc 3d d3 2b 3a 3e 4d 0a 04 3e
       -0.03929962 0.09190745 0.1818078 0.12894554
000080 8f af 45 bd 09 58 d7 3d 8c 44 6d 3e ad 52 46 3d
       -0.04826313 0.10514838 0.2317068 0.04841869
000090 c4 c0 07 3e b8 21 d2 bd 5e 52 b6 3e 70 0e ec be
       0.13257128 -0.102603376 0.35609716 -0.46104765
0000a0 1e ad f5 be fe 15 df 3e 03 14 68 be 34 09 22 3e
       -0.4798364 0.43571466 -0.22663884 0.15823823
0000b0 38 27 ac be 9a e7 9b be 9d cd 4f 3d 16 6e 87 3e
       -0.33623672 -0.30450135 0.050733197 0.26451176
0000c0 ae 9e db 3e 5e 1e a5 be 4b cd b1 3e 15 d2 9f 3e
       0.428945 -0.3224973 0.3472694 0.31214967
0000d0 50 a9 0a be dc 49 9e be d0 52 b0 be 9c 49 d9 3e
       -0.1354115 -0.30915725 -0.3443818 0.42438972
0000e0 7f 86 0f 3e ca c8 b6 3e 40 68 1a be 28 ad 88 be
       0.1401615 0.35700065 -0.1507883 -0.26694608
0000f0 46 34 b6 3e 7f 55 90 3d c2 a7 ef bd 47 d5 24 3e
       0.35586756 0.07047557 -0.11701919 0.16096984

fc2.weight f4 [2, 64]
000000 43 b3 f3 3d 0b 51 fd 3d 6c 67 ec 3d a6 30 de bd
       0.11899426 0.12368973 0.11543164 -0.10849123
000010 28 8a 06 bd 58 05 d8 bd 71 ab 97 3c 29 1a 73 3d
       -0.0328466 -0.10547894 0.018514367 0.05935112
000020 50 14 a0 3d 99 bb d3 ba 8a 72 fb 3d 7e 84 95 3d
       0.07816374 -0.0016153931 0.12277706 0.073006615
000030 4e 14 9e bd 99 80 63 bb c9 3e b9 bd 4c 6a be 3d
       -0.077187166 -0.0034714101 -0.090451784 0.09297618
000040 00 6f a5 bb 8c 07 c9 bd 14 d7 ed bd d3 d0 16 bd
       -0.0050486326 -0.098158926 -0.116132885 -0.036820244
000050 b7 5b 1a bd d0 f4 55 bd 84 a5 48 bd e0 d4 b6 3d
       -0.037685122 -0.052235425 -0.048985973 0.089273214
000060 b2 2d f7 bc f3 0f 12 3c a9 29 25 bd 42 2c e8 3c
       -0.030173156 0.008914935 -0.040322933 0.028341416
000070 c1 96 9b 3c ff 00 23 bd de a1 e3 bd db 47 26 3d
       0.018992784 -0.03979587 -0.11114858 0.04059587
000080 c4 19 82 3d 36 d3 e9 3c 6a 6f dd bd 49 bc ae 3d
       0.06352571 0.028543096 -0.10812266 0.08532006
000090 5a 3d cd bd 14 bd 84 bd 1e 04 e7 bd db 89 a3 bd
       -0.100214675 -0.06481376 -0.11280082 -0.07985278
0000a0 08 66 c3 bc be 16 b2 bd 49 fc 54 bd 8c c1 80 bd
       -0.023852363 -0.08695744 -0.05199841 -0.06286916
0000b0 37 bd f2 3b ed b2 b7 3d c6 76 ad 3b 04 9d b3 bd
       0.00740781 0.08969674 0.0052937 -0.08770183
0000c0 bb 07 fb bb a0 51 e7 3c 21 bc b6 bc 97 71 17 bd
       -0.0076608337 0.028237164 -0.022306504 -0.036973562
0000d0 3c 8f 57 bd d6 00 ba bd 9a 88 d2 bd 8f db 73 bd
       -0.052626833 -0.09082191 -0.10279961 -0.05953556
0000e0 6d e9 40 3d 7e 70 05 bc 9a f7 6b 3d 3e 01 23 3d
       0.047097612 -0.008144496 0.057609178 0.039796107
0000f0 e0 32 ee 3d ec 5e 84 bd 56 d1 8e bc 53 81 48 3c
       0.116307974 -0.064634174 -0.017433804 0.012237865
000100 ce 70 72 bd d2 7c 35 3b 2a 69 c6 bd dc a0 be 3d
       -0.05918961 0.0027692807 -0.09688027 0.09308025
000110 0c a8 fe 3d e0 1f 7f 3c 8f 73 43 3d 1c 17 db bd
       0.12434396 0.015571564 0.047717627 -0.10697767
000120 98 7a 84 bd e1 13 21 3d 02 2c fe bd 7d bc 16 3c
       -0.064686954 0.0393256 -0.124107376 0.009200213
000130 bb 93 09 3d 7f 98 f0 bd 95 48 b7 bc 71 07 3b bd
       0.033588152 -0.11747836 -0.022373477 -0.045661394
000140 86 97 82 3d 70 6c 36 3c 04 ea e4 bd 77 50 ea 3c
       0.06376557 0.011134252 -0.111774474 0.028602822
000150 a2 8d c5 bd 56 62 b7 bd 28 0e 83 bd 4c 8e 8e bd
       -0.09646155 -0.08954303 -0.063991845 -0.06960735
000160 02 85 8b 3c 59 34 84 bc ce 22 b1 bd 1e a8 c2 bd
       0.017031197 -0.016138243 -0.086492166 -0.09504722
000170 39 93 09 bd 4b 43 07 3d c7 33 d2 bc 58 b7 cd bd
       -0.033587668 0.03302316 -0.025659455 -0.10044736
000180 42 ed b6 3b 73 68 75 bd 46 87 b4 bd b7 a8 fa bd
       0.0055824826 -0.059914064 -0.08814864 -0.12239211
000190 67 f6 15 bd 1e 54 dc 3d 82 85 cf 3d e9 69 8a 3d
       -0.03661194 0.107582316 0.101328865 0.06758482
0001a0 20 96 e9 3b 8a a0 cd bc c5 a8 71 3d d2 40 c6 bd
       0.007128492 -0.025100965 0.05899884 -0.09680332
0001b0 8b 63 17 bd fd f7 a5 bd 3e 3f dd bd 83 6c 78 bd
       -0.036960166 -0.08103941 -0.10803078 -0.06065036
0001c0 ff 19 ea 3c c6 2b e9 bd 13 b3 33 bd d9 e5 f3 bc
       0.028576849 -0.11385302 -0.04387195 -0.029772686
0001d0 30 ca f8 3d 4a dc e8 3d f0 7f 55 3c bb 2b 1f 3d
       0.12147939 0.11370142 0.013030991 0.038860064
0001e0 8f 3d 69 3d 2b 52 2f 3d d8 7a 71 bc b1 a6 d1 3d
       0.056943472 0.04280297 -0.014738761 0.10236872
0001f0 e5 30 22 bd fa f8 e9 3c b0 ca c4 bd 45 1b 3a bd
       -0.03959741 0.028561104 -0.09608972 -0.045436163

fc2.bias f4 [2]
000000 48 e9 ff bd a4 e6 c4 3d
       -0.12495667 0.09614304
