reinforcement_learning/reinforce/reinforce_750.pth (torch, 3968 bytes, 4 tensors)

fc1.weight f4 [64, 4]
000000 df 5c 2c be 76 bf 8d 3e 42 a5 c1 3e 59 35 79 3e
       -0.16832303 0.27685136 0.37821394 0.24336757
000010 91 bb a5 bd 0b bf 59 3d 69 55 00 3e 86 52 c9 3e
       -0.08092416 0.05316071 0.12532581 0.39320773
000020 a2 be 3a be c3 21 a5 3e 04 9e 9f 3e 9f 40 8f bd
       -0.18236783 0.3225232 0.31175244 -0.06994747
000030 f3 74 a6 3d f3 8e b4 be 66 08 61 bd 8a 4d 7f 3e
       0.08127775 -0.35265312 -0.05493965 0.24931923
000040 ce ad 6d bd f6 63 69 be 22 10 20 bd 1b 20 a3 be
       -0.05802708 -0.22792038 -0.039077885 -0.31860432
000050 0c 29 5e bc 10 5e ea 3d ec 5b 96 be 05 6e 43 be
       -0.013559591 0.11443722 -0.29367006 -0.19084938
000060 1b 44 56 3e 13 72 21 be b3 37 75 bd 16 59 d4 3e
       0.20924418 -0.15766172 -0.059867572 0.41474217
000070 b3 82 c4 3d 9e 10 a4 be 47 61 09 3e 12 56 0a bc
       0.095952414 -0.32043928 0.13416015 -0.008443372
000080 ee c5 8c bd dd 28 d2 3e ea db fe bd cd f5 1f bf
       -0.068736896 0.410468 -0.12444289 -0.6248444
000090 9b f6 a6 be 5a 0c 87 3e 32 b4 c2 be 46 fb 27 bf
       -0.3261002 0.2637661 -0.38028103 -0.6561779
0000a0 f1 8f c5 bd c1 19 af 3e 08 46 5d 3e 51 80 99 3e
       -0.09646595 0.34199336 0.21608746 0.2998071
0000b0 d8 ab a2 be fe 1d 9a 3e d5 55 e7 3e 37 14 1a 3f
       -0.3177173 0.30101007 0.45182672 0.60187095
0000c0 4f 53 05 bf 09 f1 f6 3e 9c ee f5 3e 04 da 1b 3f
       -0.52080244 0.4823077 0.48033607 0.6087954
0000d0 a7 be e6 3e 11 f0 02 3c 10 f7 02 bd dd a9 5f 3e
       0.4506733 0.007991807 -0.0319739 0.21842141
0000e0 51 53 d3 3e f7 4f 94 3e 4e 9e 44 bf 41 cc 98 be
       0.41274503 0.28967258 -0.76804054 -0.29843333
0000f0 77 3e ba bd 40 ae 49 be de d3 cc be 12 c5 3f be
       -0.090939455 -0.19695377 -0.40005392 -0.1872752
000100 13 35 83 3b 5e b0 32 3e 84 ef 57 3e 06 ae bc be
       0.0040041297 0.17450091 0.21087462 -0.3685152
000110 7c f9 9c bd 35 52 c5 3d b6 af 01 bd 7a 50 4e be
       -0.07664773 0.0963482 -0.03166171 -0.20147887
000120 3a cd 69 3e 2a a5 01 bd 9b 41 af be 9e 64 3b bf
       0.22832194 -0.031651653 -0.3422974 -0.73200405
000130 97 5f 81 3e 0b 01 9c 3e 73 4d 9f 3e cb ed 09 3f
       0.25268242 0.30469546 0.31113777 0.5387847
000140 3b 88 9c be f7 34 2a 3e 01 d8 81 bd d4 79 56 3e
       -0.30572686 0.16621767 -0.063400276 0.20944911
000150 b5 d4 ad bd 91 56 3f be 65 12 4c be 12 5d 22 bf
       -0.08487836 -0.18685366 -0.19928892 -0.63423264
000160 be 98 dd 3e cc 46 ed bc 45 3e 2b 3e 07 65 a8 bd
       0.43280596 -0.028964423 0.16722973 -0.082223944
000170 00 aa cf be c9 4d ba be 6c ca c4 bd 07 12 6c 3e
       -0.40559387 -0.3638747 -0.096089214 0.23053752
000180 b8 4a 8b be f0 fe d9 be 72 9b 14 bf 19 1d 2f bf
       -0.27205443 -0.42577314 -0.5804969 -0.68403774
000190 a9 9d 1b bf 94 35 52 be 27 7a 96 bd ad b0 01 3f
       -0.60787445 -0.20528251 -0.073475175 0.5066021
0001a0 8e 22 f0 3e 75 5d 01 3f 60 0d 03 3e b4 e4 63 be
       0.46901363 0.5053323 0.12798071 -0.22255212
0001b0 d0 ac 97 be f0 5d c5 3e 91 ad e0 be 23 9e da bd
       -0.29624033 0.3854823 -0.4388242 -0.106746934
0001c0 85 8f b2 be c8 ca d5 be ac 38 a9 3e e5 2d f4 3e
       -0.34875122 -0.41756272 0.3305105 0.47691265
0001d0 c2 79 49 be 0d 7b 87 3e 0a 59 22 3e 58 cf 13 3f
       -0.19675353 0.26461068 0.15854278 0.57738256
0001e0 e7 54 b8 be 15 a9 41 3e 5e 94 02 bf 39 ef 0b bf
       -0.36002275 0.18912156 -0.5100764 -0.546619
0001f0 c2 1f 7c be d2 f2 ab 3d d9 56 f8 be 1f 15 1f bf
       -0.2462149 0.08395924 -0.4850376 -0.62141603
000200 a7 ee 01 be c6 ec ab be 1e 11 0c bf 55 8d d1 be
       -0.12688695 -0.3357908 -0.5471362 -0.4092814
000210 c4 5e d1 bc 43 18 c6 3e 82 e8 9d be bf b4 0f be
       -0.025557883 0.38690385 -0.30841452 -0.14033793
000220 0c 8c 5d bd 9d ef fe bd 52 7b 65 3f ae 3b 20 3f
       -0.054088637 -0.12448046 0.89641297 0.62591064
000230 55 bf 52 be 8f db 40 3d 6f 7f 0a bf 53 0e 05 be
       -0.205808 0.047084387 -0.541007 -0.12993746
000240 5d a8 36 be 0d 36 79 bd 34 92 2e bf 38 83 e5 be
       -0.17837663 -0.060842562 -0.6819184 -0.44826674
000250 79 43 86 be a2 db a6 be d7 6e f2 bd 11 00 aa be
       -0.26223353 -0.32589442 -0.11837547 -0.33203176
000260 dd f3 ee be 57 69 46 3e 3c cb c3 3d da bb 8b 3e
       -0.46670428 0.19376121 0.09560248 0.27291757
000270 3e b0 cf 3d b0 f9 cf 3e a4 5c 07 3e 23 ae 05 3f
       0.101410374 0.40620184 0.13218933 0.52218837
000280 0a 47 82 3e e4 71 68 3e 1a 96 ba be 6e cd 01 be
       0.25444824 0.22699696 -0.36442643 -0.12676021
000290 ca f0 28 be 19 bb b3 3d 97 b7 b5 3e c7 d9 d3 bd
       -0.16498104 0.087759204 0.3549163 -0.10344272
0002a0 cb 90 00 bf 2a 84 ad be 5a b4 27 3f 81 a5 23 3e
       -0.50220937 -0.33889896 0.6550957 0.15981103
0002b0 07 76 60 be 3f 36 eb 3e 83 6b 03 bd c1 0d ad be
       -0.21920024 0.45939824 -0.032084953 -0.33799556
0002c0 9e 9a 7b be be 83 5c 3e 4b 3c 01 3d 7a c3 e9 3e
       -0.245707 0.2153463 0.03155164 0.4565695
0002d0 14 ff 11 3e dc a3 db be c0 bf 89 bd f6 52 13 3e
       0.14257461 -0.42898452 -0.067260265 0.14387116
0002e0 dc 97 14 3f 73 ae b0 be 7f 3c 48 bf 14 40 a7 bd
       0.5804422 -0.34508094 -0.7821731 -0.08166519
0002f0 47 92 0a bd 3f 3f a6 3e b9 4a 5d bd af 61 0c bf
       -0.033830907 0.32470128 -0.05402634 -0.54836553
000300 3b bd 52 3e 91 74 6c bd 96 fa 62 3f 5a bf 3b 3f
       0.20579998 -0.057728354 0.88663614 0.73338854
000310 18 da ea 3e 8c 91 80 be 14 87 2c 3e 7b b8 ca bd
       0.45869517 -0.25111043 0.16848403 -0.09898468
000320 c4 1e 68 bd ae 12 e9 3e 8f b8 6d bf 65 6e be be
       -0.056669965 0.45522064 -0.9285974 -0.371936
000330 87 02 37 3e 3b 82 f6 bd ea 65 d8 3e 3d 52 03 3f
       0.17872058 -0.12036558 0.42265254 0.5129736
000340 61 1b 09 3e 7a 62 21 3e 6a f8 3b 3f b4 37 95 3e
       0.1338935 0.15760222 0.73425925 0.2914406
000350 34 aa cd 3e 10 b5 c8 3e 09 6c 4a 3f b9 c2 66 3e
       0.40168917 0.3920064 0.790711 0.22535218
000360 f7 13 9b be 1e 71 c2 3d 5a f8 20 3e c7 02 57 3e
       -0.3028867 0.09494232 0.15719739 0.20997153
000370 c2 19 89 be fc c1 6b 3d de 0c dc bd 18 57 c9 3d
       -0.26777464 0.057558045 -0.10744642 0.09831065
000380 e5 70 17 3e 74 91 93 3e d3 a0 47 3f ea c8 43 3f
       0.1478916 0.2882191 0.77979773 0.76478446
000390 55 8d 8a bd bd f6 cb be 59 56 a7 3d 7d e0 30 3f
       -0.06765238 -0.39836684 0.081707664 0.6909254
0003a0 3c 02 67 be e9 e1 a3 be 04 6d b3 be 42 df 13 be
       -0.22559446 -0.32008293 -0.3504411 -0.14440635
0003b0 e4 de 05 bf e0 a2 ae 3d d7 a3 1e 3e 0a 21 21 3f
       -0.5229323 0.0852716 0.15492187 0.6294104
0003c0 df 38 74 be 95 32 a2 bd f5 4d e5 bc 1d fc 05 3d
       -0.2384982 -0.07919804 -0.027991274 0.032711137
0003d0 40 aa 9d 3e 9f df 26 3c 2e 18 d2 3e 73 22 30 be
       0.30793953 0.010185151 0.41034073 -0.17200641
0003e0 92 9c c9 3c 5d 69 b1 be 9e e1 cf 3e 6a d5 08 3e
       0.024610791 -0.34650698 0.4060182 0.13362661
0003f0 86 fa 0b 3f ef 7b da be fc ec 42 bf e1 3f dd be
       0.54679143 -0.4267268 -0.7614286 -0.43212798

fc1.bias f4 [64]
000000 ce 6f 68 be 6d 1a bc be 7d 7c 88 be 47 bb ec be
       -0.226989 -0.3673891 -0.26657477 -0.4623663
000010 cc 1a 09 bf 84 7d ae be dc ce ad 3e c9 12 a8 bd
       -0.53556514 -0.34080136 0.33946884 -0.08206708
000020 a3 89 ea 3e 9a 93 8e 3e 3b da 69 be af b8 b8 3e
       0.45808133 0.27846986 -0.22837155 0.36078402
000030 a0 31 9e 3e 3e 90 0a bf e2 61 28 3d 87 d7 c1 3e
       0.30897236 -0.54126346 0.041108973 0.37859747
000040 99 8e 64 be be ca 7f be 3c c7 9c 3e c9 39 86 3e
       -0.22320022 -0.24979684 0.30620754 0.26215962
000050 bc 7b 58 3e 1b fc 08 3e 09 0c b3 be 48 2d 93 3d
       0.21140951 0.1337742 -0.3497012 0.07186371
000060 58 77 b1 3e 77 5a cd 3e 3e c2 8c 3e 54 6a db 3e
       0.34661365 0.40108082 0.27491945 0.4285456
000070 bb 41 7e bc e8 9a 6b 3e 90 f4 84 3e cd 27 9a 3e
       -0.015518601 0.23008311 0.25967836 0.3010849
000080 d0 08 56 3e 0e 95 2d 3e 15 cd ba 3e 95 bf 19 3e
       0.20901799 0.16951391 0.3648459 0.15014489
000090 04 3e 9b 3e b0 d4 49 be b8 0b a5 3e af df cb be
       0.30320752 -0.1971004 0.32235503 -0.39819095
0000a0 f4 56 fa be 77 54 d4 3e d5 fd 0a be ba d2 64 3e
       -0.48894465 0.41470692 -0.13573392 0.22346011
0000b0 16 15 c1 be 92 1a a6 be 21 e7 14 3e 7b 82 b2 3e
       -0.377114 -0.32442147 0.14541294 0.34865174
0000c0 37 34 e5 3e 84 0e a2 be e6 a6 e7 3e 7f 33 a0 3e
       0.447664 -0.316517 0.4524452 0.31289288
0000d0 3e 89 40 3d e8 c2 55 be ff 40 8e be be 16 c8 3e
       0.047005884 -0.20875132 -0.27783963 0.3907985
0000e0 2a 13 a2 3e c2 a4 ca 3e cf 6e 9d bd 60 32 a8 bd
       0.31655246 0.39578825 -0.07687151 -0.08212733
0000f0 7d 12 c6 3e b8 a4 2d 3d 91 39 1b be cf db aa 3e
       0.3868598 0.042393416 -0.15158679 0.33370826

fc2.weight f4 [2, 64]
000000 2f 6d 76 3a 19 21 e6 3d 57 c5 8d 3d 76 9d 08 be
       0.0009400425 0.112367816 0.06922405 -0.13341317
000010 8c 60 08 3b e8 72 bb bd 22 57 5c bc 6e 28 f0 3c
       0.00208095 -0.09152776 -0.013448508 0.029316153
000020 51 36 35 3e ce 21 da 3d 08 7d 0d 3c d6 6d af bd
       0.17696501 0.10650979 0.008635767 -0.085658714
000030 94 f5 ab be e7 a9 d8 bb 44 64 d0 3c e5 1d 31 3e
       -0.335858 -0.006612051 0.025438435 0.1729656
000040 47 c0 38 3d 59 ad 9b bd eb 4d 43 3d ea 87 20 be
       0.045105245 -0.07601423 0.04768173 -0.15676847
000050 3f 64 c2 bd 2a bc ec 3d 13 9e f5 bc f1 e1 e5 3c
       -0.09491777 0.11559327 -0.029982602 0.028061839
000060 8e 96 2c 3e ce 52 46 bd 00 73 7c 3c d6 5e 9d 3d
       0.16854307 -0.048418812 0.0154082775 0.07684104
000070 f8 78 41 bd b2 6f 87 be d9 70 55 bb d6 9b 37 3e
       -0.047234505 -0.26452404 -0.0032568483 0.1793054
000080 32 d5 a2 3e 91 da bd 3d ea 5e 81 be bd 46 60 3e
       0.3180328 0.09270204 -0.25267726 0.21901985
000090 6c 91 98 3d f3 19 91 3c d4 1f 28 be 55 a9 ec bd
       0.07449612 0.017712569 -0.16418391 -0.11555735
0000a0 6e 4a e4 3c cc e9 5e bd d0 f8 d2 bd 35 46 39 bb
       0.027867522 -0.054422185 -0.103013635 -0.0028270606
0000b0 42 49 95 bc c4 5d 73 3d 89 78 bb 3d 00 7d 96 3b
       -0.018223409 0.059415594 0.0915385 0.004592538
0000c0 32 5d 1d be 51 9b 0c 3d 7a de bc 3d bc 5b 0e be
       -0.15367582 0.03432781 0.092221215 -0.13902181
0000d0 f6 8a 81 be 14 d8 59 be 5e 38 01 be 5e b5 cb bc
       -0.2530133 -0.21273834 -0.12619159 -0.024866756
0000e0 94 c1 1f be 8b ce ab bd 79 58 10 3e 0a 0a 70 bd
       -0.15601188 -0.08389004 0.1409625 -0.058603324
0000f0 84 56 aa 3d a8 8d c3 bb 76 2d 87 bd 64 9f 70 3e
       0.08317283 -0.0059678145 -0.06600468 0.23498303
000100 fc 1b 71 3d 8d de 66 3c 14 8e 4f bd 28 ab f1 3d
       0.05886458 0.014091146 -0.050672606 0.118002236
000110 04 20 b7 3d af 61 d4 3a 93 2f a3 3d 2d 94 9d bd
       0.08941653 0.0016203428 0.079680584 -0.07694278
000120 72 69 27 be ce e6 8c bd dd 48 23 bc e7 e4 2b 3e
       -0.16348818 -0.0687996 -0.009966102 0.16786538
000130 fc a2 95 3e e5 29 ea bd ff 94 0d be 90 aa 00 be
       0.2922591 -0.11433772 -0.13826369 -0.12565064
000140 93 03 5f 3c b3 64 34 bc 07 1a 8d be c3 1d 18 3e
       0.013611692 -0.011010337 -0.2755892 0.14855103
000150 69 ae 20 bd 3a c6 83 be 73 f9 a9 bd 0a 8f 09 bc
       -0.03922883 -0.25737172 -0.08299532 -0.00839592
000160 a4 0b 3a be a6 bc 28 3d fc a2 11 be f8 fd 12 be
       -0.18168503 0.041195534 -0.1422233 -0.14354694
000170 2c b1 05 3d fe f7 83 3e ae c1 08 be 81 e5 74 be
       0.032639667 0.2577514 -0.13355133 -0.23915674
000180 10 e6 7e be fb 19 fe bd f5 09 67 3d 7e 1e 83 be
       -0.2489245 -0.12407299 0.05640598 -0.256092
000190 01 65 58 be 14 42 cd 3c 85 60 1c 3e 6d 89 d3 3d
       -0.2113228 0.025055923 0.15271194 0.10328946
0001a0 71 a5 36 bd fc 13 6c bd 12 4f e1 3d 16 9c 20 be
       -0.04459137 -0.057636246 0.110014096 -0.15684542
0001b0 27 9d 39 bc df e7 4f bd 29 f0 46 be 8b 9d 1c be
       -0.011328972 -0.05075824 -0.19427551 -0.15294473
0001c0 35 c8 32 3e f7 a4 f5 bd 85 33 22 be 2b 05 94 3d
       0.17459185 -0.11994355 -0.15839966 0.07227548
0001d0 9e cb a4 3e c5 45 71 3e 43 30 15 3d f0 56 89 3b
       0.32186598 0.23561771 0.03642298 0.004191272
0001e0 a7 25 85 3e 99 c9 f2 3d 8d e4 c8 bd 32 96 4d 3e
       0.2600529 0.11854858 -0.098092176 0.20076826
0001f0 74 c1 d3 bb 46 9f f6 bc 18 a3 42 bd 15 4f 89 be
       -0.0064622704 -0.030105244 -0.04751882 -0.26818147

fc2.bias f4 [2]
000000 a5 f0 a9 bd ff db 5d 3d
       -0.082978524 0.054164883
