reinforcement_learning/reinforce/reinforce_250.pth (torch, 3968 bytes, 4 tensors)

fc1.weight f4 [64, 4]
00000000: 7782 03be 1993 4e3e d31d c3be 583e fcbe
00000010: a04f ff3e 2ff6 183d f331 eb3d a4a1 813e
00000020: d3f4 b2be de78 523d a967 b7be 792e 493d
00000030: 97ea 2b3e 809a 79be 2824 af3e 3b8c 763e
00000040: 1d7d f4be bab8 d83d 9996 843e a5d2 cb3e
00000050: c593 3b3e 1b4e e5bd fe52 8bbe 26a6 a3be
00000060: 2e75 e63c ec95 f5be 79d8 c13d 358b 4bbb
00000070: 975a dd3e 757e bb3d c567 b13e 7eed 59be
00000080: 6cb4 a4bd 2981 eb3e 8fe8 b53e c03c 55be
00000090: 7f51 953e e937 c8be 82fd cebe 69c6 99be
000000a0: 50fb 2f3e 4499 c8be 1524 cd3e 34b4 5538
000000b0: 1956 ea3e 4abc 94be 3ac2 dc3e fba6 9ebe
000000c0: bbd9 1abe 621e ec3e 8935 f5be b034 e6bd
000000d0: 7267 ad3e a179 a0be 5f28 ffbd bf83 8ebd
000000e0: f537 81bc 2a49 023f c9ad 273e 07d5 563d
000000f0: 24d2 fdbe c790 d93d 7e17 fb3e d375 e6be
00000100: 4456 533c a9a3 90be 0feb a83d 5f21 a6be
00000110: 0f7a 2f3e 0720 253e 9eb7 c33e 8616 e0be
00000120: c8af 423e 3cae 5b3e d195 8ebd 9c06 a0be
00000130: cd9e febe dfe4 1f3e 8fbb f93d 1299 ba3e
00000140: 9c1f b63e 8ae8 dc3e d8a3 d7be 080c a43e
00000150: b8a5 f5be 734b ac3e b3c8 153e 3d77 c63e
00000160: 8e58 aebe 543a f0be 59fc dc3e b22a 4fbe
00000170: 5008 8abe 54c6 ccbe 5ba3 4d3d 7ecf 95bc
00000180: d8e7 6cbe 6610 3a3e 4813 28bd 6d87 cfbc
00000190: 98ae 8fbe 30ea 8dbd 00f7 213b d0cf d3bd
000001a0: 8c9e 9e3e 7da6 273e 0330 d2be 0da2 6fbe
000001b0: a0d1 78be c8f8 fabd 8eb4 d23e a0ea 4c3d
000001c0: 0489 b3be b024 b63e 310f dabe d8b8 13bd
000001d0: ac48 d03e 8c7c 1d3e df5e 21bd f0d8 a9be
000001e0: 8eb0 9dbd accd 3e3e ce83 133d 9c6e 8ebd
000001f0: 14c7 153e 141a b2be eb47 1d3e 1fcd e5be
00000200: b96f 9abe e32a e73d edaa a63e a614 173e
00000210: ea70 9c3e 5703 cb3e 66d1 eb3e de1c af3e
00000220: 716f 85be 88a7 ff3e 0fac 98be 9f59 413e
00000230: b114 05bf 5843 c4bd d80a da3e 7254 c53e
00000240: 0cde b5be d47e e6be 8286 06bd 1248 e53d
00000250: 783e 0a3e 27af 7a3e d7a1 bcbe 168c f73e
00000260: f6a3 aebd 5c00 fcbd 971c 4c3d 5238 02bd
00000270: e088 73be a0e8 46be 2c18 9abd b0b6 cb3c
00000280: 0c86 debe 4f41 a63e 621c fcbe 341c ebbe
00000290: f1d5 283e b51b 4ebe 0b7b 49be f5e5 c1be
000002a0: 7cf0 9e3c 569f d43e df8d 023e c55e 87be
000002b0: d609 333e f924 e7be 6721 63be df99 7c3d
000002c0: 7fdc 893e 03bb 13be 942f 7dbe d8b1 3c3e
000002d0: 9aa2 dabe e267 99be 9a66 f5bc 7ad5 0b3f
000002e0: 05be f93d d49c 55be 951a 30be 49f3 98be
000002f0: 2561 32be 329f f3be 3d6f 29be e034 a4be
00000300: f53f b5bd c73f bc3d 0694 243d 9639 673e
00000310: c56c 973d 7775 8b3e 568d b1be 5ecb febc
00000320: e085 8a3d 6c84 873e 6f83 493e 48eb 00bf
00000330: 1a89 553c 6de0 fbbd 92d4 0dbe 5143 82be
00000340: 0b19 88bd fa75 ec3e 2dc3 bf3e d64c 9e3d
00000350: 6bbc f43e 2944 043f f814 26bc 6ed4 90be
00000360: 1684 0bbf 5005 b7be 91f3 9e3d 5f66 bb3e
00000370: 4000 0e3c d06c 923d 8801 edbe 58c8 973d
00000380: af51 e1be c404 e8be 9847 80be ceb5 92be
00000390: 9436 c9be 25ff 9b3e 1860 fb3e da0e e7be
000003a0: 8728 09bd e74b 09be e626 c0be 00ad 5bbe
000003b0: 8bc3 7e3e da62 f0be 4b99 513d 8d19 6e3e
000003c0: 5664 2a3e 6736 64be aae8 8f3e 83dd ca3e
000003d0: fa44 dd3e 19eb 583e 928a 99be 4bbc ef3e
000003e0: 6681 053f defb 8c3e aad5 5fbd 5fd7 61be
000003f0: 64eb b5be 241b 5f3e c5b6 353d c9ed a33e
-0.12842737 0.20173301 -0.38108692 -0.49266315 0.49865437 0.037344154 0.114841364 0.25318635
-0.3495241 0.0513848 -0.35821274 0.049116585 0.16788708 -0.24375343 0.34207273 0.24076931
-0.47751704 0.10582109 0.25896147 0.39809147 0.18318088 -0.11196538 -0.27211756 -0.319627
0.028132048 -0.47965944 0.09465117 -0.0031058316 0.43233177 0.09154979 0.34649482 -0.21282002
-0.08042225 0.4599698 0.3552899 -0.20823956 0.2916374 -0.39105156 -0.40427786 -0.30034187
0.17185712 -0.39179432 0.4006659 5.0950985e-05 0.45768812 -0.29049903 0.43116933 -0.3098677
-0.1512212 0.4611693 -0.47892407 -0.11240518 0.33867985 -0.31342795 -0.12458872 -0.06958722
-0.015773753 0.5089289 0.16374888 0.052449252 -0.49574387 0.10623317 0.4904136 -0.45011768
0.012898985 -0.28249863 0.08247959 -0.32447335 0.17136405 0.16125499 0.38226026 -0.43767184
0.19012368 0.21453184 -0.06962169 -0.31255043 -0.4973053 0.15614651 0.12193977 0.36444908
0.3557099 0.43146163 -0.4211719 0.3204043 -0.47977996 0.33651313 0.14627342 0.38762847
-0.34051937 -0.469195 0.43161276 -0.2023113 -0.26959467 -0.39995062 0.050204616 -0.018287417
-0.23135316 0.18170318 -0.041034013 -0.02533313 -0.28062892 -0.06929433 0.0024713874 -0.103423715
0.30980337 0.16372104 -0.41052255 -0.23401661 -0.24298716 -0.122544825 0.41153377 0.050028443
-0.35065472 0.35574865 -0.42589715 -0.036064953 0.40680444 0.15379542 -0.039397117 -0.33173323
-0.07699691 0.18633145 0.03601437 -0.06954691 0.14626724 -0.3478552 0.15359466 -0.44883057
-0.30163363 0.11287477 0.3255228 0.1475397 0.30554897 0.39650986 0.46058196 0.3420171
-0.26061586 0.49932504 -0.2981877 0.18881844 -0.519847 -0.09583157 0.42586398 0.3854099
-0.3552097 -0.45018637 -0.03284312 0.11195387 0.13500392 0.24480878 -0.36842224 0.48349065
-0.08527367 -0.12304756 0.049831953 -0.031791992 -0.23782682 -0.19424677 -0.07524142 0.024867386
-0.43461645 0.32471702 -0.49240404 -0.45919955 0.16487862 -0.20127757 -0.19675843 -0.37870756
0.019401781 0.41527814 0.12749432 -0.2643949 0.17484221 -0.45145395 -0.2218071 0.06167018
0.26926038 -0.14426808 -0.24725181 0.18427217 -0.4270218 -0.2996207 -0.02995615 0.54622614
0.121944465 -0.20860606 -0.1719764 -0.29873112 -0.1741987 -0.47582394 -0.1654634 -0.3207159
-0.088500895 0.09191852 0.04018023 0.22580561 0.07393793 0.27238056 -0.34678143 -0.031102832
0.06763816 0.26468217 0.19679044 -0.5035901 0.013033176 -0.12298665 -0.1385062 -0.25441983
-0.066454016 0.4618376 0.37453595 0.07729499 0.47800002 0.51666504 -0.010136835 -0.2828707
-0.5449842 -0.3574624 0.077613 0.3660154 0.008667052 0.071496606 -0.4629023 0.074112594
-0.44007632 -0.45316136 -0.25054622 -0.2865433 -0.39299452 0.30468097 0.4909675 -0.45128518
-0.033485916 -0.1340786 -0.37529677 -0.21452713 0.24879281 -0.46950418 0.051171582 0.23251934
0.16639838 -0.22286378 0.28107196 0.39622125 0.43216687 0.21183433 -0.29988533 0.46823344
0.5215057 0.2753591 -0.054647125 -0.22054814 -0.3553115 0.21787697 0.044363756 0.32017353

fc1.bias f4 [64]
00000000: 57de a23e 0cc3 d1bc 2413 ffbb f650 c53d
00000010: 07ce efbe ee6a e8be a428 83be 8506 da3e
00000020: a92b 71bb e75f a3be 2f57 ea3e e291 e33c
00000030: c07f 9abd 79c1 e73e 7985 d5bd 9eef 46be
00000040: cd3d d63e ffa9 41be c2b5 b1bd 7375 4f3e
00000050: 8089 f53d 8dd9 9dbe 055a 123e 729f 96bd
00000060: 25c9 c83c 3a72 89be a40a f6be 2ea3 f6be
00000070: 1863 c33d e6e1 133e 7047 dbbe 7dc2 a3be
00000080: a0b2 f13d 01e7 bfbd 7706 a3bc 2a52 b6bd
00000090: e992 4cbe 19c9 993e 1a1d 04bd cf4f e03d
000000a0: 8930 143e 039f 68be d602 3a3e a99b 983e
000000b0: 15bf c8be 4e8c dc3e 272c 44bd 89d6 dfbe
000000c0: 2d57 74bd 931d b4be 679a 943e 3ac5 4fbe
000000d0: 0b65 ef3e 2a1f 27be 6e0a 5f3e 14ff adbe
000000e0: 7074 ccbe d32c efbc b2c6 41be 02af dd3e
000000f0: 9402 ae3e aea0 babe 1c80 5f3d d863 88bd
0.31810257 -0.0256057 -0.007784264 0.09634583 -0.46836874 -0.4539408 -0.25616944 0.425831
-0.0036799705 -0.31909105 0.4576964 0.027779523 -0.07543898 0.45264795 -0.104258485 -0.19427344
0.41844025 -0.18912505 -0.08677246 0.20259647 0.11989117 -0.3083004 0.14292152 -0.073546305
0.024509976 -0.2684496 -0.48054993 -0.4817137 0.09540385 0.14441642 -0.4282794 -0.3198432
0.11801648 -0.093702324 -0.019900544 -0.0890239 -0.19977917 0.30036238 -0.032254316 0.10952722
0.1447164 -0.22716908 0.18165144 0.2980626 -0.39208284 0.43075794 -0.04789367 -0.43718365
-0.05965345 -0.35178813 0.2902405 -0.2029008 0.46756777 -0.16320482 0.21781322 -0.33983672
-0.39932585 -0.029196179 -0.18923452 0.43297583 0.33986342 -0.36450714 0.054565534 -0.06659669

fc2.weight f4 [2, 64]
00000000: fa49 23bd d339 1fbd 4d1a dd3c 0dd5 893d
00000010: 8f3b a63d 2848 1abd c8dd 873d a290 cbbc
00000020: 2cf9 cf3d 4c54 d6bd cc90 42bd a294 bc3d
00000030: 9757 183e ee41 e23d 915e 173d 52df 7a3b
00000040: cc45 c53d 8905 0d3b 0dad 1e3d d58f 2cbe
00000050: 1ef8 c33d 88c0 9d3d f08f d6bd 032e 07be
00000060: 3850 123e 64cf 823d 1640 b2bd 1017 e6bd
00000070: ba67 01bc c458 46bc 87f1 b9bc edbe c63d
00000080: 469d 3bbe 5bdf e9bd 644f db3d 503d 3e3d
00000090: e6b8 bebd 0108 d03c 2611 003d 10c5 64bc
000000a0: b99d 0e3e 77e9 9fbc a5ce d23c 36d1 78bc
000000b0: f33c a6bd 1d76 8fbd 0b0a 6fbc 584f 243d
000000c0: 9e29 0ebe 7c2e ad3c dd3c 103d 3940 a23d
000000d0: 485b ed3b 52e8 41bb 6be9 ddbd 20a7 183c
000000e0: f3b4 c8bd 2232 b4bc 2456 35bd 0179 853d
000000f0: f532 adbb 8a2b 9b3d 9f6f e13c b8a6 ac3c
00000100: addc 94bd e28f aebc c738 d3bd 5d8a de3b
00000110: 5c02 563d d868 d1bc c6b5 efbc 1b53 bdbd
00000120: c4e6 ee3c 8faf 133d 0af7 bd3d d964 13be
00000130: 2dbe edbd 9e73 573d 282c 7abc b213 673d
00000140: bb1d b53d 43ad e8bd b304 21be 9bf4 793d
00000150: 6ae8 c73d c835 35bc 151e 70bc d730 bebd
00000160: 7be7 fbbd 3610 af3d 5eac 43bd 2056 fdbb
00000170: 37c4 8bbd 7225 ddbc 9aa4 0f3d 96be 593d
00000180: 06ae 453e ca72 cf3d 9b4c 2a3c b680 ee3d
00000190: 1920 78bd 292f 023e 8bc6 75bd a48d e33c
000001a0: 39a3 0bbe 06d2 6bbb ab5f 973c 22d6 39bd
000001b0: 113d 853d c90f a03d ad7d b13c 51d7 da3d
000001c0: ea28 8d3d 070b d23d d0e8 e2bd d1e9 b83d
000001d0: 99a6 bbbd bf00 c5bd 4482 5fbd 2879 f1bd
000001e0: 51d6 e5bd c599 0e3c ddbc 033c 25e1 083e
000001f0: 140e 353e dd5b e2bc c3f3 ffbd 0815 223e
-0.03986547 -0.038873505 0.02699008 0.06730089 0.08116829 -0.03766647 0.06634098 -0.02484924
0.10154948 -0.10465297 -0.04750137 0.09208037 0.14877163 0.11047731 0.03695542 0.0038280082
0.09632453 0.0021518192 0.038739253 -0.16851743 0.09568809 0.07702738 -0.10476673 -0.13201146
0.14288414 0.06387213 -0.0870363 -0.112348676 -0.0078982655 -0.012106124 -0.022698177 0.09704385
-0.18321714 -0.11419555 0.10708502 0.04644519 -0.0931261 0.025394442 0.031266354 -0.013962999
0.13927354 -0.019520504 0.025733301 -0.0151865985 -0.08117094 -0.0700495 -0.014589797 0.04011473
-0.13883063 0.02114033 0.035214294 0.07922406 0.0072435476 -0.0029587937 -0.108355366 0.009317189
-0.09800138 -0.021996561 -0.044271603 0.0651722 -0.0052856156 0.07576664 0.027519045 0.021075591
-0.07268653 -0.021308843 -0.10313564 0.0067913965 0.052248344 -0.025562689 -0.029261481 -0.09244367
0.029162772 0.036056098 0.092756346 -0.14393939 -0.11608539 0.052600496 -0.015269317 0.056415267
0.08843561 -0.11361172 -0.15724449 0.06102429 0.09761126 -0.011060186 -0.01465561 -0.09286659
-0.12300011 0.08548014 -0.047771804 -0.007731214 -0.068245344 -0.026995394 0.035069086 0.053160273
0.19304666 0.10129316 0.010394241 0.116456434 -0.060577486 0.12713303 -0.0600038 0.0277775
-0.13636483 -0.0035983338 0.018478235 -0.04537023 0.06505788 0.07815511 0.021666372 0.106855996
0.06892569 0.102560095 -0.11079562 0.09028972 -0.09162635 -0.09619283 -0.05456759 -0.11790687
-0.11222518 0.008703654 0.008040634 0.13367136 0.17681152 -0.027631694 -0.12497666 0.15828335

fc2.bias f4 [2]
00000000: cc2b a1bd 8f0e fc3d
-0.07869682 0.12307464
