reinforcement_learning/reinforce/reinforce_999.pth (torch, 3968 bytes, 4 tensors)

fc1.weight f4 [64, 4]
00000000: dac4 ecbd 8069 f23c 4d99 63bf dab1 34bf
00000010: e614 f13e a5bb d33d f048 163f 0eaa 043f
00000020: afee 5dbe e174 8f3c 4b2a 57bf e537 4cbe
00000030: bbea 4b3e 2252 91be dc71 9e3e 3f60 6f3e
00000040: 15a1 d1be 9d63 073e d706 8c3e 339b d03e
00000050: 844f 363e 28d0 e5bd 63fc 8abe 0a7f a3be
00000060: f67b 853c fbdf f1be b749 d1bc 220e 87bd
00000070: 48cb da3e 4b80 913c 7de6 38bd 5297 c7be
00000080: a9ff 23bd 7cba e03e 0258 163e 204f 98be
00000090: dbf6 923e 32c9 b0be a319 bfbe 22a3 94be
000000a0: 0b47 3c3e adef b6be ff8c 203f 118d b93d
000000b0: bac2 e53e ef51 b1be dafa b13d 4af6 e4be
000000c0: 514a ebbd 279b e73e 5166 24bf 47a0 33be
000000d0: ab0a ad3e 5b6a c5be a494 12bf eda5 93be
000000e0: 40ce 22bd ea32 fe3e ca15 653d ccdb 0f3b
000000f0: 24e4 f0be 056e d43d 757a 023f 4a30 e0be
00000100: 28ed ef3c a2f3 b9be 2c27 d8be 71ea 11bf
00000110: c182 583e 1f2e 2f3e 7b89 643e 9890 02bf
00000120: f540 5d3e 512e 503e 0989 85be 1eb0 c8be
00000130: 6ae6 cdbe dbc5 9d3e 3019 093f f0f9 073f
00000140: c1c6 ae3e f0a3 ec3e cf1c ebbd 2235 f03e
00000150: 6a9a f2be a6d8 a53e 6336 f93d 8c1f c43e
00000160: b48e b8be 464c e2be f2bb 003f 8fe5 34be
00000170: 3fd5 45be 89f1 acbe 0227 033e b025 713b
00000180: 307e 79be b627 073e 5a0c 84be b56d ddbd
00000190: 4660 83be e66a 41bd 7439 9bbc 8897 dfbd
000001a0: 83c4 853e 9dbb 1d3e 4e33 d1be 5932 6dbe
000001b0: a1ca 75be a52b dabd 0f3e df3e 3ccf 7b3d
000001c0: e018 a1be f96a 753e e9ca 55bf 277b 56be
000001d0: 5276 c73e 5d35 093d 739b ddbe fb1c f4be
000001e0: e2c3 83bd e5a5 413e 7dad 153d 4568 90bd
000001f0: f11f 823d 77e1 d1be cc55 fe3d ded8 e7be
00000200: 7000 4dbe 0938 473e d039 2c3f 0d1f 933e
00000210: 4bdb 9d3e b911 e03e 2aea 4c3f bebf 053f
00000220: 5d07 84be ac4c fb3e 276e c9be c01e 1b3e
00000230: 87e1 edbe e2d1 5fbd 5513 413f 8edd 123f
00000240: 8aea 91be eab3 d5be 0bca 103e 430c 4b3e
00000250: b0b5 c03d 0721 963e 58d9 3f3d a994 2f3f
00000260: 5fc7 06bd 2148 04be 7a81 b6be 4236 85be
00000270: f75a 85be d28a 1dbe 2d56 9dbd e74d 703c
00000280: 2d88 e1be 6374 7d3e c584 3fbf 2f57 0bbf
00000290: 5ba0 253e 5545 52be 3589 41be 1cbc bebe
000002a0: 8d42 373c e370 b33e d948 14be 4741 b5be
000002b0: c694 693e eb7f f1be f770 30bf f416 5cbe
000002c0: 07d4 a53e c103 5fbe 0606 4dbe a5a8 823e
000002d0: 9580 b9be c579 33be dcf5 a83e b768 3a3f
000002e0: aadf d23d cb57 59be 6cd7 89be d605 a8be
000002f0: 765b 28be 17f8 e2be 0f9f 0fbe dcfe 9fbe
00000300: 85cb 59bd 788a 0d3e cafb cb3e 2019 cc3e
00000310: bd55 113d b7d4 883e 8585 aebe aed9 fcbc
00000320: ce03 493d e5ab 2e3e 26bd 08be 83d1 1ebf
00000330: 827f 1c3d 51df f8bd 6e6b 0abe 9c26 80be
00000340: d525 57bd 98da db3e 490e 033e c851 8fbc
00000350: 8a21 f63e 7dcc 003f d858 51be 381c c1be
00000360: 96b0 f9be e483 5fbe 01af eb3e 5c72 0e3f
00000370: 4000 0e3c d06c 923d 8801 edbe 58c8 973d
00000380: 00be eebe 789b eabe 6b7e dbbe dca3 cdbe
00000390: ffe9 d0be 76de 9a3e 95d2 013f 8dd9 e2be
000003a0: 2d34 053c 073f f6bd 18bf b8be 6bfc 52be
000003b0: f457 823e c0e3 cabe 2985 b93e c189 c73e
000003c0: bc85 2c3e 379f cebd f22f 2c3f f288 113f
000003d0: 9248 c73e d8bd 2d3e b705 babe 3168 e43e
000003e0: c0a3 063f 657f 6c3e 4e09 9dbe 959f a6be
000003f0: 5c3c 8dbe f768 983e c0a5 da3e e97b 043f
-0.11560984 0.029591322 -0.88905793 -0.7058388 0.47086257 0.10338525 0.58705044 0.5182198
-0.21673082 0.017511787 -0.8404891 -0.19943197 0.19913761 -0.28382975 0.30946243 0.23376559
-0.40943208 0.13221593 0.27348968 0.40743408 0.1780377 -0.11221343 -0.2714568 -0.3193286
0.01629446 -0.47241196 -0.025547845 -0.065944925 0.42733216 0.01776137 -0.045141686 -0.38982636
-0.04003874 0.43892276 0.1468201 -0.29747868 0.2870396 -0.345285 -0.37324247 -0.2903071
0.18386476 -0.35729733 0.6271514 0.090601094 0.44875127 -0.34632823 0.08690424 -0.44719154
-0.11488784 0.4523556 -0.6421862 -0.1754161 0.33797202 -0.38557705 -0.5725806 -0.2883753
-0.039747477 0.4964822 0.055928983 0.0021951078 -0.47049057 0.10372547 0.50968105 -0.43786842
0.02928789 -0.3631869 -0.42217386 -0.56998354 0.21143629 0.17107438 0.2231807 -0.5100188
0.2160681 0.20330168 -0.26081112 -0.39196867 -0.40214854 0.30815014 0.5355406 0.5311575
0.34136012 0.46218824 -0.11480104 0.46915537 -0.47383434 0.32391852 0.121685766 0.38305318
-0.36046374 -0.44198817 0.5028678 -0.17665695 -0.19319628 -0.33778027 0.12807849 0.0036796145
-0.24364543 0.13198742 -0.25790673 -0.108119406 -0.25659388 -0.047221087 -0.018948294 -0.10917574
0.2612649 0.154036 -0.40859455 -0.23163737 -0.24003078 -0.10652856 0.43602034 0.06147693
-0.3146429 0.23966588 -0.8351274 -0.20945416 0.3895746 0.033498157 -0.4328266 -0.4767836
-0.06433846 0.1891094 0.036542404 -0.07051138 0.063537486 -0.4099233 0.12418708 -0.45282644
-0.20019698 0.1945497 0.67275715 0.28734627 0.3083137 0.4376352 0.80044806 0.522457
-0.25786868 0.49081933 -0.39341852 0.15148449 -0.46461126 -0.05464352 0.75420123 0.57369316
-0.28499252 -0.41738826 0.14139573 0.19828896 0.09409654 0.29322073 0.046838135 0.6858621
-0.03290498 -0.1291814 -0.35645658 -0.26017958 -0.26045963 -0.15384987 -0.07682452 0.014667011
-0.44049206 0.2475143 -0.74811965 -0.54429907 0.16174452 -0.2053426 -0.18899997 -0.3725289
0.011185301 0.35047063 -0.14480914 -0.35401365 0.22810659 -0.47167906 -0.6892237 -0.21493131
0.32388327 -0.21778776 -0.20021829 0.2551929 -0.36230913 -0.1752692 0.33000076 0.7281603
0.10296567 -0.21224897 -0.26922166 -0.32816952 -0.1644114 -0.44329903 -0.1402552 -0.3124913
-0.053172607 0.13822353 0.39840537 0.3986292 0.035482157 0.2672479 -0.34086242 -0.030865517
0.049075894 0.1705776 -0.13353404 -0.6203844 0.03820754 -0.12151969 -0.13517544 -0.25029457
-0.052526314 0.4294021 0.12798418 -0.017495051 0.48072463 0.50312024 -0.20444047 -0.37716842
-0.48767537 -0.21827656 0.46031955 0.5564325 0.008667052 0.071496606 -0.4629023 0.074112594
-0.46629333 -0.45821738 -0.42869887 -0.40164077 -0.40803525 0.3024785 0.5071195 -0.44306603
0.008130115 -0.1202374 -0.36083293 -0.20604102 0.25457728 -0.39626884 0.36234406 0.38972285
0.1684789 -0.100889616 0.6726066 0.56849587 0.38922554 0.16966951 -0.36332485 0.44610742
0.5259361 0.23095472 -0.3067116 -0.32543626 -0.27585113 0.29767582 0.42704582 0.5175157

fc1.bias f4 [64]
00000000: 5634 f03e 261b 423e 2842 573e d91a c63d
00000010: ba8f f3be f0bd e8be 0237 86be eebb f03e
00000020: 9192 7c3c 9435 b6be 5785 dd3e 220f 2a3e
00000030: a2d4 85bc 831a fd3e 2f5f d7bd e2d3 57be
00000040: 8781 f33e 94ca fbbd 2f9e 1ebc f2fb 8f3e
00000050: dd99 253e 5703 a7be 2727 ee3d bdf6 f8bd
00000060: f501 993d d398 90be c2f5 f9be 49d1 fcbe
00000070: 0fb2 673e 54cb 7c3e e384 dabe d096 8fbe
00000080: c355 483e d145 073e 3f55 10bd 68f7 853d
00000090: 1d95 5ebe 709a a03e be7a 223e 7bea b43d
000000a0: 0573 753e 8240 72be 698e 613e bfc9 c43e
000000b0: 9f7e 9bbe 90d4 db3e eaf8 043c 7676 e9be
000000c0: 2322 213e a536 b6be ed8a bd3e 038e 56be
000000d0: d1d6 fc3e e1fb 02be b10d 793e 14ff adbe
000000e0: f881 bebe 68a3 0dbd 6ab2 55be ad03 d33e
000000f0: 0faa b73e 6326 d2be 8f1d e23d a91d 4d3e
0.4691493 0.18955669 0.2102133 0.096730895 -0.47570592 -0.4545741 -0.26213843 0.4701838
0.0154158035 -0.35587752 0.43265793 0.16607335 -0.016336743 0.4943429 -0.10516202 -0.2107692
0.4755976 -0.12294498 -0.009681269 0.28121907 0.16171975 -0.32619736 0.116285615 -0.121564366
0.074710764 -0.28241596 -0.4882031 -0.49378422 0.22626518 0.24686939 -0.4267951 -0.28044748
0.19563965 0.13210227 -0.035237547 0.065413296 -0.2173657 0.31367826 0.15867135 0.08833786
0.23969658 -0.2365742 0.22026981 0.3843517 -0.30370042 0.4293561 0.008115986 -0.4559819
0.15735678 -0.35588565 0.37020054 -0.2095261 0.49382642 -0.12791397 0.24321629 -0.33983672
-0.37208533 -0.034579664 -0.20868841 0.41213742 0.35871932 -0.41044912 0.11040794 0.20030846

fc2.weight f4 [2, 64]
00000000: 64e1 4a3d 1719 40be 8391 c83e 1f3c 4ebb
00000010: afd7 a43d b004 1abd 2c56 8b3d 3b6d ae3c
00000020: d5a5 e23d 9573 83bd 0145 53bd c443 8c3e
00000030: 5e3e 3d3e 0f58 4e3e 1f1f fa3a ac5d fc3c
00000040: 4a68 4a3e 11e1 1d3d a990 b83d cd5c a3be
00000050: e253 103d 4a2b c23d 3881 4bbd 976b dfbd
00000060: fafb 4e3e 189f d63d 5eb6 80bd 10c9 dfbd
00000070: 66cd 9e3d 9990 513d db58 cbbc 55d8 063e
00000080: 79f2 bfbe ba60 9cbe 1464 683d 32dc 82bd
00000090: 5812 d1bd b4a9 a8bd a982 7c3e a867 cc3c
000000a0: 79c2 593e 539b f3bb 8609 5d3d 9320 ae3d
000000b0: 9ca6 dbbd cfe3 01be a53d 883d 92b0 ed3d
000000c0: 38fc c0be f8c0 113d b39c bc3d 78f5 b03d
000000d0: cf5b 23bb a4b6 b23c dccf 22be 20a7 183c
000000e0: 0cb6 d8bc 9bb9 c139 75bc f8bc bfcc 203d
000000f0: 282a d6bd d74b 343d 9639 913d 9de2 60be
00000100: 2df9 25be a278 023e 148e efbe 892f 9e3d
00000110: 23ca 583d d8ef d1bc 4d97 fdbc 54e9 0dbe
00000120: 4234 a43c e98e 90bb 2551 c63d 02d1 a6be
00000130: dcc5 1bbe c968 1dbd 2f05 a23c af25 f13c
00000140: f767 53bc ce9a 19be d2a1 55be f9a6 583e
00000150: 48db 213e fa45 ecbc 11d3 8ebd 3721 edbd
00000160: 7f9f 3abe 2581 363d e35f 93bd ba1a 31bc
00000170: 445f 1dbe bfdc b8bd 4058 183d 41b6 973c
00000180: d6fa c43e 97c5 953e d0cd 783d c13d 683e
00000190: 396d 53bd 0f85 703e f9f7 8cbe 0679 36bc
000001a0: f8c7 56be e07c 80bc 89c9 1fbc e112 15be
000001b0: aea6 ba3d a430 0a3e f67e 73bd e039 fd3c
000001c0: 9931 9d3e 2776 b43d 98b3 2bbe 9234 aa3d
000001d0: fab5 a7bd a5bd f7bd bbaf 80bb 2879 f1bd
000001e0: de2e 3cbe 4ad8 5fbc 8145 c0bb 6e6a 233e
000001f0: cb5c 8d3e 3deb 863b bc68 2cbe 4946 cc3e
0.049531356 -0.18759571 0.39173517 -0.003146894 0.08048951 -0.037602127 0.06803545 0.02129232
0.11066786 -0.0641853 -0.05157948 0.2739545 0.18480822 0.20150779 0.0019082761 0.030806385
0.19766346 0.03854472 0.09011967 -0.3190674 0.035236247 0.09480913 -0.04968378 -0.10909193
0.20213309 0.104795635 -0.06284784 -0.109270215 0.077540204 0.05116329 -0.024822643 0.13168462
-0.3748968 -0.30542547 0.056736067 -0.06389655 -0.10208577 -0.08235493 0.24659218 0.02495177
0.21265592 -0.0074342876 0.05396416 0.08502307 -0.107251376 -0.12684558 0.06652383 0.11605944
-0.37692428 0.03558442 0.092095755 0.086405694 -0.0024926548 0.021815605 -0.15899605 0.009317189
-0.026453994 0.00036950115 -0.0303633 0.03925776 -0.104572594 0.04401764 0.07091062 -0.21961446
-0.16208334 0.1274133 -0.46788085 0.0772391 0.052927148 -0.025627062 -0.030955935 -0.13858539
0.02004445 -0.0044115675 0.09683446 -0.32581335 -0.15212196 -0.03843001 0.019777862 0.029436914
-0.012903205 -0.1500046 -0.20862511 0.21157445 0.15806305 -0.028841961 -0.069738515 -0.11578601
-0.18224905 0.044556756 -0.07196023 -0.010809595 -0.15368372 -0.09026479 0.037193537 0.018519523
0.38472623 0.29252312 0.060743153 0.22679807 -0.051617835 0.23488258 -0.27532938 -0.011137253
-0.2097472 -0.015684545 -0.00975264 -0.14557983 0.09113823 0.13495117 -0.05944725 0.030911386
0.30701903 0.08811598 -0.16767728 0.08310808 -0.08189006 -0.12096719 -0.0039271987 -0.11790687
-0.18377253 -0.013662407 -0.0058676605 0.15958568 0.27609858 0.004117398 -0.16836828 0.39897373

fc2.bias f4 [2]
00000000: 69b6 57bd edbd c63d
-0.052664194 0.09704194
