reinforcement_learning/reinforce/reinforce_999.pth (torch, 3968 bytes, 4 tensors)

fc1.weight f4 [64, 4]
000000 f5 05 23 be e9 60 91 3e d9 03 c4 3e f2 4c 79 3e
       -0.15920241 0.2839425 0.38284186 0.24345759
000010 56 38 a5 bd e2 21 59 3d e9 79 00 3e 23 66 c9 3e
       -0.08067386 0.05301083 0.12546505 0.39335737
000020 ac a2 44 be 7d 8e a0 3e 22 2c 9d 3e 8d 18 8d bd
       -0.1920268 0.3135871 0.30697733 -0.06889448
000030 41 06 c9 3d 9e 0b ba be 8e f9 3d bd 4d 06 83 3e
       0.09815646 -0.36336988 -0.046380572 0.25590745
000040 31 a5 6d bd 07 62 69 be 99 0e 20 bd 50 20 a3 be
       -0.058018867 -0.227913 -0.03907642 -0.3186059
000050 60 35 b9 bb ca 3a f2 3d 6e 88 95 be b7 ff 43 be
       -0.0056521147 0.118276194 -0.2920565 -0.19140516
000060 2b b1 5a 3e 80 e3 1f be 1a 49 b0 bc a3 58 db 3e
       0.21356647 -0.15614128 -0.021519233 0.42841062
000070 91 d3 af 3d df 21 a1 be 92 ea f8 3d 41 0e 78 bc
       0.08585275 -0.31471154 0.12154116 -0.015140117
000080 a2 bb 91 bd d8 27 cd 3e e2 f9 23 be 41 45 22 bf
       -0.07115866 0.4006946 -0.16013291 -0.63386923
000090 77 cf a8 be d7 7d 83 3e 0a 90 cf be c4 85 29 bf
       -0.32970783 0.25681946 -0.4053958 -0.66219735
0000a0 79 8b cc bd 9f 1c ae 3e 6b cd 5b 3e c6 65 99 3e
       -0.0998754 0.3400621 0.2146508 0.2996046
0000b0 33 21 90 be 97 66 a3 3e 3f 5c fd 3e 62 f9 1d 3f
       -0.2815033 0.31914207 0.4948444 0.6170865
0000c0 fb 19 01 bf 37 b6 fe 3e 1f 44 02 3f 5d b4 1c 3f
       -0.5043027 0.49748394 0.50885195 0.6121271
0000d0 74 be e2 3e ee 17 79 bb 77 72 90 bd 69 2f 53 3e
       0.4428593 -0.0038008648 -0.070530824 0.20623554
0000e0 d3 1a cf 3e 4f 66 90 3e 80 2d 52 bf 05 a7 a3 be
       0.40450153 0.28203055 -0.8210068 -0.31963363
0000f0 25 55 a9 bd 4a 18 3c be e3 f5 e2 be 7b 4a 53 be
       -0.08268193 -0.1836864 -0.44328222 -0.20633881
000100 6a 3e d1 bb 1c 57 2b 3e 03 f9 4f 3e 0c b1 bd be
       -0.006385614 0.16732448 0.20309834 -0.3704914
000110 8f 0e 9b bd a6 18 c5 3d 85 69 01 bd e3 de 4d be
       -0.07571136 0.09623842 -0.031594772 -0.20104556
000120 ce 5c 66 3e 02 c6 0f bd 0b a3 c8 be 02 be 3f bf
       0.2249634 -0.035100944 -0.39186892 -0.74899304
000130 6e 54 83 3e c1 a9 9c 3e 76 03 bb 3e c9 9d 0f 3f
       0.25650352 0.30598262 0.36526078 0.56100136
000140 95 1b 9a be d2 39 29 3e 11 46 40 bd d2 d9 5b 3e
       -0.30099168 0.16525963 -0.04694182 0.2146981
000150 d3 3b 88 bd 2d 0f 3a be 3e 46 72 be c0 c8 25 bf
       -0.066520356 -0.18169852 -0.23659608 -0.64759445
000160 49 bb d6 3e 84 46 24 bd 14 69 03 3e e7 ab cc bd
       0.41939762 -0.04010631 0.12833053 -0.09993725
000170 04 97 d3 be d0 a7 b9 be df ec cd bd 75 7d 6a 3e
       -0.41326153 -0.36260843 -0.10054945 0.2289942
000180 cc c9 86 be e6 c8 d3 be 8a b5 1a bf 80 8e 32 bf
       -0.26325834 -0.4136421 -0.60433257 -0.6974869
000190 3b 87 19 bf 13 50 55 be f5 91 72 bd db 2a 03 3f
       -0.5997197 -0.20831327 -0.059221227 0.5123727
0001a0 1d 61 ed 3e 1b 8a fe 3e 03 b4 bb 3d 92 62 6e be
       0.46363154 0.4971474 0.09165194 -0.23279789
0001b0 22 e1 9e be 3b 1c bf 3e 38 a2 ee be ee 51 e7 bd
       -0.31031138 0.37326226 -0.46608138 -0.11294924
0001c0 81 06 ad be ad 72 d7 be 27 5c b2 3e 4f 74 fa 3e
       -0.33794025 -0.42079678 0.34835932 0.4891686
0001d0 47 77 2c be 30 08 8d 3e 0b f8 4d 3e 18 ee 17 3f
       -0.16842376 0.2754531 0.20114152 0.5934768
0001e0 42 02 b3 be ec 28 42 3e 88 9d 09 bf f4 e4 0d bf
       -0.3496266 0.18960923 -0.53756 -0.5542748
0001f0 e3 f5 7b be 06 ce 9c 3d 38 c3 02 bf 11 fd 1f bf
       -0.24605517 0.07656483 -0.5107913 -0.62495524
000200 70 16 df bd 3b af a4 be 0c 54 14 bf aa 97 d9 be
       -0.108929515 -0.3216494 -0.57940745 -0.42498523
000210 ff c6 d6 bc 7a 25 c1 3e d7 d5 af be df 13 18 be
       -0.026217936 0.37723905 -0.34342834 -0.1485133
000220 c6 f1 0a bd 18 b9 ef bd 10 b7 70 3f 9d a7 24 3f
       -0.03392198 -0.11705226 0.9402933 0.6431826
000230 29 1f 45 be 38 9f 67 3d 52 41 0d bf 2d 2e 09 be
       -0.19250168 0.056548327 -0.55177796 -0.13396521
000240 7c 87 1a be 59 8e 46 bd 24 86 3b bf 22 36 ec be
       -0.15090746 -0.048475597 -0.7325156 -0.4613505
000250 9d 04 86 be a1 ce a6 be 26 90 f2 bd 58 00 aa be
       -0.26175395 -0.3257952 -0.118439004 -0.33203387
000260 3f 95 ea be da f0 49 3e 85 59 de 3d f1 3b 8d 3e
       -0.4581699 0.19720784 0.10856918 0.27584794
000270 6d bc 04 3e 19 e7 da 3e 92 fd 36 3e ca 5c 08 3f
       0.12962504 0.4275444 0.17870167 0.53266585
000280 a0 8d 80 3e f5 21 5a 3e 21 c3 d0 be 41 b9 08 be
       0.2510805 0.21302016 -0.40773872 -0.13351919
000290 d4 21 2e be 03 1f af 3d f4 d9 b4 3e 17 0b d4 bd
       -0.17005092 0.08550837 0.35322535 -0.10353678
0002a0 4c 6d fe be ee 56 ad be 55 be 2a 3f bb f2 26 3e
       -0.49692762 -0.33855385 0.66696674 0.16303532
0002b0 44 b9 68 be 55 79 e5 3e 25 2d 72 bd 02 64 b0 be
       -0.22726923 0.44819131 -0.059125084 -0.344513
0002c0 a4 7d 79 be 57 02 5d 3e b0 05 01 3d c5 b3 e9 3e
       -0.24364334 0.21582924 0.031499565 0.45644966
0002d0 0e e4 0d 3e 44 2f d8 be fe 84 98 bd f0 99 10 3e
       0.13856527 -0.4222356 -0.07447241 0.14121222
0002e0 f7 40 12 3f c7 4b b2 be 1e 49 55 bf fe 6c d4 bd
       0.5713038 -0.3482344 -0.8331469 -0.10372351
0002f0 13 0a 16 bd b0 0b a0 3e 6f 45 d0 bd a5 20 10 bf
       -0.0366307 0.31258917 -0.101694934 -0.5629981
000300 60 5e 58 3e bf 25 5f bd e6 8e 70 3f e5 f9 41 3f
       0.21129751 -0.054479357 0.93968046 0.75771934
000310 61 48 e6 3e 70 d1 82 be 90 8d ed 3d a1 61 fe bd
       0.44977096 -0.25550413 0.115992665 -0.12420965
000320 ac 84 6c bd 92 98 e3 3e 78 d2 78 bf d8 3a c5 be
       -0.057743713 0.4445234 -0.9719615 -0.38521457
000330 e6 c6 3d 3e ef b1 ea bd a0 6b f3 3e 14 e0 08 3f
       0.18532905 -0.114597194 0.4754305 0.53466916
000340 64 95 0e 3e 1f 2f 24 3e d9 ce 4d 3f 9c 82 a7 3e
       0.13924176 0.160336 0.8039375 0.32716835
000350 10 b6 cf 3e cb c1 cb 3e 42 d8 59 3f 97 11 85 3e
       0.4056859 0.3979629 0.8509561 0.25989982
000360 22 a5 97 be 76 43 d3 3d 0b 07 28 3e 28 1d 55 3e
       -0.29618174 0.103156015 0.16408937 0.20811903
000370 64 40 82 be e0 10 6d 3d 5e bc cc bd de 51 cd 3d
       -0.2543975 0.05787742 -0.09996866 0.100253806
000380 77 1c 1d 3e 3e e7 94 3e 09 5b 57 3f 0b 0c 4b 3f
       0.1534289 0.29082674 0.84123284 0.7931525
000390 a2 15 73 bd 0e 76 cc be 3a cf e8 3d 85 99 34 3f
       -0.059346803 -0.3993382 0.1136765 0.7054675
0003a0 a0 2c 73 be 14 c6 a1 be c3 1a b4 be a0 d0 1a be
       -0.23747492 -0.31596434 -0.35176668 -0.15118647
0003b0 6f c7 04 bf c6 77 be 3d 35 ee 31 3e 7a 6d 22 3f
       -0.5186681 0.09300189 0.17376025 0.634483
0003c0 e1 20 82 be c4 24 9b bd 0f 53 29 bd 91 ad e9 3c
       -0.2541571 -0.07575372 -0.041338976 0.028525146
0003d0 6b 50 91 3e a9 a9 c7 3a f5 d2 cc 3e 13 6c 32 be
       0.28381667 0.0015233058 0.40004697 -0.1742404
0003e0 f6 aa 43 3d 34 36 b4 be 84 99 d1 3e 0f 49 0c 3e
       0.047770463 -0.35197604 0.40937436 0.13699745
0003f0 8d 1a 0a 3f ef 70 db be 98 c4 4f bf 04 62 e9 be
       0.53946763 -0.428596 -0.81159353 -0.45582592

fc1.bias f4 [64]
000000 c5 59 63 be d2 05 bc be 22 a0 8b be 31 e0 e5 be
       -0.22202213 -0.3672319 -0.2727061 -0.44897607
000010 39 1b 09 bf 9c db ad be 4b 20 b0 3e 32 80 b5 bd
       -0.53557163 -0.3395661 0.34399638 -0.08862342
000020 b5 54 ea 3e 98 f3 92 3e 3c 2d 6b be 63 6a c5 3e
       0.4576775 0.28701472 -0.22966474 0.3855773
000030 52 8f a1 3e 84 35 0d bf f5 7c 26 3d fa 41 c3 3e
       0.31554657 -0.55159783 0.040646512 0.38136274
000040 3c 9a 65 be c6 1e 80 be ed 51 9b 3e f1 b5 89 3e
       -0.22422117 -0.25023478 0.30335942 0.26896623
000050 0f a4 55 3e 16 7a 17 3e c7 17 bb be 99 56 8f 3d
       0.20863365 0.14792666 -0.36541578 0.06998939
000060 26 a7 b6 3e a2 9f cf 3e 69 35 8a 3e af 09 d9 3e
       0.356744 0.40551478 0.26993874 0.423902
000070 3c 48 c2 bb 69 a0 80 3e f4 50 8c 3e 56 a6 9e 3e
       -0.005929021 0.25122383 0.27405512 0.3098628
000080 f5 80 63 3e bb e9 2b 3e 2c 5d c3 3e 78 3a 29 3e
       0.22217162 0.1678838 0.38157022 0.1652621
000090 37 52 a7 3e b0 da 49 be 53 93 a5 3e d3 8f bb be
       0.32679912 -0.19712329 0.32338962 -0.36633167
0000a0 9a bb fb be dd 54 d3 3e c2 90 02 be f5 d2 62 3e
       -0.49166566 0.41275683 -0.12750533 0.22150786
0000b0 e9 4f c1 be 7c 90 a8 be 73 db 13 3e ef 1b b2 3e
       -0.3775628 -0.32922733 0.14439182 0.34786937
0000c0 6c 42 e9 3e 56 aa aa be d9 46 e7 3e 1c 32 a5 3e
       0.45558488 -0.3333308 0.4517124 0.32264793
0000d0 1d 96 5b 3d bc da 4d be c5 b9 8e be 65 86 c9 3e
       0.053609956 -0.20102972 -0.27876106 0.39360347
0000e0 b2 af a6 3e 4f a5 ce 3e 6e 91 a7 bd 65 44 93 bd
       0.3255592 0.40360495 -0.081820354 -0.071907796
0000f0 66 96 c3 3e d3 b6 0c 3d 3f 6a 15 be 34 9b a9 3e
       0.38200682 0.034354042 -0.14591311 0.33126223

fc2.weight f4 [2, 64]
000000 16 e1 df ba a6 31 e6 3d a2 4b 75 3d 39 86 13 be
       -0.0017080631 0.112399384 0.059886582 -0.1440667
000010 0a 54 08 3b 7a dc bb bd c6 ae bd bc 3a e7 8e 3c
       0.0020802044 -0.09172912 -0.023154628 0.017444242
000020 b1 c5 35 3e a4 9f e2 3d 2c 14 86 ba 28 3a c0 bd
       0.17751195 0.11065605 -0.00102294 -0.093860924
000030 78 f7 ad be 31 fd 31 bc ac 58 e4 3c 71 2e 36 3e
       -0.33977866 -0.010863588 0.027874313 0.17791153
000040 71 93 32 3d e0 28 9b bd bb f2 59 3d 6a 4a 2d be
       0.043597642 -0.07576156 0.05321 -0.16922918
000050 7e 2e be bd 00 71 fe 3d 67 7b 07 bd d0 45 f2 3c
       -0.092862114 0.12423897 -0.03307667 0.029574305
000060 ee a4 2f 3e f6 59 45 bd fe 70 3f 3c 2f ac 9d 3d
       0.1715276 -0.048181497 0.011684654 0.07698857
000070 30 7e 44 bd 58 92 8d be f5 2d 29 3a f9 85 3d 3e
       -0.047971904 -0.27650714 0.00064536865 0.18508138
000080 1d 07 a5 3e 55 21 ba 3d cb 13 89 be f6 50 67 3e
       0.3223199 0.09088389 -0.26772913 0.22589478
000090 36 28 b0 3d f0 0b bf 3c d0 65 26 be 8d d5 0a be
       0.0860142 0.023321122 -0.16249776 -0.13558026
0000a0 73 1c cc 3c 02 cd 6d bd 03 bd cb bd c3 d6 ad bb
       0.02491591 -0.05805684 -0.099481605 -0.0053051426
0000b0 a0 b9 89 bc fc 5e 40 3d d0 86 bb 3d 61 44 a7 3b
       -0.016812146 0.046965584 0.09156573 0.005104587
0000c0 44 16 2f be 26 64 0a 3d fa 42 c3 3d 59 73 1e be
       -0.17098337 0.033786915 0.09534259 -0.15473689
0000d0 94 2e 8e be 18 a1 67 be bd 9d ed bd d4 e7 c8 bc
       -0.2776991 -0.22620046 -0.11602352 -0.024524607
0000e0 c3 ff 32 be 2a 71 bd bd f2 60 15 3e 2d b4 6b bd
       -0.17480378 -0.092501 0.14587763 -0.057544876
0000f0 28 71 a9 3d 46 19 55 bc 51 1f 97 bd 23 c0 74 3e
       0.08273536 -0.013006514 -0.0737902 0.2390142
000100 c0 f4 7b 3d 23 5a 66 3c fa 4e 29 bd 51 be 03 3e
       0.06151271 0.014059576 -0.041335084 0.12865569
000110 65 20 b7 3d 63 c6 ee 3a 66 10 b7 3d e7 43 85 bd
       0.08941726 0.0018217083 0.08938675 -0.06507092
000120 d2 f8 27 be a4 64 95 bd f7 28 a1 b9 16 4b 34 3e
       -0.16403511 -0.07294586 -0.00030738834 0.17606768
000130 e0 a4 97 3e dc 74 e1 bd 87 13 10 be 1c bb 05 be
       0.29617977 -0.11008617 -0.14069949 -0.13059658
000140 ec b6 77 3c 9d 88 38 bc 9a ee 8f be 42 e0 24 3e
       0.015119296 -0.01126304 -0.28111726 0.16101173
000150 f8 19 29 bd 69 33 88 be 3b a3 a3 bd c8 56 22 bc
       -0.04128453 -0.26601723 -0.07990118 -0.009908386
000160 04 1a 3d be cd c3 27 3d d3 d2 0d be a4 24 13 be
       -0.18466955 0.040958215 -0.13849954 -0.14369446
000170 64 b6 08 3d a3 1a 8a 3e 98 c0 0c be a4 cf 7a be
       0.033377066 0.26973447 -0.13745344 -0.24493271
000180 f2 a4 81 be c1 60 fa bd 68 58 92 3d 94 a3 86 be
       -0.25321156 -0.122254856 0.071457684 -0.26296675
000190 61 30 64 be 17 50 9f 3c 80 a6 1a 3e 33 8b fc 3d
       -0.2228408 0.01944737 0.15102577 0.12331238
0001a0 67 8e 2a bd c6 30 5d bd 44 13 da 3d 7c 12 1e be
       -0.04163971 -0.054001592 0.10648206 -0.15436739
0001b0 61 bc 50 bc 17 e9 1c bd 42 f7 46 be c2 23 1d be
       -0.0127402255 -0.03830823 -0.19430259 -0.15345672
0001c0 49 81 44 3e 62 89 f4 bd b8 65 25 be 65 34 b4 3d
       0.19189943 -0.11940266 -0.16152084 0.08799056
0001d0 3c 6f b1 3e d5 0e 7f 3e ae 14 d7 3c 8b 41 7c 3b
       0.34655178 0.24908002 0.026254978 0.0038491215
0001e0 c3 c4 8e 3e 1d 36 02 3e 68 f5 d2 bd bd 80 4c 3e
       0.27884492 0.12715955 -0.10300714 0.19970985
0001f0 a4 6b c5 bb 0f f6 bc bc 60 bf 22 bd 6f 5f 8b be
       -0.0060247947 -0.023066549 -0.03973329 -0.27221248

fc2.bias f4 [2]
000000 28 a6 b1 bd f1 46 6d 3d
       -0.0867427 0.057928983
